training/models/1controller_controller_acc0.95_lat0.015_succ5_small7_large10_carb15_cap105_rate0.001598_best_model.pth (torch, 17037 bytes, 6 tensors)

shared_layers.0.weight f4 [64, 3]
0	0x3f7ae53b	0.9800603
1	0xbe3f6a89	-0.18692984
2	0x3dd79c93	0.10527911
3	0x3f289f58	0.6586814
4	0xbe1cd225	-0.15314539
5	0x3da9e3e5	0.082954206
6	0x3f190e84	0.59787774
7	0x3f27740a	0.65411437
8	0x3e957553	0.29191074
9	0xbf0f8594	-0.560632
10	0xbe5aa092	-0.21350315
11	0x3bd72fe0	0.0065669864
12	0x3ee8559b	0.45377812
13	0x3f0012cb	0.50028676
14	0x3f006ab2	0.50162804
15	0xbf0fa720	-0.5611439
16	0x3e99fd6e	0.30076164
17	0x3eb0900f	0.34484908
18	0x3d7435e2	0.0596217
19	0x3ecd4cda	0.40097696
20	0xbee3a190	-0.444592
21	0xbe0c2630	-0.13686442
22	0x3cf8e6d4	0.030383505
23	0xbed237af	-0.41058108
24	0x3d953457	0.07285374
25	0x3ef6b147	0.48182127
26	0x3f0da6ba	0.5533253
27	0xbfc08fd0	-1.5043888
28	0x3edebe26	0.43504447
29	0x3eb9fa32	0.36323696
30	0xbe52995d	-0.20566316
31	0xbd83379c	-0.06407091
32	0xbef19035	-0.47180334
33	0x3fb37e4f	1.4022921
34	0x3e2474d7	0.16060196
35	0xbe56b857	-0.20968758
36	0x3eef39de	0.46723837
37	0x3f2bae56	0.6706289
38	0xbf05ef4c	-0.52318263
39	0x3d5d491a	0.054024793
40	0x3d28a61c	0.04117404
41	0xbd141213	-0.03615005
42	0x3f4c3b83	0.7977831
43	0xbe1b03d7	-0.15138184
44	0x3efc5733	0.49285278
45	0xbe4dcba5	-0.20097215
46	0xbea8fd9b	-0.33005986
47	0xbd7fe204	-0.062471405
48	0xbf04d900	-0.51893616
49	0x3da8b71b	0.082380496
50	0xbe9284ea	-0.2861703
51	0xbe2565a4	-0.16152054
52	0xbc756a64	-0.014978979
53	0xbe01def8	-0.12682712
54	0x3f70850a	0.93953
55	0x3eb667a0	0.35625935
56	0x3ea3037d	0.318386
57	0x3e02e68c	0.12783259
58	0x3f28bbd5	0.6591161
59	0xbe2744c5	-0.16334827
60	0xbed2a4d9	-0.41141394
61	0xbf097399	-0.53692013
62	0x3eb7c051	0.35888913
63	0x3f9a9461	1.2076532
64	0x3dd35ea2	0.10320784
65	0x3e8610e8	0.26184773
66	0xbed3f034	-0.41394198
67	0xbedc15c1	-0.42985347
68	0x3edfeab1	0.43733743
69	0x3eddc304	0.43312848
70	0x3e7b465d	0.2453856
71	0xbef40a03	-0.47663888
72	0x3efc0e9d	0.492299
73	0x3f0b89d7	0.545072
74	0x3e352971	0.1769159
75	0xbf10534c	-0.563771
76	0xbe8f0134	-0.27930605
77	0xbda033f8	-0.07822412
78	0xbee6865d	-0.45024386
79	0x3ecc0419	0.39846876
80	0x3ed856f7	0.4225385
81	0xbeca7fb6	-0.3955056
82	0xbe8f7f54	-0.2802683
83	0x3f058b57	0.5216574
84	0xbe9992e9	-0.29994896
85	0x3c37e807	0.011224753
86	0x3e72752d	0.23677512
87	0x3f1d4079	0.614265
88	0x3f0b930c	0.5452125
89	0x3ed6e8f6	0.4197461
90	0xbe875e6c	-0.26439226
91	0xbe8e1a2e	-0.2775435
92	0x3d916f27	0.07101279
93	0xbe12f1be	-0.1435003
94	0x3d3d8c45	0.04627635
95	0x3f0e3162	0.555441
96	0xbf3162ac	-0.69291186
97	0x3f301b70	0.68791866
98	0x3f0c7f7b	0.5488202
99	0x3ec8ed10	0.39243364
100	0xbe7ac184	-0.24487883
101	0x3eada983	0.3391839
102	0xbf075dca	-0.52877486
103	0xbeec99ce	-0.46211094
104	0x3e7fa274	0.24964315
105	0x3e66dcad	0.22545119
106	0xbebdfb8b	-0.37105975
107	0xbc8ca3ff	-0.017168043
108	0x3f7c6160	0.9858608
109	0x3f110e3d	0.5666235
110	0x3e561e9d	0.20910116
111	0xbea0482a	-0.31305057
112	0xbcfda978	-0.030964598
113	0x3e248dad	0.1606967
114	0x3f0c631d	0.54838735
115	0x3f261220	0.64871407
116	0xbe2d752c	-0.16939229
117	0xbd87d793	-0.066329144
118	0xbe698391	-0.22804095
119	0x3da741f4	0.081668764
120	0xbf8a3419	-1.0797149
121	0x3ef92755	0.4866282
122	0xbf0d7997	-0.55263656
123	0xbef0a6dd	-0.47002307
124	0xbf025108	-0.50904894
125	0xbf0ec853	-0.5577442
126	0xbfb3d666	-1.4049804
127	0xbe8ed189	-0.27894238
128	0xbec00b8e	-0.37508816
129	0x3b845420	0.004038349
130	0x3d002c33	0.03129215
131	0x3e78254d	0.24232979
132	0xbfa5e48f	-1.2960376
133	0xbe865473	-0.26236305
134	0x3e27243e	0.16322419
135	0x3dfecbd9	0.124412246
136	0x3f14385d	0.57898504
137	0xbe06a4c9	-0.13148798
138	0x3d0ae6be	0.03391146
139	0x3ed95b9f	0.42452714
140	0x3f1657a9	0.5872751
141	0x3e55b354	0.2086919
142	0xbe80750f	-0.2508931
143	0xbdabbdfb	-0.08385845
144	0x3f6db35f	0.92851824
145	0xbeba5faa	-0.3640111
146	0x3efa19d0	0.48847818
147	0xbebcd181	-0.3687859
148	0x3ec07489	0.3758891
149	0xbdbc1327	-0.091833405
150	0x3e952551	0.29130033
151	0x3ef6d59a	0.4820984
152	0x3e46d0eb	0.19415633
153	0xbf8bc5b2	-1.0919707
154	0x3f398491	0.72467905
155	0x3e41f1fc	0.18939966
156	0xbfb800ad	-1.4375206
157	0x3ed922cb	0.42409357
158	0xbd39e3c0	-0.045383215
159	0x3ee6e2f4	0.45095026
160	0xbf0b417d	-0.543968
161	0xbe8d8b27	-0.27645227
162	0x3ecef7b1	0.4042335
163	0x3e445e53	0.19176607
164	0x3dffc9ae	0.12489639
165	0xbe2c1b42	-0.16807273
166	0x3e37ea5b	0.17960493
167	0x3eba2991	0.36359838
168	0x3f0c248e	0.5474328
169	0xbe877ef8	-0.26464057
170	0x3e08f0a5	0.13373049
171	0xbd8e487d	-0.0694742
172	0xbe8cc8a8	-0.2749684
173	0xbeae4f77	-0.34045002
174	0x3f5590f9	0.83424336
175	0x3eded74b	0.4352363
176	0x3efd9d6f	0.49534175
177	0xbec5665c	-0.38554657
178	0x3d82c256	0.06384723
179	0x3cfe510c	0.031044506
180	0x3f777574	0.96663594
181	0x3dcf43ec	0.10120377
182	0x3edff4a2	0.43741328
183	0x3e6c386c	0.23068398
184	0x3f13aae1	0.57682616
185	0x3d86d3a8	0.06583339
186	0x3da26466	0.07929306
187	0xbeb3a889	-0.3508952
188	0x3d281eb3	0.041044902
189	0x3f6de24e	0.9292344
190	0x3ed06c98	0.4070785
191	0x3ef4bdc1	0.4780102

shared_layers.0.bias f4 [64]
0	0x3e098875	0.1343096
1	0x3e2a7b67	0.16648637
2	0x3eb152a0	0.3463335
3	0xbd0cec2a	-0.03440491
4	0x3f35f06e	0.7106999
5	0x3f36a077	0.713386
6	0x3ed8d6b4	0.42351305
7	0xbed5a120	-0.4172449
8	0xbee07787	-0.43841192
9	0x3e4c6aee	0.19962665
10	0x3ee0787d	0.43841925
11	0xbd860563	-0.06543996
12	0x3ea92d82	0.33042532
13	0xbe51b9e0	-0.20481062
14	0x3dd8d660	0.10587764
15	0xbeb2adaf	-0.34898135
16	0xbede1a2f	-0.43379351
17	0xbea3c7b5	-0.31988302
18	0xbe13548f	-0.14387725
19	0x3f14cf34	0.58128667
20	0x3e491d0c	0.19639987
21	0xbd2a228b	-0.04153685
22	0xbbcc6541	-0.0062376563
23	0x3e3dbf79	0.18530072
24	0x3e1be2ad	0.15223189
25	0x3d8ae2f6	0.067815706
26	0xbeb4248a	-0.35184127
27	0xbf046073	-0.5170967
28	0xbde6f549	-0.11277253
29	0x3e1600eb	0.14648788
30	0xbdc71517	-0.097208194
31	0xbdb25643	-0.08707859
32	0x3ebe6217	0.37184212
33	0x3f376f87	0.7165455
34	0xbe857502	-0.26065832
35	0xbee24f6e	-0.44201225
36	0xbe6b6cdc	-0.22990745
37	0xbc56cb21	-0.013109953
38	0x3e8994e2	0.268714
39	0xbeae7ee3	-0.34081182
40	0x3e31f409	0.17378248
41	0x3cb694b0	0.022287697
42	0x3f07d3a3	0.53057307
43	0xbd28461f	-0.041082498
44	0x3f0beac5	0.54655105
45	0x3ef781cd	0.48341218
46	0x3e614de0	0.22002363
47	0xbe45e534	-0.19325715
48	0x3e84cac6	0.25935954
49	0xbed9b3b6	-0.4251992
50	0x3e8fb6ef	0.28069255
51	0xbcfe1915	-0.03101782
52	0x3e391802	0.18075565
53	0xbf0c7224	-0.54861665
54	0x3f1e34eb	0.61799496
55	0xbf115c40	-0.5678139
56	0x3e910ecf	0.2833161
57	0xbec20713	-0.37896022
58	0x3cd0c4b2	0.025484417
59	0xbeba0655	-0.36332956
60	0xbd22ebcb	-0.03977565
61	0x3e907b3a	0.28219014
62	0x3f1d7e88	0.61521196
63	0xbe27bc0e	-0.16380331

shared_layers.2.weight f4 [32, 64]
0	0x3ddb0062	0.106934324
1	0x3c74e240	0.01494652
2	0x3dc97b78	0.09838003
3	0x3d0f6668	0.03500977
4	0xbdab7296	-0.08371465
5	0xbcf64eb0	-0.030066818
6	0xbdc92550	-0.0982157
7	0xbde62288	-0.11237055
8	0x3d316744	0.043311372
9	0xbccb2850	-0.024799496
10	0x3d8b32d2	0.067968026
11	0xbbb89880	-0.005633414
12	0xbd9d941c	-0.07694265
13	0x3debe84c	0.115189165
14	0x3c8afc78	0.01696609
15	0x3d6cefc8	0.05784586
16	0x3dce072a	0.1005996
17	0x3de3b1a0	0.11117864
18	0xbde776f4	-0.113019854
19	0xbda19376	-0.07889454
20	0xbd9aaa90	-0.075520635
21	0x3d44d814	0.04805763
22	0x3d0f827c	0.03503655
23	0xbddd34e8	-0.10801107
24	0xbdf5ce98	-0.12002295
25	0x3da4a50c	0.08039293
26	0xbdbc2ff2	-0.09188832
27	0x3d0310d8	0.031998485
28	0xbd644018	-0.055725187
29	0xbd25e730	-0.04050368
30	0xbdd8f47a	-0.10593505
31	0x3d45db54	0.04830487
32	0x3dd6b914	0.104845196
33	0x3d77b3a4	0.060474053
34	0x3a8f3780	0.0010926574
35	0xbd990e82	-0.0747347
36	0xbdc50ef6	-0.09621994
37	0xbdaf3804	-0.08555606
38	0xbda10c1e	-0.07863639
39	0xbcd3dcf8	-0.025862202
40	0xbdff1a0c	-0.1245614
41	0xbd9f9c48	-0.0779348
42	0x3dd1302a	0.10214265
43	0x3d56c968	0.05243817
44	0xbc6802e0	-0.014160842
45	0xbd477c88	-0.048702747
46	0x3c9b3b08	0.018949047
47	0x3c81f748	0.015864983
48	0xbdceff28	-0.10107261
49	0xbdf37b7c	-0.11888787
50	0xbcf8ab48	-0.03035511
51	0xbdbc172c	-0.09184107
52	0x3d913904	0.07090953
53	0xbd8e90bc	-0.069612
54	0x3cb15ba8	0.02165015
55	0xbdc4716e	-0.095919475
56	0xbdf54e62	-0.11977841
57	0xbd3a07c4	-0.045417562
58	0xbde31d3e	-0.11089562
59	0x3dc37740	0.095442295
60	0x3de10eae	0.10989128
61	0x3df3d08a	0.1190501
62	0x3d8970f4	0.06710997
63	0x3cf96de0	0.0304479
64	0x3f200e7b	0.62522095
65	0x3e6736d8	0.22579515
66	0x3e4622a0	0.19349146
67	0x3db709b4	0.089373976
68	0x3e439ccc	0.19102782
69	0x3d64787f	0.055778977
70	0x3cab9cac	0.02094873
71	0xbc60d1b0	-0.013721868
72	0xbd682de0	-0.056684375
73	0xbdb7cc5f	-0.089745276
74	0x3e54f12f	0.20795129
75	0x3f24b2b1	0.6433516
76	0x3de4189c	0.11137506
77	0xbca4aa48	-0.020100728
78	0x3e61674a	0.22012058
79	0x3bf47020	0.0074596554
80	0xbd453174	-0.048142865
81	0xbd3f0ed4	-0.046645
82	0x3eb66989	0.35627392
83	0x3e2e2e86	0.17009935
84	0xbdc36a6e	-0.09541784
85	0x3ea6bd6b	0.3256639
86	0xbdaeae9e	-0.08529399
87	0x3e45006f	0.19238447
88	0x3d68f140	0.0568707
89	0x3df815de	0.12113546
90	0xbddeeb92	-0.10884775
91	0xbdf9c218	-0.121952236
92	0x3df3aab8	0.118977964
93	0x3e2694ba	0.16267672
94	0x3dc168f2	0.09443845
95	0x3dd7b354	0.10532251
96	0x3df3930a	0.1189328
97	0x3e48cc47	0.19609176
98	0x3de2ab4c	0.110678285
99	0x3db5112e	0.088411674
100	0x3d629485	0.05531742
101	0x3be772c0	0.00706324
102	0x3e2ca3d1	0.16859366
103	0x3ddc4b50	0.10756552
104	0x3da9d28e	0.08292113
105	0x3df22c8c	0.11824903
106	0xbd8179f4	-0.06322089
107	0xbb08e600	-0.0020889044
108	0x3def3699	0.116803356
109	0x3e09c91d	0.13455625
110	0x3e14a569	0.14516224
111	0x3c50b410	0.012738243
112	0x3ec694c3	0.3878537
113	0xbbf51920	-0.007479802
114	0x3dc3fe3f	0.09569978
115	0x3da05232	0.078281775
116	0xbcc1f4c1	-0.023676278
117	0xbc3bbf70	-0.0114592165
118	0x3dd25d0d	0.10271654
119	0x3dcb7bb2	0.099357024
120	0x3dcbca7c	0.0995073
121	0xbdedb214	-0.11606231
122	0x3d751962	0.05983866
123	0xbddadaf6	-0.10686295
124	0x3eb1b318	0.3470695
125	0x3e824870	0.2544589
126	0x3e197c44	0.1498881
127	0x3e435951	0.1907704
128	0xbd33fffc	-0.043945298
129	0x3b0a3600	0.0021089315
130	0xbd1a544b	-0.037678044
131	0xbdccc282	-0.09998037
132	0xbda84c9a	-0.082177356
133	0x3d4d1ea0	0.050078034
134	0x3d697d59	0.057004306
135	0x3db0a9d2	0.08626141
136	0x3d854b08	0.06508452
137	0xbddb963f	-0.107220165
138	0xbcd3ca8e	-0.025853422
139	0xbdec2f06	-0.115324065
140	0xbbfc13de	-0.007692798
141	0x3d7298c8	0.059227735
142	0x3df6491c	0.12025663
143	0xbde25872	-0.11052026
144	0x3db46a64	0.08809355
145	0x3dec4ef6	0.11538498
146	0x3d8a6a62	0.06758572
147	0x3da8f7ec	0.08250412
148	0xbdb03f5c	-0.08605835
149	0xbdc9417c	-0.09826943
150	0xbd75abcc	-0.05997829
151	0xbd98584b	-0.074387155
152	0x3d8c5df7	0.0685386
153	0xbdfd7ce8	-0.123773396
154	0xbcf84ce0	-0.030310094
155	0x3cffe6a8	0.031237915
156	0xbd340e50	-0.043958962
157	0xbcfcfc30	-0.030881971
158	0xbc6d8c00	-0.014498711
159	0xbd3fc6b0	-0.046820343
160	0xbd82b5e8	-0.06382352
161	0xbd322d09	-0.04349998
162	0xbd332934	-0.043740466
163	0xbd57806c	-0.052612707
164	0xba8c73e1	-0.0010715687
165	0xbdd73a7e	-0.105092034
166	0xbdf6f079	-0.12057585
167	0xbd7275b8	-0.059194297
168	0x3dd109d3	0.10206952
169	0x3d5a4f9c	0.053298578
170	0x3dd16463	0.10224225
171	0xbdcbc0d6	-0.0994889
172	0xbd67fca4	-0.05663742
173	0xbe024050	-0.12719846
174	0xbcfba85e	-0.030719932
175	0xbd2b54d8	-0.04182896
176	0x3def3c26	0.11681394
177	0xbd1f7990	-0.03893429
178	0x3c6b5d14	0.014365453
179	0x3de20967	0.110369496
180	0x3d777db6	0.06042262
181	0x3aa63080	0.0012679249
182	0xbd810f44	-0.0630174
183	0xbd08ad20	-0.03336823
184	0xbdf46dfc	-0.1193504
185	0xbcf13270	-0.029442996
186	0x3dc327f7	0.09529107
187	0x3d8fa94a	0.07014711
188	0x3df31450	0.11869109
189	0x3d10a166	0.03531017
190	0x3d04b844	0.032402292
191	0xbdc8616c	-0.09784207
192	0x3dbee1f2	0.093204394
193	0x3d331cfc	0.043728814
194	0x3b8a6480	0.0042234063
195	0x3d2a6434	0.041599467
196	0x3dba1edf	0.090879194
197	0xbc540d5c	-0.012942638
198	0xbc86fec9	-0.016478913
199	0xbbfd48e0	-0.0077296346
200	0x3dcab904	0.0989857
201	0x3d253cf1	0.04034132
202	0x3d9d8041	0.07690478
203	0xbd73655a	-0.05942283
204	0xbd861473	-0.06546869
205	0xbd61c8a4	-0.055122986
206	0x3b5356c2	0.0032247757
207	0xbd65d1f4	-0.05610843
208	0x3c17f890	0.0092755705
209	0x3db53ef0	0.08849895
210	0xbd86a901	-0.06575204
211	0xbe05b9a6	-0.130591
212	0xbdaea854	-0.085282
213	0x3d5504cb	0.052006524
214	0xbd865a10	-0.06560147
215	0xbddb6b1e	-0.1071379
216	0x3cc1b7b8	0.023647174
217	0xbd278fd4	-0.04090865
218	0x3d1ae370	0.037814558
219	0x3c475650	0.012166575
220	0xbce22ec8	-0.027610198
221	0x3d79b61c	0.06096469
222	0xbd91d49e	-0.07120632
223	0x3d9da2f6	0.07697098
224	0xbd83b5d3	-0.064311646
225	0x3d2fb904	0.042901054
226	0x3d594a20	0.053049207
227	0xbbb966e0	-0.0056580156
228	0x3d0d1e40	0.034452677
229	0x3dfb4244	0.122684985
230	0xbdc5befe	-0.096555695
231	0xbd2509e4	-0.040292636
232	0x3d0e7a2f	0.034784492
233	0xbd5307d0	-0.051521122
234	0xbd27f0a8	-0.041000992
235	0xbdc768fb	-0.0973682
236	0xbd954e79	-0.07290358
237	0x3cfae53a	0.030626882
238	0xbda70164	-0.08154562
239	0x3ddc0b92	0.10744394
240	0xbd260217	-0.040529337
241	0x3c794dc0	0.015216291
242	0x3d2e6aab	0.042582195
243	0xbdf20f90	-0.118193746
244	0xbdb43ba9	-0.08800442
245	0xbd8d8f74	-0.06912127
246	0x3d8f89e2	0.07008721
247	0xbd7cd224	-0.061723843
248	0xbd535d91	-0.051602904
249	0xbcc68c80	-0.024236917
250	0xbd834a2a	-0.0641063
251	0x3da52d90	0.08065331
252	0xbd3b53fe	-0.045734398
253	0xbe16a71b	-0.14712183
254	0xbd04da42	-0.03243471
255	0x3b974d5a	0.0046173753

shared_layers.2.bias f4 [32]
0	0xbbde7420	-0.0067887455
1	0x3d6c6698	0.05771503
2	0x3dc3ea52	0.095661774
3	0x3c1071ea	0.008816222
4	0xbddf37a0	-0.108992815
5	0x3e261398	0.16218412
6	0x3e5ccb5b	0.21561949
7	0xbb80a615	-0.0039260485
8	0x3d68b738	0.056815356
9	0xbd54644e	-0.05185347
10	0x3dc3a8b6	0.095536634
11	0x3e423044	0.18963724
12	0x3dfadc23	0.12249019
13	0xbbe14221	-0.0068743383
14	0xbc9b4209	-0.018952386
15	0x3dab703c	0.083710164
16	0xbdd255f9	-0.10270304
17	0x3e84e0ff	0.25952908
18	0x3e29f1b5	0.1659611
19	0x3dcc671d	0.09980605
20	0x3da79f34	0.081846625
21	0xbb9ba880	-0.0047503114
22	0xbcf48b9b	-0.029851725
23	0x3e2cd5d7	0.16878448
24	0x3d14e12f	0.036347564
25	0xbc9f9a54	-0.01948277
26	0x3db1c42e	0.086799964
27	0x3c3d133c	0.01154023
28	0x3e26ab79	0.16276349
29	0x3e8ee267	0.27907106
30	0x3c8ed947	0.01743759
31	0xbd96bfdc	-0.07360813

shared_layers.4.weight f4 [8, 32]
0	0x3db71a4c	0.089405626
1	0x3c2f7336	0.010708621
2	0xbd006452	-0.031345673
3	0xbe30f030	-0.17279124
4	0x3d5da075	0.054108102
5	0xbdc963a2	-0.098334566
6	0x3e3bafac	0.18328732
7	0x3bffec4c	0.007810151
8	0xbda6ea8a	-0.081502035
9	0xbe2a7d77	-0.16649424
10	0xbd6d335e	-0.057910316
11	0xbd77c3f0	-0.060489595
12	0x3d9ad1bd	0.07559536
13	0xbe27dd0e	-0.1639292
14	0x3d249555	0.040181477
15	0x3e1ae296	0.15125498
16	0x3dc05056	0.09390323
17	0xbd0886b8	-0.033331603
18	0xbe16e0b6	-0.14734158
19	0xbde747a1	-0.11292959
20	0x3e01ab30	0.12662959
21	0xbdc8d6e2	-0.09806611
22	0xbd30d82d	-0.04317491
23	0xbd9d20b2	-0.07672252
24	0x3e009657	0.1255735
25	0xbdb9a549	-0.09064729
26	0xbe37f8cb	-0.17966
27	0xbe4496c2	-0.19198135
28	0x3d9dd331	0.07706297
29	0x3e07e55f	0.13271092
30	0x3e934ab1	0.28767923
31	0x3e0ba30c	0.13636416
32	0x3e16a965	0.14713056
33	0xbe257d46	-0.1616107
34	0xbddc0e6e	-0.1074494
35	0xbe1b3998	-0.15158689
36	0x3c68b98c	0.014204394
37	0x3d1fa38a	0.038974322
38	0xbd710614	-0.058843687
39	0xbd05bde4	-0.032651797
40	0xbdb3018f	-0.08740532
41	0xbd15f38f	-0.03660923
42	0xbce40d85	-0.027838478
43	0xbe9fc295	-0.31203142
44	0xbe82c200	-0.25538635
45	0xbe0d79b9	-0.13815965
46	0x3decfbdf	0.11571478
47	0xbd2d3289	-0.042284522
48	0xbb8e0679	-0.0043342677
49	0xbe9c2e81	-0.3050423
50	0xbe0f24ab	-0.13978831
51	0xbe2796a9	-0.16366066
52	0x3e01b1e4	0.12665516
53	0xbe2ed1b6	-0.17072186
54	0xbe262956	-0.16226706
55	0xbe35208f	-0.17688201
56	0xbee013bc	-0.43765056
57	0xbc56821f	-0.013092547
58	0xbe289b33	-0.16465454
59	0xbb60d7b4	-0.0034308257
60	0xbe285708	-0.1643945
61	0xbdffca94	-0.124898106
62	0xbe9a693a	-0.30158406
63	0x3d623a14	0.05523117
64	0x3df96f0b	0.12179383
65	0xbea85794	-0.32879317
66	0xbcc19ac3	-0.023633366
67	0xbe2b5c66	-0.16734466
68	0xbdc00e26	-0.093776986
69	0x3c82ba9a	0.01595812
70	0xbe994d5d	-0.29941836
71	0x3d488d01	0.048962597
72	0x3e2e5e5a	0.1702818
73	0x3d62a87c	0.05533646
74	0xbe285840	-0.16439915
75	0xbe4eeade	-0.20206782
76	0xbe50b23b	-0.2038049
77	0xbe88482f	-0.26617572
78	0x3df458e2	0.119310156
79	0xbdfe86aa	-0.12428029
80	0x3d063e5e	0.03277432
81	0xbe15d4a6	-0.146319
82	0xbe23c5b9	-0.15993394
83	0xbca7e092	-0.020492826
84	0x3e0aa1cf	0.13538288
85	0xbdc82c5c	-0.09774086
86	0xbe463577	-0.19356333
87	0xbe14ed56	-0.14543661
88	0xbeadb0fe	-0.33924097
89	0xbce79347	-0.02826847
90	0xbd924d5d	-0.07143662
91	0xbd151e75	-0.036406
92	0xbe64c1a9	-0.223395
93	0xbe973f5b	-0.29540524
94	0xbe9159e6	-0.283889
95	0x3e19fa93	0.15036993
96	0xbcb6e9e4	-0.022328325
97	0xbe99516e	-0.29944938
98	0x3e1e302d	0.15448065
99	0xbdf10882	-0.11769201
100	0x3c859dc2	0.016310576
101	0xbe2f89d8	-0.17142427
102	0xbe9cd821	-0.30633643
103	0xbdd6626d	-0.10467992
104	0xbcc55f99	-0.024093436
105	0x3da95172	0.082674876
106	0x3e058f38	0.13042915
107	0xbe1ac638	-0.15114677
108	0xbe795de3	-0.24352221
109	0xbe1a665d	-0.15078111
110	0xbcd7eb7e	-0.026357409
111	0xbd736048	-0.059417993
112	0xbde21116	-0.11038415
113	0xbe32f256	-0.17475256
114	0xbe2d17bb	-0.16903584
115	0xbc2563e8	-0.01009462
116	0xbd8f6d9d	-0.07003329
117	0x3dcd37db	0.10020419
118	0xbc7d5bb3	-0.015463757
119	0xbe2f4f3a	-0.17120066
120	0xbe9ef17a	-0.31043607
121	0xbe53196b	-0.20615165
122	0x3e0162f7	0.12635408
123	0x3e013b6f	0.12620328
124	0xbd410330	-0.04712218
125	0xbd21b8fb	-0.03948305
126	0xbeb8684e	-0.36017078
127	0x3e052ee0	0.13006163
128	0x3e31bf58	0.17358148
129	0xbe7d3e6f	-0.24730848
130	0xbdecfac0	-0.11571264
131	0xbc8c61e7	-0.017136527
132	0xbdb813fe	-0.08988188
133	0xbde40f1d	-0.11135695
134	0xbe8a454d	-0.27005997
135	0xbe5eb71e	-0.21749541
136	0x3d61e145	0.055146474
137	0x3d8dab68	0.06917459
138	0xbd26cd78	-0.040723294
139	0xbe6db024	-0.23211724
140	0xbe040941	-0.12894155
141	0xbca324c9	-0.019915001
142	0x3e267054	0.16253787
143	0x3d87155e	0.06595872
144	0xbde05197	-0.10953062
145	0xbe9dab1a	-0.30794603
146	0xbe841f9a	-0.2580536
147	0x3e0088f1	0.12552239
148	0x3d9b4d06	0.075830504
149	0xbdfbaf62	-0.12289311
150	0xbdec6eaa	-0.11544545
151	0xbe96baa2	-0.29439265
152	0xbe9b9f8f	-0.3039517
153	0xbde21edf	-0.110410444
154	0x3dd04a7f	0.10170459
155	0xbe2146f5	-0.15749724
156	0xbe86a9ec	-0.26301515
157	0xbd83a538	-0.06427997
158	0xbeb94619	-0.36186293
159	0x3e340400	0.17579651
160	0xbcfa13e6	-0.030527066
161	0x3dba9612	0.09110655
162	0x3e0789fe	0.13236234
163	0xbe17681c	-0.14785808
164	0xbd7a1797	-0.061057653
165	0x3ed1fc06	0.4101259
166	0x3de2e94a	0.110796526
167	0x3eb4248c	0.35184133
168	0x3d1a0c95	0.037609655
169	0xbe30c527	-0.17262708
170	0xbe25178a	-0.1612226
171	0x3d80b219	0.062839694
172	0x3ea7f952	0.32807404
173	0x3ee0e9d4	0.43928397
174	0xbccc732f	-0.024957268
175	0x3d10f9b1	0.035394374
176	0xbe16ae33	-0.14714889
177	0xbe4af842	-0.19821265
178	0x3eb2c197	0.34913322
179	0x3dab6fe3	0.0837095
180	0xbd5864f4	-0.05283065
181	0x3dc321b6	0.09527914
182	0x3ed21cf0	0.41037703
183	0x3edfcaf1	0.4370952
184	0xbf1133ba	-0.56719553
185	0x3eecb32f	0.46230456
186	0xbdebd571	-0.1151532
187	0xbde1c1e9	-0.110233136
188	0x3eb7e87d	0.35919562
189	0xbdb1d5c1	-0.086833484
190	0x3d899c7c	0.067193
191	0x3e21e091	0.15808322
192	0xbca84119	-0.020538853
193	0xbd86d369	-0.06583292
194	0xbe284570	-0.16432738
195	0xbd842757	-0.06452816
196	0xbdcc73d2	-0.099830285
197	0xbe7df6d6	-0.24801192
198	0x3e0ffc27	0.14061032
199	0xbed98b15	-0.42488924
200	0xbd491fa0	-0.049102426
201	0x3d99fe56	0.07519214
202	0xbded6bea	-0.115928486
203	0xbd9b248e	-0.07575332
204	0x3d07ff5c	0.033202514
205	0xbe7bc926	-0.24588451
206	0xbe16f5fa	-0.1474227
207	0xbde36751	-0.111036904
208	0xbda3c75a	-0.07997008
209	0x3e8b6786	0.2722742
210	0xbe85a473	-0.26102027
211	0xbc954a17	-0.018223805
212	0x3d0be169	0.034150515
213	0xbd9e0991	-0.077166684
214	0xbec1278e	-0.3772549
215	0xbef150c0	-0.4713192
216	0x3ec926fa	0.3928755
217	0xbf0f210a	-0.5590979
218	0x3e301c41	0.17198278
219	0x3db6f3b0	0.089331985
220	0xbddf21ea	-0.108951405
221	0x3e9debf4	0.3084408
222	0x3ea490aa	0.3214162
223	0x3b679f80	0.0035342872
224	0xbd3ce8d2	-0.046120472
225	0xbebb4fe8	-0.365844
226	0xbc04b57b	-0.008099909
227	0x3c281aa2	0.010260256
228	0x3d62c966	0.05536785
229	0xbe1fc891	-0.15603854
230	0xbea58e96	-0.32335347
231	0xbe5c7dd3	-0.21532373
232	0x3cbc2c88	0.022970453
233	0x3dacc4e8	0.084359944
234	0x3d4e833c	0.050418124
235	0xbea44314	-0.32082427
236	0xbe68f6b8	-0.22750366
237	0xbe5b9a72	-0.21445635
238	0xbdc5f170	-0.09665191
239	0x3c6f00fa	0.014587635
240	0xbdd5e04e	-0.10443173
241	0xbe96c734	-0.29448855
242	0xbb80a194	-0.0039255116
243	0x3ca07a56	0.019589584
244	0xbe29cbf7	-0.16581713
245	0x3e0c28c8	0.13687432
246	0xbc38c491	-0.011277334
247	0xbd1852fe	-0.037188523
248	0xbed921d1	-0.42408612
249	0xbe9aa20e	-0.30201763
250	0x3d980fc8	0.07424885
251	0xbd9426ad	-0.07233939
252	0xbeb16da1	-0.34653953
253	0xbea9172c	-0.3302549
254	0xbed25a9f	-0.41084763
255	0x3dd293be	0.10282086

shared_layers.4.bias f4 [8]
0	0xbcdc4a32	-0.026890848
1	0xbbddab09	-0.0067647737
2	0xbd85661d	-0.06513617
3	0xbdde82e1	-0.10864807
4	0xbe1fdba6	-0.15611133
5	0x3d10ad8a	0.03532175
6	0xbd42244e	-0.047397904
7	0xbe5ca694	-0.2154792
