training/models/2controller_controller_acc0.95_lat0.015_succ5_small7_large10_carb15_cap610_rate0.000269_best_model.pth (torch, 17037 bytes, 6 tensors)

shared_layers.0.weight f4 [64, 3]
0	0xbf019fd5	-0.5063451
1	0xbee22e6c	-0.44176042
2	0xbe426a15	-0.1898578
3	0xbe6f9ce3	-0.23399691
4	0xbe8263e5	-0.25466838
5	0xbf0ed405	-0.55792266
6	0x3e560974	0.20902044
7	0xbebe03ba	-0.37112218
8	0x3b5f579a	0.0034079314
9	0x3f192f82	0.59838116
10	0x3cec8d1f	0.028875886
11	0xbe882e4c	-0.26597822
12	0x3f28b42e	0.6589993
13	0xbe0b79a5	-0.13620622
14	0xbe07d91c	-0.13266414
15	0x3f1101e6	0.5664352
16	0x3aa52298	0.0012598811
17	0x3f16b298	0.5886626
18	0x3efcac8f	0.49350402
19	0x3ee1dc3c	0.44113338
20	0xbeb31ae4	-0.34981453
21	0xbedadbed	-0.42745915
22	0xbd37b8f9	-0.044854138
23	0x3d06972e	0.03285902
24	0xbecee865	-0.40411678
25	0x3df65391	0.12027658
26	0xbf13a887	-0.5767903
27	0x3f080f68	0.5314851
28	0x3f0b55cd	0.54427797
29	0xbeb2d659	-0.3492916
30	0xbe4c8bc3	-0.1997519
31	0x3f01647a	0.5054394
32	0xbe89f8ed	-0.26947728
33	0x3e460945	0.19339474
34	0xbcb09945	-0.02155746
35	0xbefc69e1	-0.4929953
36	0xbddbe898	-0.10737723
37	0xbecb096b	-0.39655623
38	0x3e82a9d8	0.25520205
39	0x3ea83cef	0.3285899
40	0x3f256ef1	0.6462241
41	0xbe308f34	-0.17242128
42	0x3f25140d	0.6448372
43	0x3e8f974b	0.28045115
44	0x3f18ad16	0.5963911
45	0xbefa4814	-0.48883116
46	0x3e7efdf2	0.2490156
47	0x3abdebd2	0.0014489836
48	0x3ebc6885	0.36798492
49	0xbc8531a2	-0.016259018
50	0x3db3ce0f	0.08779537
51	0x3ed3e85a	0.41388208
52	0x3ec9c5d5	0.39408746
53	0x3eb8fe1c	0.3613137
54	0x3f0af193	0.54274863
55	0x3ed51ac5	0.41621986
56	0x3f339a36	0.7015718
57	0xbde4d367	-0.11173134
58	0xbcc570ff	-0.024101732
59	0xbf0d26ff	-0.5513763
60	0xbed9a3b9	-0.42507723
61	0x3f0e4a0b	0.5558173
62	0x3eb1b6a3	0.34709653
63	0x3f058617	0.5215773
64	0xbd47e454	-0.048801735
65	0x3e1015ef	0.14070867
66	0x3ecbfebe	0.3984279
67	0x3e91c98a	0.28474075
68	0x3f0177aa	0.5057322
69	0x3eb1c99c	0.34724128
70	0xbe9a23b5	-0.30105367
71	0x3dcb342f	0.099220626
72	0x3dffd377	0.124915056
73	0x3e36c950	0.17850232
74	0x3e457a24	0.19284874
75	0xbf07a79d	-0.5299013
76	0x3e1b9462	0.15193322
77	0x3f061891	0.52381235
78	0x3f242a71	0.6412726
79	0xbcbb032f	-0.022828666
80	0xbe205aaa	-0.15659586
81	0x3ee94668	0.45561528
82	0xbcea464c	-0.028597973
83	0xbe47b312	-0.19501904
84	0xbed87fa6	-0.42284888
85	0xbf11ce4c	-0.5695541
86	0xbec28e99	-0.37999418
87	0x3f17fe27	0.5937218
88	0xbe7f4557	-0.24928795
89	0xbd590d4a	-0.05299119
90	0xbf0df468	-0.5545106
91	0xbe4a5778	-0.19759929
92	0xbeed9cc4	-0.46408665
93	0xbe9331d2	-0.28748947
94	0x3cb5991c	0.022167735
95	0xbeb3c0af	-0.35107943
96	0xbf0351bf	-0.5129661
97	0xbe1f02d2	-0.1552842
98	0xbdfea1d7	-0.12433212
99	0xbeb470f7	-0.35242435
100	0xbe8fe8bf	-0.2810726
101	0xbe4d5fc0	-0.20056057
102	0x3e8a47fb	0.27008042
103	0x3d5e2ba8	0.054240853
104	0xbeb4605b	-0.35229763
105	0x3eaf261b	0.3420876
106	0x3edd2d1a	0.43198472
107	0x3ecb5527	0.39713404
108	0x3edffcef	0.4374766
109	0xbe7d28ef	-0.24722646
110	0xbe0834e8	-0.13301432
111	0x3ee0e36e	0.43923515
112	0xbeedd582	-0.46451956
113	0x3ec6a695	0.38798967
114	0x3d52c8d9	0.051461075
115	0x3f2b9a48	0.6703229
116	0x3e327f68	0.17431414
117	0xbda2c510	-0.07947743
118	0xbeada257	-0.33912918
119	0x3ec855ed	0.39128056
120	0x3cf20942	0.02954543
121	0x3ea46997	0.3211181
122	0xbeac7eef	-0.33690593
123	0xbe556a1d	-0.2084126
124	0xbe02f57c	-0.12788957
125	0xbe220fec	-0.15826386
126	0x3d8a9b1a	0.067678645
127	0x3f067ef1	0.5253745
128	0x3ead7cda	0.33884317
129	0x3f1d60a6	0.614756
130	0xbe626e10	-0.22112298
131	0xbe82b1f3	-0.2552639
132	0x3e5723ee	0.210098
133	0xbec50b99	-0.3848541
134	0xbe5e7950	-0.21725965
135	0x3d6044ed	0.054753233
136	0x3e1b8763	0.15188365
137	0xbd18a8af	-0.037270244
138	0x3ea6bf4b	0.3256782
139	0x3e638065	0.22216947
140	0x3f05cbf1	0.52264315
141	0x3e9204be	0.28519243
142	0xbef8f586	-0.4862482
143	0xbe59dee7	-0.21276437
144	0xbe714c90	-0.23564363
145	0x3a837498	0.0010029254
146	0x3ee0430d	0.43801156
147	0xbdeaab2c	-0.1145843
148	0x3e8800f4	0.26563227
149	0x3d2a4346	0.041568063
150	0x3b2d90e0	0.0026484057
151	0xbefd36ee	-0.4945597
152	0x3e97a006	0.29614276
153	0xbe9cbd6e	-0.30613273
154	0x3ea098dc	0.31366622
155	0xbc587253	-0.013210851
156	0xbf0b2bd2	-0.5436374
157	0xbf130f73	-0.5744545
158	0x3f09e3f2	0.5386344
159	0xbe9d5633	-0.30729827
160	0xbf0fbe7b	-0.56150025
161	0xbe2911b6	-0.16510662
162	0xbda78e59	-0.081814475
163	0x3c812a4b	0.015767237
164	0xbe9ec727	-0.31011316
165	0xbf0923c8	-0.5357022
166	0x3e5067a3	0.20352034
167	0x3eabe4ed	0.33573094
168	0x3eee4481	0.4653664
169	0x3f1f427d	0.6221083
170	0xbe77fa3c	-0.2421655
171	0xbf0a0305	-0.5391086
172	0xbe0426f0	-0.12905478
173	0x3edad0a7	0.42737314
174	0xbf070b17	-0.52751297
175	0x3ed57993	0.41694316
176	0xbd267107	-0.040635135
177	0x3e6c54c1	0.23079206
178	0x3f028cc2	0.5099603
179	0xbebd8a4c	-0.37019575
180	0xbd51fd24	-0.051266804
181	0x3f140756	0.57823694
182	0xbeb86141	-0.360117
183	0xbe806883	-0.25079736
184	0x3e469a22	0.19394735
185	0xbd6e4aaf	-0.058176693
186	0xbeb4927f	-0.35268018
187	0xbf0b8993	-0.54506797
188	0x3eb0cc80	0.3453102
189	0x3f309e21	0.68991286
190	0x3eda1918	0.4259727
191	0xbe26a36f	-0.16273282

shared_layers.0.bias f4 [64]
0	0x3e7f7d5c	0.24950165
1	0xbf0949f6	-0.5362848
2	0x3eefdb07	0.46846792
3	0xbe48c317	-0.19605671
4	0x3de406bb	0.11134096
5	0xbd24da39	-0.040247176
6	0xbb98a554	-0.0046583805
7	0xbf03f2a1	-0.515421
8	0xbee8e933	-0.45490417
9	0x3de273e3	0.1105726
10	0xbdae08b6	-0.08497755
11	0xbef7aa73	-0.4837223
12	0x3e310872	0.17288378
13	0xbe3f5781	-0.18685724
14	0x3ef19fbb	0.47192177
15	0xbed0114c	-0.40638196
16	0x3eb77687	0.35832617
17	0xbe30308f	-0.17206024
18	0xbe4dc4e6	-0.20094642
19	0xbe8186a0	-0.25298023
20	0x3efb54f4	0.49088252
21	0xbd8cc3d0	-0.06873286
22	0x3d30ae44	0.043134943
23	0xbe64a104	-0.22327048
24	0xbe82f8b4	-0.2558037
25	0xbf0d97da	-0.5530983
26	0x3eb91c8f	0.361546
27	0xbc8ec7fb	-0.017429342
28	0xbd1195fb	-0.035543423
29	0x3e6494fd	0.2232246
30	0xbdd6df0c	-0.104917616
31	0x3d5c48c2	0.053780325
32	0x3ee1ed8f	0.44126555
33	0x3ec09eba	0.376211
34	0x3f0aa67d	0.5416029
35	0x3ef8c329	0.48586395
36	0x3e170f67	0.1475197
37	0xbedff240	-0.4373951
38	0x3e993650	0.2992425
39	0xbeb2421e	-0.34816068
40	0x3e1c9c47	0.1529399
41	0xbf0b0ab6	-0.5431322
42	0x3f18ae9f	0.5964145
43	0xbd05b692	-0.032644816
44	0xbe2bda04	-0.16782385
45	0x3ed2b2c5	0.41152015
46	0x3eeb8445	0.4599935
47	0xbf0acf65	-0.5422271
48	0xbbc1318e	-0.0058958
49	0xbe1a2abe	-0.15055367
50	0x3db742d5	0.08948294
51	0xbeb2b36e	-0.3490252
52	0x3ec6be17	0.38816902
53	0x3ec0b06d	0.37634602
54	0xbe9b26f9	-0.3030317
55	0xbed028a7	-0.40656015
56	0x3dd6497e	0.10463236
57	0x3ded1605	0.115764655
58	0xbdd910aa	-0.105988815
59	0x3ef4af4a	0.47789985
60	0x3e95c6c1	0.292532
61	0xbc8f05f7	-0.017458899
62	0x3ddb3812	0.10704054
63	0xbe38929a	-0.18024674

shared_layers.2.weight f4 [32, 64]
0	0x3de208ee	0.110368595
1	0x3d6bdf54	0.05758603
2	0x3e18edd8	0.1493448
3	0x3df61ab9	0.12016816
4	0x3e5d9e45	0.21642406
5	0x3eb097d9	0.3449085
6	0x3e542065	0.20715483
7	0x3df614d6	0.12015693
8	0x3d88931c	0.06668684
9	0x3c2a8632	0.010407971
10	0xbd4c4e7d	-0.04987954
11	0xbd633cac	-0.055477783
12	0xbd896f38	-0.067106664
13	0x3d52233f	0.051303145
14	0x3e26bb34	0.1628235
15	0x3d8de9c2	0.069293514
16	0x3e2f19bd	0.17099662
17	0x3d15cdfe	0.036573403
18	0x3e4d3a25	0.20041712
19	0xbd9b01e0	-0.07568717
20	0x3e029ee8	0.1275593
21	0x3d9df6c2	0.07713081
22	0x3e213cda	0.1574587
23	0x3c140b35	0.009035875
24	0x3d4df4de	0.05028235
25	0x3bbef080	0.0058270097
26	0x3e397402	0.1811066
27	0x3dc3f86a	0.095688656
28	0x3d94934a	0.07254656
29	0x3da0883c	0.07838485
30	0xbcb6fcf8	-0.022337422
31	0xbddfb240	-0.1092267
32	0x3c7f9750	0.015600041
33	0xbdb88dca	-0.09011419
34	0x3d3ce83f	0.046119925
35	0x3d953095	0.07284657
36	0x3d1face8	0.038983256
37	0xbdc60baa	-0.096701935
38	0x3d3971e5	0.045274634
39	0xbdd7452c	-0.1051124
40	0x3d5527c9	0.052039895
41	0x3da7fe1a	0.08202763
42	0x3dfe0935	0.124041
43	0x3e199d78	0.15001476
44	0x3de0176a	0.10941966
45	0x3d58c79f	0.05292475
46	0x3df8b019	0.12142963
47	0xbd87c658	-0.06629628
48	0xbc6fb910	-0.014631525
49	0x3dfa34bc	0.122170895
50	0x3dfc3934	0.12315598
51	0x3c617de0	0.013762921
52	0xbdd5d016	-0.1044008
53	0x3dc65386	0.096838996
54	0x3da84e6a	0.08218081
55	0xbdfcab90	-0.123374104
56	0x3e1551a4	0.14581925
57	0xbbc4d860	-0.006007239
58	0x3d9fba52	0.0779921
59	0x3e098283	0.13428693
60	0x3dba454a	0.09095247
61	0x3d9e54fc	0.07731053
62	0x3d996586	0.07490067
63	0x3dcf7dc4	0.1013141
64	0x3df7b8f8	0.12095827
65	0xbb23c880	-0.0024991333
66	0x3ca73d20	0.020414889
67	0x3d3da800	0.046302795
68	0xbdf53a18	-0.11973971
69	0xbd4feb18	-0.050761312
70	0xbc7a3a10	-0.015272632
71	0xbcc0af98	-0.02352123
72	0x3c1501a0	0.009094626
73	0xbd976700	-0.073926926
74	0xbdb830e4	-0.089937
75	0x3cad3020	0.021141112
76	0xbdadee44	-0.08492711
77	0x3d3172f0	0.043322504
78	0x3df5e414	0.12006393
79	0x3db2e6b6	0.08735411
80	0xbc68bd40	-0.014205277
81	0x3d902430	0.07038152
82	0x3df627b6	0.12019293
83	0xbdbdaeb2	-0.09261836
84	0xbd0d2230	-0.034456432
85	0x3dd3ba84	0.103383094
86	0xbce6a4b0	-0.028154701
87	0xbcce3130	-0.025169939
88	0xbcc3d5a0	-0.023905575
89	0x3d5e9d74	0.054349378
90	0x3dfe5f0c	0.124204725
91	0xbdc56dca	-0.09640081
92	0x3ddea552	0.10871376
93	0x3c8e9ba8	0.017408207
94	0x3d891fc4	0.06695512
95	0xbd5481fc	-0.051881775
96	0x3dbbc354	0.09168115
97	0xbcc4a410	-0.024004012
98	0xbde5086a	-0.111832455
99	0x3beba760	0.0071915835
100	0x3cc1eee8	0.02367349
101	0xbdaec968	-0.08534509
102	0xbb9eaee0	-0.004842624
103	0x3d7101d0	0.05883962
104	0x3d630874	0.055427983
105	0xbc742650	-0.014901713
106	0xbd8d90be	-0.06912373
107	0xbdbd02ea	-0.092290714
108	0xbcd7d080	-0.026344538
109	0xbd65be9c	-0.056089982
110	0xbddb1ae6	-0.1069849
111	0x3d9dc9c2	0.07704498
112	0x3dbf8ee4	0.09353426
113	0x3ca4e710	0.02012971
114	0x3de72cdc	0.11287853
115	0x3dea6a22	0.114460245
116	0x3bba6500	0.0056883097
117	0xbdff05e8	-0.124522984
118	0x3dda673e	0.10664223
119	0x3d2e2770	0.04251808
120	0xbd760114	-0.060059622
121	0xbd252d20	-0.040326238
122	0xbdb82576	-0.0899152
123	0xbddb5b0c	-0.10710725
124	0x3beddae0	0.007258758
125	0xbc72a6a0	-0.014810234
126	0x3c454e80	0.012042642
127	0xbd0b8560	-0.034062743
128	0x3d3ac078	0.04559371
129	0x3da20f48	0.07913071
130	0xbd906067	-0.07049637
131	0x3db779be	0.08958767
132	0xbde11b38	-0.1099152
133	0x3b8fe5d3	0.004391411
134	0xbc9d0816	-0.019168895
135	0xbddcc81a	-0.10780354
136	0x3c43ee40	0.011958659
137	0xbdd478a4	-0.10374573
138	0x3d207325	0.03917231
139	0x3dee20cc	0.11627349
140	0xbb0f5b80	-0.0021874607
141	0x3d816da4	0.063197404
142	0x3d4d73a3	0.050159108
143	0x3cd4da90	0.025983125
144	0x3d05f7ee	0.032707147
145	0xbcf11b9c	-0.02943211
146	0xbdc7860a	-0.09742363
147	0x3df161a6	0.11786203
148	0xbd48d5ec	-0.049032137
149	0x3d79be99	0.060972784
150	0x3d70dd75	0.058804948
151	0xbcf9d067	-0.030494882
152	0xbd2a4975	-0.04157396
153	0x3d47c4e0	0.04877174
154	0x3d3eee55	0.04661401
155	0xbe036748	-0.12832367
156	0x3c56e4f0	0.013116106
157	0x3d28236d	0.04104941
158	0x3d47afc0	0.048751593
159	0x3ce29408	0.027658477
160	0xbcbcab20	-0.023030818
161	0x3dc75f8c	0.09735021
162	0xbe031911	-0.12802531
163	0xbdeceaf2	-0.1156825
164	0x3dc543a6	0.096320435
165	0xbda7914c	-0.0818201
166	0xbaf76ee0	-0.0018877648
167	0xbd5c0d2c	-0.0537235
168	0x3dd5a6f9	0.10432238
169	0xbda1b5c2	-0.07895996
170	0xbd9e03f6	-0.07715599
171	0xbd3f3420	-0.04668057
172	0x3d43a764	0.047767058
173	0x3d274be3	0.040843856
174	0xb986718f	-0.0002564308
175	0xbce23088	-0.027611032
176	0xbd103e98	-0.035215944
177	0x3d42ac98	0.04752788
178	0xbcf1bd38	-0.029509172
179	0x3cacd970	0.021099776
180	0xbddd251e	-0.10798095
181	0x3b8386e0	0.004013881
182	0xbd950740	-0.072767735
183	0x3bd22000	0.006412506
184	0x3dd8ac80	0.10579777
185	0x3de9b05a	0.114105895
186	0x3dce997c	0.100878686
187	0xbd831591	-0.06400598
188	0x3d0f5b62	0.03499926
189	0xbd8c2dbe	-0.06844662
190	0xbd4f1d44	-0.05056502
191	0x3bc10e40	0.0058915913
192	0x3ddcdf1a	0.10784741
193	0xbd6546d8	-0.055975765
194	0x3dada34a	0.084784105
195	0x3d4dd3e4	0.050250903
196	0x3dd5740c	0.10422525
197	0xbd95565e	-0.07291864
198	0xbdf23392	-0.118262425
199	0x3da14620	0.078747034
200	0x3d79f3fc	0.061023697
201	0xbdb5e936	-0.08882372
202	0xbde5c7c4	-0.11219743
203	0xbd8afec0	-0.06786871
204	0x3c2ba7d0	0.010477021
205	0xbcde53a8	-0.0271395
206	0x3d364680	0.044500828
207	0x3d032424	0.03201689
208	0xbd62ea94	-0.055399492
209	0x3d27343c	0.0408213
210	0x3d416360	0.047213912
211	0x3cbe6ee0	0.023246229
212	0xbd92b080	-0.07162571
213	0x3cc501c8	0.0240487
214	0x3d021a2c	0.03176324
215	0x3dad21ee	0.08453737
216	0x3d431318	0.04762563
217	0xbde962c0	-0.11395788
218	0xbd9f7b0a	-0.0778714
219	0xbce93bf8	-0.028470978
220	0xbdd83676	-0.105572626
221	0xbd1f44ec	-0.03888409
222	0xbce3e640	-0.027819753
223	0x3d94cd3a	0.07265706
224	0x3bfc4680	0.007698834
225	0x3dc690e8	0.096956074
226	0xbd4f5938	-0.050622195
227	0x3d6dcf14	0.058058813
228	0x3d1ef38c	0.038806483
229	0xbc792dd0	-0.015208676
230	0x3bc53f20	0.006019488
231	0x3dae5202	0.085117355
232	0x3cdcbb08	0.026944652
233	0x3d83da6e	0.064381465
234	0xbd660dc0	-0.056165457
235	0x3dcd554c	0.10026035
236	0x3dd0f1e6	0.102023885
237	0xbdf0a600	-0.11750412
238	0xbdbbab7a	-0.09163566
239	0xbd90aeae	-0.070645675
240	0x3a87d600	0.001036346
241	0xbdd78554	-0.10523477
242	0xbdda6282	-0.1066332
243	0x3b0ab540	0.0021165162
244	0xbdfde658	-0.1239745
245	0x3dabec8e	0.083947286
246	0x3d88d5da	0.06681414
247	0xbdf9e034	-0.122009665
248	0xbde7ccc8	-0.11318356
249	0xbd965010	-0.073394895
250	0x3cd41628	0.025889471
251	0x3de09b24	0.10967091
252	0x3be4cb80	0.006982267
253	0x3da65e66	0.08123474
254	0x3d7c429c	0.06158696
255	0xbdd1650a	-0.1022435

shared_layers.2.bias f4 [32]
0	0x3dab5233	0.08365288
1	0xbde51af2	-0.1118678
2	0x3deeb062	0.11654736
3	0xbd4bcbe0	-0.049754977
4	0xbdc27433	-0.094948195
5	0x3dea8e0a	0.11452873
6	0xbdc29966	-0.09501915
7	0x3cfab610	0.030604392
8	0xbd0fdf78	-0.035125226
9	0x3e2abbe8	0.16673243
10	0x3d806b9d	0.062705256
11	0xbdfa0944	-0.122087985
12	0x3d5b6369	0.0535616
13	0x3c86b84e	0.016445305
14	0xbd8568eb	-0.06514152
15	0x3e2cb383	0.16865353
16	0x3cc8d830	0.024517149
17	0x3dbcc1b3	0.09216633
18	0xbc9cdd3f	-0.019148467
19	0x3d3d8972	0.046273656
20	0xbddff98a	-0.10936268
21	0xbdd36d7e	-0.10323618
22	0x3d90c00c	0.0706788
23	0x3e219669	0.15780033
24	0x3d9ab3a9	0.07553799
25	0x3df274ee	0.11838709
26	0x3d2019f0	0.039087236
27	0x3d58b87c	0.052910313
28	0x3e0ce2af	0.13758348
29	0x3de5ddb5	0.11223928
30	0x3d140058	0.03613314
31	0x3c949482	0.01813722

shared_layers.4.weight f4 [8, 32]
0	0xbe59169b	-0.2120003
1	0x3de24b07	0.110494666
2	0x3d7a9343	0.061175596
3	0xbe31c364	-0.17359692
4	0xbda281d5	-0.0793492
5	0xbe75b25d	-0.23993821
6	0xbdb03a21	-0.08604837
7	0x3cdea0ce	0.027176287
8	0x3dde4967	0.10853844
9	0xbcac6b4d	-0.021047259
10	0xbe27e842	-0.16397193
11	0x3d2c626c	0.04208605
12	0x3dcde782	0.10053922
13	0xbdb6f4d8	-0.08933419
14	0x3d7c4cb2	0.06159658
15	0x3d0751b8	0.033036917
16	0x3d6cca85	0.057810325
17	0xbe6ed244	-0.23322397
18	0xbd93bc18	-0.072136104
19	0x3deceaa7	0.11568194
20	0x3d7208ea	0.059090532
21	0xbdcc809e	-0.09985469
22	0x3cc467f4	0.02397535
23	0xbe53e1a2	-0.20691541
24	0xbe46bff3	-0.1940916
25	0xbd9f82b2	-0.077886
26	0x3cc30897	0.023807807
27	0xbe958719	-0.29204634
28	0x3c2c3b14	0.010512132
29	0xbe5281ac	-0.20557278
30	0x3d905314	0.07047096
31	0x3db4bf40	0.088255405
32	0xbe569a86	-0.20957384
33	0x3d2f5f45	0.042815465
34	0x3be9d972	0.007136517
35	0xbe211026	-0.15728816
36	0xbe27ab00	-0.16373825
37	0xbcd9c80f	-0.026584653
38	0x3df37598	0.118876636
39	0xbce2ab42	-0.027669553
40	0x3d5972ac	0.053087875
41	0x3cdeae31	0.02718267
42	0xbdb2bb4e	-0.08727132
43	0xbd672db9	-0.05644009
44	0x3dfa83fb	0.122322045
45	0xbd954f31	-0.07290495
46	0xbd3a18fe	-0.04543399
47	0xbe0bd99c	-0.1365723
48	0xbe034fbc	-0.12823385
49	0xbea6062f	-0.32426593
50	0xbc4c247d	-0.012459871
51	0x3dcd9bb4	0.10039464
52	0x3d830199	0.06396789
53	0xbd12ad61	-0.03580988
54	0xbd16f4f0	-0.036854684
55	0xbd246a59	-0.040140484
56	0xbdb15718	-0.0865919
57	0xbe147bb6	-0.14500317
58	0xbbf8a073	-0.0075874864
59	0xbdcf23a3	-0.10114219
60	0x3b49be3d	0.0030783557
61	0xbe9a4a6d	-0.30134907
62	0xbd98e23a	-0.07465024
63	0x3de43342	0.11142589
64	0xbcc4be43	-0.024016505
65	0x3e32ac54	0.1744855
66	0xbcd4d3ee	-0.025979962
67	0xbcce7463	-0.025201982
68	0x3deb925b	0.115025245
69	0xbe29e72d	-0.16592093
70	0xbe30bc29	-0.17259277
71	0xbe2df58a	-0.16988197
72	0xbe0c326a	-0.13691106
73	0xbe8bb6b8	-0.2728784
74	0xbd6250f3	-0.05525298
75	0xbcff55ca	-0.031168837
76	0xbd661e6a	-0.05618135
77	0xbe186eb6	-0.14885983
78	0x3d841b0b	0.064504705
79	0xbdc1b811	-0.09458936
80	0xbe34f054	-0.17669803
81	0xbe9772eb	-0.29579863
82	0x3e1d3aa7	0.15354405
83	0x3e1ec9ae	0.15506622
84	0x3b847a41	0.004042894
85	0xbe22de1c	-0.1590504
86	0xbd67eb45	-0.056620855
87	0xbdcd0f46	-0.10012679
88	0x3dbce87f	0.092240326
89	0xbd4114cb	-0.04713897
90	0xbcad0baa	-0.021123726
91	0xbc846247	-0.016160144
92	0xbe6bb864	-0.23019558
93	0xbd856c36	-0.0651478
94	0xbc9bffef	-0.019042937
95	0x3e04ee7c	0.129816
96	0xbda13d3b	-0.07873007
97	0xbe1246d7	-0.14284836
98	0x3df4a05a	0.11944647
99	0xbd4bcbcc	-0.049754903
100	0xbddd7811	-0.108139165
101	0xbea387f3	-0.3193966
102	0x3d80d49f	0.06290554
103	0x3baebeef	0.0053328197
104	0xbdaa4837	-0.08314555
105	0xbd978a72	-0.07399453
106	0x3e10afd0	0.14129567
107	0xbe215efa	-0.15758887
108	0xbda9b9fa	-0.08287425
109	0x3da5a142	0.08087398
110	0x3de43735	0.111433424
111	0xbe776e8a	-0.24163261
112	0xbc20f08c	-0.009822976
113	0xbd699492	-0.057026453
114	0xbd8a9bae	-0.06767975
115	0x3d6fd7cc	0.05855541
116	0xbdeafce9	-0.1147402
117	0x3d2cfbbc	0.04223226
118	0xbe0b9e03	-0.13634495
119	0xbda594df	-0.080850355
120	0xbe451795	-0.19247277
121	0xbe0e5922	-0.13901189
122	0xbdbb609f	-0.091492884
123	0xbca89f96	-0.020583909
124	0xbdb5704b	-0.08859309
125	0xbd49ad52	-0.049237557
126	0x3e0fad0f	0.1403086
127	0xbe3a0a09	-0.1816789
128	0x3c4a31a4	0.012340937
129	0xbdbe3f3a	-0.09289403
130	0x3cebebb9	0.028798925
131	0x3d07e42c	0.033176586
132	0x3d3c5dea	0.045988
133	0xbcb87b1e	-0.022519644
134	0xbe13146b	-0.14363258
135	0xbd29fab6	-0.041498862
136	0xbd87d547	-0.06632476
137	0x3d5e6284	0.05429317
138	0x3d0aed7d	0.033917893
139	0xbd5130a5	-0.05107178
140	0xbc3dc806	-0.011583334
141	0x3d386d1c	0.04502593
142	0xbe06b69c	-0.13155597
143	0xbe58565b	-0.21126692
144	0x3c23e938	0.010004334
145	0xbe7f6299	-0.24939956
146	0x3d86d766	0.06584053
147	0x3d7e2ef4	0.062056497
148	0x3d5fc96a	0.054635443
149	0xbbcb3907	-0.0062018665
150	0xbda71bcb	-0.08159598
151	0xbe69fe1d	-0.22850843
152	0xbd21de1a	-0.039518453
153	0xbd2cae04	-0.04215814
154	0xbe0f781d	-0.14010663
155	0xbe86261f	-0.2620096
156	0xbe93b5b6	-0.28849572
157	0xbde10f1d	-0.10989211
158	0x3e1235e2	0.14278367
159	0x3e1bacec	0.15202683
160	0x3e40a795	0.18813927
161	0x3dfb34cc	0.122659296
162	0xbe19d2b8	-0.15021789
163	0xbc180799	-0.009279155
164	0xbd3a0e74	-0.04542394
165	0xbd0f6201	-0.035005573
166	0xbcb8cb58	-0.0225579
167	0xbdaa5c59	-0.08318395
168	0x3dc882a9	0.097905464
169	0x3e28ce4c	0.16484946
170	0xbddd9a63	-0.108204626
171	0xbdd5c8c5	-0.104386844
172	0xbdf08940	-0.11744928
173	0xbe113274	-0.14179403
174	0xbd9a5cb8	-0.07537216
175	0x3e870028	0.26367307
176	0xbdf3490c	-0.11879167
177	0x3ce6a06d	0.028152669
178	0xbc75de40	-0.015006602
179	0xbd877aa5	-0.066151895
180	0xbe025959	-0.12729396
181	0x3d36404c	0.044494912
182	0xbe04b76e	-0.12960598
183	0x3e06e0a7	0.13171636
184	0x3cb0bdcd	0.021574879
185	0x3e8430ef	0.25818583
186	0xbdec5915	-0.115404285
187	0x3e87e74c	0.26543653
188	0x3e261967	0.16220628
189	0x3e541fe3	0.20715289
190	0xbc494575	-0.012284626
191	0xbd9220db	-0.07135173
192	0x3e36187e	0.1778278
193	0x3e285608	0.16439068
194	0xbe1242c3	-0.1428328
195	0x3dbfc67d	0.093640305
196	0xbc1cb1fe	-0.009563921
197	0x3d9ab907	0.075548224
198	0x3d3f4259	0.046694133
199	0xbdef20ff	-0.116762154
200	0x3e029cf0	0.1275518
201	0xbde29a18	-0.11064547
202	0xbca80f43	-0.02051509
203	0xbd7e1458	-0.06203112
204	0xbdaf0f0c	-0.08547792
205	0xbc093ac5	-0.008375828
206	0x3de56eba	0.1120276
207	0x3dfcb7da	0.123397544
208	0x3e16eea4	0.14739472
209	0xbd8422c3	-0.06451943
210	0x3de60df7	0.11233132
211	0xbcf831fc	-0.030297272
212	0x3e1c6f7c	0.15276903
213	0x3c85e0c2	0.016342524
214	0xbe172a15	-0.14762147
215	0xbda3a977	-0.07991307
216	0xbd7ca94d	-0.061684895
217	0xbc0396a6	-0.008031523
218	0x3e04d9b5	0.12973674
219	0xbd19fc92	-0.037594385
220	0x3e1ffbf8	0.15623462
221	0xbd708766	-0.058722876
222	0xbe0f66b7	-0.14004026
223	0x3d70cae8	0.058787256
224	0xbd3603fb	-0.04443739
225	0xbe1a66ec	-0.15078324
226	0x3dea7f39	0.11450047
227	0xbe0a1884	-0.13485914
228	0x3cea992f	0.028637497
229	0xbe38b690	-0.18038392
230	0x3c15570e	0.009114994
231	0xbc86b533	-0.016443824
232	0x3d09b660	0.033621192
233	0xbe546344	-0.20740992
234	0x3d937005	0.071991004
235	0xbe2645fd	-0.16237636
236	0xbc112725	-0.00885943
237	0xbd8933d3	-0.06699338
238	0x3c1321c7	0.008980221
239	0xbdaace8c	-0.08340177
240	0xbe152920	-0.14566469
241	0xbeba6e4d	-0.36412278
242	0xbb777586	-0.0037759258
243	0x3d1cef1e	0.038313977
244	0xbe131160	-0.14362097
245	0x3de68900	0.112565994
246	0x3a7e1ca3	0.0009693598
247	0xbe94fcc1	-0.29099086
248	0x3dcaac91	0.09896196
249	0xbe6f279f	-0.23354958
250	0x3e016bcb	0.12638776
251	0xbe442bbe	-0.19157311
252	0xbe99c42e	-0.30032486
253	0xbd8ba5b2	-0.06818713
254	0xbe1e7594	-0.1547454
255	0xbe2d7fa2	-0.1694322

shared_layers.4.bias f4 [8]
0	0xbe4beb33	-0.1991394
1	0xbe2eb679	-0.17061795
2	0x3d885462	0.0665672
3	0x3d6e7f87	0.05822709
4	0xbdeebf85	-0.11657623
5	0x3df121b9	0.1177401
6	0x3dc8ab77	0.09798329
7	0x3cb7344a	0.0223638
