training/models/3controller_controller_acc0.95_lat0.015_succ20_small5_large8_carb7_cap105_rate0.001598_best_model.pth (torch, 17025 bytes, 6 tensors)

shared_layers.0.weight f4 [64, 3]
0	0x3eee2072	0.4650913
1	0x3e123fd5	0.14282162
2	0xbee16f3e	-0.44030184
3	0x3e94c3c6	0.29055613
4	0x3f1bc3ff	0.6084594
5	0x3ea9849b	0.33108982
6	0x3ab022e4	0.0013438133
7	0x3db239fe	0.087024674
8	0x3e751108	0.23932278
9	0x3efb65bd	0.49101058
10	0x3f23a65a	0.6392571
11	0xbeb19ba3	-0.34689054
12	0x3e3f9ccc	0.18712157
13	0x3eb6ddb2	0.35716015
14	0xbe65f67e	-0.2245731
15	0xbedc8b6c	-0.4307512
16	0x3dab8ca9	0.08376438
17	0xbe0b4a7f	-0.13602637
18	0x3e65a11f	0.22424744
19	0x3e819b0e	0.2531361
20	0xbd471b94	-0.048610285
21	0x3f437528	0.7635064
22	0xbdb818d3	-0.0898911
23	0xbe4389fb	-0.19095604
24	0xbe8bfd57	-0.2734172
25	0x3e7328f7	0.23746096
26	0xbef90b2a	-0.4864133
27	0xbcfb0dc6	-0.030646216
28	0x3f2a5855	0.66541034
29	0x3f02548a	0.50910246
30	0xbe334931	-0.17508389
31	0x3ebab7af	0.36468264
32	0xbeb676e6	-0.35637587
33	0x3e261e59	0.16222514
34	0x3d89ae6e	0.06722723
35	0x3ebb203c	0.3654803
36	0x3f2e02e8	0.67973185
37	0x3e831cc5	0.25607887
38	0xbe87a984	-0.26496518
39	0x3e04f8eb	0.1298558
40	0x3e909171	0.28235963
41	0xbec9c551	-0.39408353
42	0xbf2b3d6d	-0.66890603
43	0x3c35064c	0.011048865
44	0xbd835a73	-0.06413736
45	0xbe65884f	-0.22415279
46	0x3f0cef76	0.5505289
47	0xbf0022ec	-0.50053287
48	0xbf6e3f1e	-0.9306506
49	0x3f1b4999	0.60659176
50	0x3e64ae7a	0.22332183
51	0xbed98f7f	-0.4249229
52	0x3eecdfba	0.4626444
53	0xbf021385	-0.50811034
54	0x3f3cab2d	0.73698694
55	0xbe835efd	-0.25658408
56	0xba97d59e	-0.0011584049
57	0xbee8c24d	-0.4546074
58	0xbe635337	-0.22199713
59	0x3eb96721	0.36211494
60	0xbf8b1527	-1.086583
61	0xbdb42cbb	-0.08797594
62	0xbe821a25	-0.25410572
63	0xbe9f578d	-0.31121483
64	0xbed84770	-0.42242002
65	0x3e8f59ec	0.27998292
66	0x3f52e84f	0.82385725
67	0xbdff5300	-0.12467003
68	0x3f06b58d	0.52620775
69	0x3eebe0f8	0.46070075
70	0x3e7e1b0f	0.2481501
71	0xbe28ac69	-0.1647202
72	0x3e58c506	0.21168908
73	0x3f0d3ff3	0.55175704
74	0xbee4df51	-0.44701627
75	0xbf001583	-0.50032824
76	0x3f2b2868	0.6685853
77	0x3bdf9a0d	0.006823784
78	0x3f5215da	0.8206459
79	0xbdb26f3c	-0.087126225
80	0xbe7280ad	-0.23681898
81	0x3e9490d3	0.29016742
82	0x3f17ff2c	0.59373736
83	0x3e026f14	0.12737685
84	0xbf8489e1	-1.0354577
85	0xbd6d56ae	-0.057943992
86	0x3ea878d8	0.32904696
87	0x3f02180e	0.50817955
88	0x3ec24765	0.37945095
89	0xbe25db37	-0.16196905
90	0xbf00ff70	-0.50389767
91	0xbea7942a	-0.32730228
92	0x3e62ee0c	0.2216112
93	0xbf002e51	-0.50070673
94	0xbd75c94b	-0.06000642
95	0x3e54dca0	0.20787287
96	0xbe67a0a2	-0.2261987
97	0xbd4c7681	-0.0499177
98	0xbcce2342	-0.025163297
99	0x3ee4c2e9	0.44679955
100	0x3f080158	0.5312705
101	0x3e9df58b	0.30851397
102	0x3ee6f7e4	0.45111
103	0x3dd6cd93	0.10488429
104	0x3ed506b9	0.4160669
105	0x3f56be68	0.83884287
106	0x3f190a06	0.5978092
107	0x3cb4b252	0.022057686
108	0x3e9c83fd	0.3056945
109	0x3f109c46	0.56488454
110	0xbe6d8289	-0.23194326
111	0xbe0a040d	-0.13478108
112	0x3ec4d7e5	0.38445964
113	0xbf0c46c5	-0.54795486
114	0x3dd48f07	0.10378843
115	0x3eec99af	0.46211
116	0x3d6e776f	0.05821937
117	0x3f0bd9f5	0.5462945
118	0x3f0daf39	0.55345494
119	0x3e92a060	0.2863798
120	0xbd468f94	-0.04847677
121	0xbe027c91	-0.12742831
122	0x3ecf593b	0.40497765
123	0x3e554d5f	0.20830296
124	0xbe09e218	-0.13465154
125	0xbe2718df	-0.16318081
126	0xbe0d2db1	-0.13786961
127	0xbe89eb27	-0.2693722
128	0x3d24531c	0.04011832
129	0x3df0d900	0.117601395
130	0x3f102242	0.56302273
131	0xbd7a1f1a	-0.061064817
132	0xbeb821c5	-0.35963264
133	0x3d5cc138	0.053895205
134	0xbe8ea13e	-0.27857393
135	0x3ee3cf06	0.44493884
136	0x3f15d371	0.5852576
137	0x3e36f6bc	0.17867559
138	0xbf1324e3	-0.5747816
139	0xbd667825	-0.056266923
140	0x3eb24804	0.3482057
141	0xbf301ac9	-0.6879087
142	0xbe4d1d7b	-0.20030777
143	0x3d8e622b	0.06952318
144	0xbe6b9daa	-0.23009363
145	0x3f1f464d	0.62216645
146	0x3ed61f26	0.4182064
147	0x3f8b1842	1.0866778
148	0x3de1a9a4	0.110186845
149	0x3ee36ccc	0.44418943
150	0xbed0d49f	-0.40787217
151	0xbe67f9b0	-0.22653842
152	0x3dad4293	0.08459964
153	0x3d049827	0.032371666
154	0xbd3c17f3	-0.045921277
155	0xbed1b29b	-0.40956578
156	0x3ed7360d	0.42033425
157	0x3f10e00e	0.5659188
158	0x3f1c2d2f	0.61006445
159	0xbee9ee53	-0.4568964
160	0x3f1718c8	0.5902219
161	0xbdd9d41d	-0.106361605
162	0x3f7963d0	0.97417927
163	0x3f11db09	0.56974846
164	0x3f3d8afa	0.74040186
165	0x3c037980	0.008024573
166	0xbe38c68b	-0.18044488
167	0x3e2d026a	0.16895452
168	0xbe9e2ea1	-0.3089495
169	0xbda1b393	-0.07895579
170	0x3e4f5854	0.20248538
171	0x3f358196	0.7090086
172	0xbec76357	-0.38942978
173	0x3e3b0108	0.18262112
174	0xbf6e1dad	-0.9301403
175	0x3d60f893	0.05492456
176	0xbd9afdc7	-0.075679354
177	0x3b1961db	0.0023404274
178	0x3f320dcc	0.695523
179	0x3e5b674c	0.21426123
180	0xbf530614	-0.8243115
181	0x3ed81ef8	0.42211127
182	0x3e7d0540	0.24709034
183	0xbe5dafff	-0.21649168
184	0xbec6e8be	-0.38849443
185	0x3e1c519c	0.15265507
186	0x3f36aa24	0.71353364
187	0x3f2741fc	0.6533506
188	0x3f0464c8	0.5171628
189	0xbecd4fc9	-0.40099934
190	0x3f3691a9	0.7131601
191	0x3ee6b27d	0.4505805

shared_layers.0.bias f4 [64]
0	0x3f36f0ea	0.71461356
1	0x3b92088e	0.004456586
2	0x3e88192a	0.265817
3	0x3e1b5d6d	0.15172358
4	0xbeda1896	-0.42596883
5	0x3f0e04f6	0.5547632
6	0x3ee7c0f4	0.452644
7	0x3e171802	0.14755252
8	0xbeb0004c	-0.34375226
9	0x3bcf3164	0.0063230265
10	0x3f10dc89	0.5658651
11	0x3f158cf4	0.584182
12	0x3de6a64a	0.11262186
13	0x3edf2fa5	0.43591037
14	0x3ee74834	0.45172274
15	0xbeff40b3	-0.4985405
16	0x3d1a6e5c	0.037702903
17	0xbeabb264	-0.3353454
18	0x3eae6167	0.34058687
19	0x3f04bc89	0.5185018
20	0x3eca1d87	0.39475653
21	0x3e28697e	0.16446492
22	0x3db025a6	0.08600931
23	0xbf146020	-0.57959175
24	0x3ed503b9	0.41604403
25	0x3ec48961	0.38386062
26	0x3d77141f	0.060321923
27	0x3e217e7e	0.15770909
28	0x3f218d06	0.6310581
29	0xbe16f859	-0.14743175
30	0xbe2b635b	-0.1673712
31	0xbecbedf8	-0.39829993
32	0xbe66335a	-0.22480527
33	0xbd9eb389	-0.07749087
34	0x3dbe2901	0.092851646
35	0xbdebf320	-0.11520982
36	0x3e96956a	0.2941087
37	0x3f109f60	0.56493187
38	0x3ec1b92b	0.37836584
39	0x3f109663	0.5647947
40	0xbd9e032e	-0.0771545
41	0xbe5aa6d0	-0.21352696
42	0x3c405ac8	0.011740394
43	0x3ec72ad9	0.38899878
44	0x3eb3871e	0.35064024
45	0x3e801b87	0.25021002
46	0xbec3ba41	-0.38228038
47	0x3ef48121	0.47754768
48	0x3eaeb3f5	0.3412167
49	0xbd249bfc	-0.04018782
50	0xbe81e66d	-0.25371113
51	0xbe4581a6	-0.19287738
52	0x3edb8ca0	0.42880726
53	0x3eaef080	0.34167862
54	0xbe6c232e	-0.23060295
55	0x3d4d6325	0.05014338
56	0x3ee78851	0.4522119
57	0x3e8bd48a	0.27310592
58	0x3ecff7c9	0.40618733
59	0x3efbdaf9	0.491905
60	0x3dc42e5e	0.09579156
61	0xbda755d6	-0.08170669
62	0xbe8553a0	-0.26040363
63	0x3f0019af	0.5003919

shared_layers.2.weight f4 [32, 64]
0	0x3e342ebd	0.17595954
1	0x3ddb1f97	0.10699385
2	0x3dc3e146	0.09564452
3	0x3e34c53b	0.17653362
4	0xbc9220f8	-0.017837986
5	0x3e500268	0.20313418
6	0x3e09400b	0.13403337
7	0x3d68bef7	0.056822743
8	0x3dcb44c4	0.099252254
9	0x3d8b3777	0.067976885
10	0x3e09e2eb	0.13465469
11	0xbbacb9ee	-0.005271188
12	0x3e10eafe	0.14152142
13	0x3e317c83	0.17332654
14	0x3e320db8	0.17388046
15	0xbcf11330	-0.029428095
16	0x3cecbefb	0.02889966
17	0x3d5245ba	0.051336028
18	0x3e3ae759	0.18252315
19	0x3e6fa2c1	0.2340193
20	0xbe5909b1	-0.21195103
21	0xbda6f19b	-0.08151551
22	0x3e24e5fb	0.16103356
23	0x3ddb8613	0.10718932
24	0x3cc2dab1	0.02378592
25	0x3d1b721b	0.037950616
26	0x3d83c1d7	0.064334564
27	0x3dfa75d3	0.122295044
28	0xbd335309	-0.04378036
29	0x3d9a5dbc	0.0753741
30	0xbde7de18	-0.11321658
31	0x3d235770	0.03987831
32	0xbdd7ff7c	-0.10546777
33	0x3e09017a	0.1337947
34	0x3dd5cb23	0.10439136
35	0x3c91f666	0.017817687
36	0x3d8b25dc	0.067943305
37	0x3e53b9e5	0.20676382
38	0x3e37ea13	0.17960386
39	0x3d7c2826	0.061561726
40	0x3da2697e	0.07930277
41	0xbcd86ec0	-0.026419997
42	0xbda8284a	-0.082108095
43	0x3e31e950	0.17374158
44	0x3d016302	0.03158856
45	0x3d606571	0.054784242
46	0x3d02a098	0.031891435
47	0x3e07ea8f	0.13273071
48	0x3e231239	0.1592492
49	0x3e8f6699	0.28007963
50	0x3c9306b8	0.01794754
51	0x3df49ace	0.11943589
52	0x3cf796e4	0.030223317
53	0x3dc3c326	0.09558706
54	0x3e7fe454	0.24989444
55	0xbb02bc00	-0.0019948483
56	0x3dced2a5	0.10098771
57	0x3ec80ada	0.3907078
58	0xbd93075d	-0.07179139
59	0x3e2ed7ad	0.17074461
60	0x3d63b528	0.055592686
61	0x3daaf61c	0.08347723
62	0x3e82c021	0.25537208
63	0x3e38cafc	0.18046182
64	0x3e044ebd	0.12920661
65	0x3db7e656	0.0897948
66	0x3e40bfc1	0.18823148
67	0xbd067d35	-0.03283425
68	0xbda8e53a	-0.082468465
69	0x3e9a33fc	0.30117786
70	0x3d6cd3fe	0.05781936
71	0xbe9e5c0d	-0.30929604
72	0xbd44465c	-0.047918662
73	0x3e7a1b4e	0.24424478
74	0x3dcbe0d3	0.09954991
75	0x3d9a2d94	0.075282246
76	0xbe25edf4	-0.16204053
77	0x3d648e32	0.05579967
78	0x3eb637bd	0.355894
79	0xbdb16218	-0.08661288
80	0x3edece52	0.43516785
81	0x3cb985a6	0.022646736
82	0xbec6dd97	-0.38840935
83	0x3e80db2d	0.25167218
84	0x3ef4613a	0.47730428
85	0xbdf7b2f8	-0.120946825
86	0xbf123028	-0.5710473
87	0xbe1d1e66	-0.15343627
88	0x3da162d9	0.07880182
89	0x3e6f1b06	0.23350152
90	0xbf0943e2	-0.53619206
91	0x3e315827	0.17318784
92	0x3eb394d4	0.35074484
93	0xbe8a43e3	-0.27004918
94	0xbdf68054	-0.120361954
95	0xbd3ff03c	-0.046859965
96	0xbda14412	-0.078743115
97	0xbe41b441	-0.18916418
98	0xbe2a7a59	-0.16648234
99	0xbe90c154	-0.28272498
100	0x3e2893be	0.16462609
101	0x3e7bb991	0.24582507
102	0x3e2b0333	0.16700439
103	0x3d51dfd1	0.05123884
104	0xbd61c8a0	-0.05512297
105	0xbcd95920	-0.026531756
106	0x3c0b6e10	0.008510128
107	0x3dd4603e	0.10369919
108	0x3e701d2d	0.2344863
109	0x3c39172e	0.01129703
110	0x3df6ec12	0.120567456
111	0x3e3ebd6b	0.18626945
112	0x3e5f6a5c	0.21817917
113	0xbefdcd4a	-0.49570686
114	0xbcb1c0b0	-0.021698326
115	0xbd58a014	-0.052887037
116	0x3d4f37c6	0.0505903
117	0x3dc7ac88	0.097497046
118	0xbec59b2a	-0.38594943
119	0xbd50c7c4	-0.05097176
120	0x3e8a320a	0.26991302
121	0xbf0c258f	-0.5474481
122	0x3e911122	0.28333384
123	0x3e76044b	0.24025075
124	0x3eb6710a	0.35633117
125	0xbcc2d8b8	-0.02378498
126	0xbeaa1f4c	-0.33227003
127	0x3e65643d	0.22401519
128	0x3e39cd50	0.18144727
129	0x3e0e664c	0.1390621
130	0x3e4f4fce	0.20245287
131	0x3dfc2c9c	0.12313196
132	0x3dda9208	0.106723845
133	0x3d2d8c50	0.04237014
134	0x3e5e9a08	0.21738446
135	0x3e329f77	0.17443644
136	0xbd39a664	-0.045324698
137	0x3e5a0b28	0.21293318
138	0x3e02c22a	0.1276938
139	0x3e336481	0.17518808
140	0xbcb7b6f3	-0.022426104
141	0x3dfdc503	0.12391093
142	0x3e1d9271	0.15387894
143	0x3d29b5a8	0.041433007
144	0x3cbfd19f	0.023415385
145	0x3dd78e97	0.10525244
146	0x3d8bdee9	0.06829626
147	0x3878f4c5	5.9355767e-05
148	0xbd0a9eae	-0.033842735
149	0xbd238dbd	-0.039930094
150	0x3dbfd63b	0.09367033
151	0xbd98dcb3	-0.0746397
152	0x3e24ce1a	0.16094247
153	0x3e21cc69	0.15800633
154	0x3dcbef83	0.099577926
155	0x3e47292b	0.19449298
156	0x3ce63c5c	0.028104953
157	0x3cb29632	0.021800134
158	0x3deefc28	0.11669189
159	0x3dedd3aa	0.11612637
160	0x3ca6c970	0.020359725
161	0x3e403e9e	0.18773887
162	0x3e35b939	0.17746438
163	0x3da44c78	0.08022398
164	0x3e3945cb	0.1809303
165	0x3dfb6505	0.12275127
166	0x3d8355ec	0.06412873
167	0x3e402ec4	0.1876784
168	0xbdb93e04	-0.09045032
169	0xbd68584c	-0.05672483
170	0xbb01f140	-0.0019827634
171	0x3dbf2257	0.09332722
172	0x3dc81bb7	0.09770911
173	0x3d2650d5	0.04060443
174	0x3d0e6e44	0.034773126
175	0x3e09bcd4	0.13450938
176	0x3e0ab9a4	0.13547379
177	0x3e2e5bf8	0.17027271
178	0xbdb34466	-0.0875328
179	0xbda468b6	-0.080277845
180	0x3b282bde	0.0025660913
181	0x3e1f2867	0.15542756
182	0x3eb1c058	0.3471706
183	0x3cf347d8	0.029697344
184	0x3e278a52	0.16361359
185	0x3eceeb49	0.40413883
186	0x3dbad8ff	0.0912342
187	0x3e3722bb	0.17884342
188	0x3e0b944b	0.13630788
189	0xba15a900	-0.0005709082
190	0x3dc3f00b	0.09567269
191	0x3e56062f	0.20900796
192	0xbe0e68f9	-0.13907231
193	0x3d8ad0ba	0.06778093
194	0xbd3f4fe7	-0.04670706
195	0xbdcdd494	-0.10050312
196	0xbcc9d2c8	-0.024636641
197	0x3dcd3fd9	0.100219436
198	0x3dbd1f4a	0.092344835
199	0xbd927d25	-0.07152776
200	0xbbe522e0	-0.006992683
201	0x3db5d780	0.08878994
202	0xbdd4c707	-0.10389524
203	0xbc9a2f1e	-0.018821295
204	0xbde45163	-0.11148336
205	0x3d3ff9e8	0.04686919
206	0xbda2fe2e	-0.07958637
207	0x3dec66bc	0.115430325
208	0xbd427b7a	-0.047481038
209	0x3c93fd56	0.018065136
210	0xbdd41e37	-0.103573255
211	0xbde62d49	-0.11239106
212	0x3ba08719	0.0048989174
213	0xbd135b8e	-0.035975985
214	0x3dbbaff6	0.09164421
215	0xbb847418	-0.0040421598
216	0xbdf25510	-0.11832631
217	0x3db2a3ca	0.087226465
218	0x3ce075c5	0.027399907
219	0xbe031faa	-0.12805048
220	0xbdc59a0d	-0.096485235
221	0x3d8b2122	0.06793429
222	0x3af87b80	0.0018957704
223	0xbdce8ace	-0.10085069
224	0x3ddc3778	0.10752767
225	0xbd2f6d95	-0.042829115
226	0xbdd9fae9	-0.106435604
227	0x3c0b1458	0.008488737
228	0xbd85205f	-0.06500315
229	0x3dd12a03	0.10213091
230	0x3d148803	0.036262523
231	0xbcc8ef8c	-0.024528287
232	0x3d6c88c4	0.057747617
233	0x3d9cb4f6	0.07651703
234	0xbd1a06f8	-0.037604302
235	0x3d9613eb	0.07328018
236	0x3d446911	0.04795176
237	0x3d76e2c6	0.06027486
238	0x3df728ea	0.120683506
239	0x3d9a95c8	0.075481
240	0xbb20ed2f	-0.0024555435
241	0x3c7d8d8c	0.015475642
242	0xbde97e58	-0.11401051
243	0xbddfa4c2	-0.10920097
244	0x3dbf3b09	0.09337432
245	0xbdf317ba	-0.1186976
246	0xbd549319	-0.051898096
247	0xbd775b30	-0.060389698
248	0xbda3997b	-0.079882585
249	0xbd32b8d8	-0.043633312
250	0xbe0cdb47	-0.13755523
251	0x3db96c3f	0.090538494
252	0xbcca0057	-0.024658365
253	0x3d8b8dd2	0.068141595
254	0xbd79724d	-0.06090002
255	0x3d8869e6	0.066608235

shared_layers.2.bias f4 [32]
0	0x3e5e1fe1	0.21691848
1	0xbb266b5f	-0.0025393588
2	0xbd0c4c68	-0.034252554
3	0xbcbce7a1	-0.023059668
4	0x3d0b523d	0.034013975
5	0x3d0ffe2b	0.035154503
6	0x3a986f44	0.001162984
7	0x3e0853c6	0.13313207
8	0xbd2ae6cc	-0.04172401
9	0xbd070338	-0.032962054
10	0xbc364e71	-0.0111271
11	0xbdd772a0	-0.1051991
12	0xbdc27618	-0.09495181
13	0x3e33decf	0.17565463
14	0x3cb6ae68	0.02229996
15	0xbc9d8867	-0.01923008
16	0xbda35aea	-0.07976325
17	0x3e0b458c	0.13600749
18	0x3cac5aef	0.021039454
19	0xbdd2142e	-0.10257755
20	0xbd30229e	-0.043001764
21	0x3d6d15e4	0.057882205
22	0xbdc0b178	-0.094088495
23	0xbcc8cc30	-0.024511427
24	0x3c0cf0e6	0.008602357
25	0x3d90fc7c	0.070794076
26	0x3de45ccc	0.11150512
27	0xbdccbfee	-0.09997545
28	0xbc4c9718	-0.012487195
29	0xbdeb02c7	-0.11475139
30	0xbc92d381	-0.017923119
31	0x3e51779f	0.20455788

shared_layers.4.weight f4 [8, 32]
0	0x3d4e11b7	0.050309863
1	0x3e60056a	0.21877065
2	0x3e281eca	0.16417995
3	0x3d83c72a	0.06434472
4	0xbbe90f8f	-0.0071124504
5	0xbdb4f4c3	-0.08835747
6	0x3db48738	0.088148534
7	0x3e05366e	0.13009045
8	0x3db6307a	0.08895965
9	0x3e0a5a47	0.13511
10	0xbe8ea765	-0.27862087
11	0xbe3280b7	-0.17431913
12	0xbdc3ea3a	-0.095661595
13	0xbdaa0268	-0.0830124
14	0xbe2702d9	-0.1630968
15	0xbee0cfd5	-0.43908563
16	0xbd38ae5a	-0.04508815
17	0xbe62de73	-0.2215517
18	0x3de0ae7a	0.10970779
19	0x3e20613d	0.15662093
20	0xbd590c6c	-0.052990362
21	0x3d8539c2	0.06505157
22	0xbe27b422	-0.16377309
23	0xbe00e749	-0.12588228
24	0x3e1c408b	0.15258996
25	0x3d0bbd32	0.034115978
26	0x3dd28a90	0.10280335
27	0x3c91890f	0.01776555
28	0xbe2a87c0	-0.16653347
29	0x3e24a496	0.1607841
30	0x3e13b3c6	0.14424047
31	0x3e16aadc	0.14713615
32	0xbe86af59	-0.26305655
33	0xbee16e7f	-0.44029614
34	0xbd91accf	-0.07113039
35	0x3d6e726d	0.058214594
36	0xbe0a2931	-0.13492276
37	0xbdd86cc4	-0.105676204
38	0xbccccd39	-0.025000202
39	0xbe997cc3	-0.29977998
40	0x3c131d4d	0.008979154
41	0x3dbef571	0.09324158
42	0xbb86af87	-0.00411028
43	0xbe252005	-0.16125496
44	0x3e1f104f	0.15533565
45	0xbe66155c	-0.22469085
46	0xbe8f0b7d	-0.27938452
47	0xbdbca1c7	-0.09210544
48	0x3d99a0c8	0.0750137
49	0xbe6d0562	-0.23146585
50	0x3cf36aee	0.029714074
51	0x3dd46951	0.1037165
52	0x3dc56b80	0.096396446
53	0xbdb00179	-0.08594031
54	0xbd37031b	-0.044680696
55	0xbe2d733a	-0.16938487
56	0x3d28deb8	0.041228026
57	0xbdccc61d	-0.099987246
58	0xbd352021	-0.044220094
59	0x3e297db8	0.16551864
60	0xbdd89a2a	-0.105762795
61	0x3c32371c	0.010877397
62	0xbd5104fc	-0.051030144
63	0x3c27b002	0.010234835
64	0xbe9c4409	-0.30520657
65	0xbebae7b8	-0.36504912
66	0xbe82aa91	-0.25520757
67	0xbe0a9749	-0.13534273
68	0xbd919565	-0.07108573
69	0xbde4ba46	-0.11168341
70	0xbd0ccd49	-0.034375463
71	0xbd5f58c7	-0.054528024
72	0xbe2d45f2	-0.16921213
73	0xbd0e64f2	-0.034764238
74	0x3c2dd202	0.010609152
75	0x3e1c4db7	0.15264021
76	0x3df956c4	0.12174752
77	0xbc5e3a23	-0.013563666
78	0xbde6e48c	-0.112740606
79	0xbd3d77df	-0.046256896
80	0x3df93721	0.12168718
81	0xbd8497e0	-0.0647428
82	0xbe4279c9	-0.1899177
83	0xbd527292	-0.051378794
84	0xbc8406e2	-0.016116563
85	0x3ce58eac	0.028022133
86	0xbdaadea1	-0.08343244
87	0x3dbe5567	0.09293633
88	0xbd42eb98	-0.04758796
89	0xbdd815ea	-0.10551055
90	0x3e0b1d18	0.13585317
91	0x3d9db892	0.077012196
92	0xbe2979df	-0.16550396
93	0x3d9c8e4e	0.0764433
94	0xbdd74506	-0.10511212
95	0xbdc56c69	-0.09639818
96	0xbe2dd66e	-0.1697633
97	0xbecfc45c	-0.40579498
98	0xbe60b187	-0.21942721
99	0x3d0bf781	0.034171585
100	0xbe38a531	-0.18031766
101	0xbda7b482	-0.08188726
102	0xbd6c0861	-0.05762518
103	0xbd813a4c	-0.06309947
104	0xbe1fa14f	-0.15588878
105	0xbd58fb3c	-0.05297397
106	0xbe0ca89f	-0.13736199
107	0xbe0f4298	-0.13990247
108	0x3ceced0e	0.02892163
109	0xbdf00f50	-0.11721671
110	0xbe7eb25e	-0.24872729
111	0x3c8ad345	0.016946444
112	0x3e0c5e48	0.1370784
113	0xbe5d659f	-0.21620797
114	0xbe77e858	-0.24209726
115	0x3e081314	0.13288528
116	0xbe2b5372	-0.1673105
117	0xbe34921b	-0.1763386
118	0xbdb853b8	-0.09000343
119	0x3e2af46b	0.166948
120	0xbe141205	-0.14459999
121	0xbda6dd18	-0.08147639
122	0x3e127fca	0.1430656
123	0xbdece172	-0.11566438
124	0xbe19fd98	-0.15038145
125	0xbe335d58	-0.17516077
126	0xbe1b4eb7	-0.15166746
127	0xbe8aed13	-0.27133998
128	0xbe845d09	-0.2585223
129	0xbea9dec1	-0.3317776
130	0xbe6da132	-0.23206022
131	0xbe0acc5d	-0.13554521
132	0xbe2508de	-0.16116664
133	0xbe4189d8	-0.1890024
134	0xbe9946e3	-0.29936895
135	0xbe59b69f	-0.2126107
136	0x3d8f0c44	0.06984761
137	0xbe021c12	-0.1270602
138	0xbe501178	-0.20319164
139	0xbd376eac	-0.04478328
140	0xbde53a2a	-0.111927345
141	0xbe3d629e	-0.1849465
142	0xbe6d33e6	-0.23164329
143	0xbe81edc9	-0.25376728
144	0xbda1e768	-0.07905465
145	0xbdfac3a8	-0.1224435
146	0xbe2b1973	-0.16708927
147	0xbd96ea74	-0.07368937
148	0xbd860f5e	-0.065459
149	0x3e07ed3d	0.13274093
150	0x3d84d231	0.06485403
151	0xbcc6112b	-0.024178108
152	0x3d13fc02	0.036129005
153	0x3b20ec0a	0.0024554753
154	0x3db0e537	0.08637469
155	0xbe1a2772	-0.1505411
156	0xbe19e04e	-0.15026972
157	0xbe3c498c	-0.18387431
158	0x3d5445a5	0.05182423
159	0xbe1abb3e	-0.1511049
160	0x3dd5d4e5	0.10440997
161	0xbec88bde	-0.3916921
162	0x3e630f91	0.22173907
163	0xb9342f1a	-0.00017183684
164	0x3c2a1f9c	0.010383513
165	0x3e841832	0.2579971
166	0x3e2df011	0.1698611
167	0xbd160e02	-0.036634453
168	0x3c1f27ab	0.009714047
169	0x3ccf2497	0.025286002
170	0x3ee18228	0.44044614
171	0xbe07c3f7	-0.13258348
172	0x3cd08bf3	0.025457358
173	0x3e6f5227	0.23371182
174	0xbd0484a7	-0.03235307
175	0x3ebbf493	0.36710033
176	0xbd1a507c	-0.037674412
177	0x3e9f17c9	0.31072834
178	0x3e503de1	0.20336105
179	0xbdb2d2d8	-0.087316215
180	0xbc835189	-0.01603009
181	0x3de43f3d	0.11144874
182	0xbd73ef68	-0.059554487
183	0xbd8b6c68	-0.06807786
184	0xbd7476e0	-0.05968368
185	0x3e06b678	0.13155544
186	0xbd406b99	-0.046977613
187	0xbe146e5f	-0.14495228
188	0xbd9c1a3d	-0.07622192
189	0xbda1b929	-0.078966446
190	0xbdcb85b5	-0.09937612
191	0x3dc5edd4	0.09664503
192	0x3d97752c	0.07395396
193	0x3eb22043	0.3479024
194	0x3e313d70	0.17308593
195	0x3c7be0d5	0.015373428
196	0xbe095845	-0.13412578
197	0xbe913643	-0.2836171
198	0x3c4b932a	0.012425223
199	0x3e3158b6	0.17318997
200	0xbd4077b5	-0.04698916
201	0xbd92fb5f	-0.071768515
202	0xbf1010bd	-0.5627554
203	0x3e033ce3	0.12816195
204	0xbd9cef7b	-0.07662865
205	0x3bd9252e	0.0066267466
206	0x3d1e4f95	0.038650114
207	0xbf20171b	-0.62535256
208	0xbcd80be7	-0.026372863
209	0xbe22c222	-0.15894368
210	0x3d6158e1	0.055016402
211	0xbe36d8c2	-0.17856124
212	0x3ca9b025	0.020713875
213	0x3e2402e8	0.16016734
214	0x3c3fb11f	0.011699944
215	0x3d74e8d1	0.059792344
216	0x3dde72f6	0.10861771
217	0x3e1e0f06	0.15435418
218	0x3dd719cc	0.10502967
219	0x3d6db892	0.058037348
220	0x3d5cd7c7	0.05391672
221	0xbdf09b01	-0.11748315
222	0x3e0cfd51	0.13768508
223	0x3ddb6e25	0.10714368
224	0xbdaa075f	-0.08302187
225	0xbe83b9d2	-0.25727707
226	0xbe8a7973	-0.27045783
227	0x3dea967a	0.114544824
228	0x3e01956e	0.12654659
229	0xbe2bfad3	-0.167949
230	0xbe8b8b73	-0.2725483
231	0xbe8d16e2	-0.2755652
232	0xbd0befb5	-0.03416415
233	0xbd0484c0	-0.032353163
234	0x3c681e37	0.01416736
235	0xbe2e4aca	-0.17020717
236	0x3dca8373	0.09888353
237	0xbe6554a3	-0.22395568
238	0xbe691ad4	-0.2276414
239	0xbdd5c71a	-0.10438366
240	0x3bd5f09a	0.006528926
241	0xbc69d738	-0.014272504
242	0xbe966107	-0.293709
243	0xbcb0b32b	-0.021569809
244	0x3e13f03e	0.14447114
245	0xbe063925	-0.13107736
246	0xbe057ce7	-0.13035928
247	0x3c4737fd	0.012159345
248	0x3d92aab8	0.07161468
249	0x3e176af9	0.147869
250	0x3dad53f5	0.08463279
251	0x3de30e7c	0.11086747
252	0x3e14f1fa	0.14545432
253	0x3e175af2	0.14780787
254	0x3dc17975	0.09446994
255	0xbea0644d	-0.31326523

shared_layers.4.bias f4 [8]
0	0xbc9868c4	-0.018604644
1	0xbe352350	-0.17689252
2	0xbd5530ce	-0.052048497
3	0xbe00c20f	-0.12574027
4	0xbdb30be0	-0.08742499
5	0x3d10c372	0.03534264
6	0x3e17b771	0.14816071
7	0xbce3422e	-0.027741518
