training/models/4controller_controller_acc0.95_lat0.015_succ20_small5_large8_carb7_cap610_rate0.000269_best_model.pth (torch, 17025 bytes, 6 tensors)

shared_layers.0.weight f4 [64, 3]
00000000: 4a4a 64be 14ff c93d bf79 1a3e 9522 df3e
00000010: 6c4e d93e 915b 85bd d593 8dbe d476 6a3e
00000020: caa3 b1be 27c8 f43c 6ffb c8bc 2001 df3e
00000030: 2611 003f 5fa1 8a3e 78c5 513d e83c c5be
00000040: 97e4 743d 27d4 8ebe b8da f6be ec00 003f
00000050: 5364 40be 7868 e63e 69ae c63e 1d4d 2f3e
00000060: 2a4e b53d 1b86 84be e0bd c9be 35fe 80be
00000070: 42a7 6bbd 14f9 a13e 6bde e2be 47ab 1a3f
00000080: fd2d 65bc 8ec9 773e 8640 223f 7238 b6be
00000090: c7af 39be 344b 86be a97f e73e c7f1 5c3d
000000a0: a317 83bb 9f99 71be 2efc ddbe 4e97 b73d
000000b0: 5d33 05bf 09d0 a2be a204 aa3e adf6 84be
000000c0: d3e8 a7bc e24d 2fbd 0356 e9be 669d 193f
000000d0: f547 3a3e 5f48 a23e d75d 4dbe 6882 06bf
000000e0: 143f 013c 1a2c 213f ef6d b6be 09dc 7fbc
000000f0: d499 653e 22a0 be3e 1c08 e73e 3502 93be
00000100: f03f dd3e b09b 7e3e 1634 c8be 6f3c 5bbe
00000110: d26f a83e f3fc 203f fd47 1c3f 253d 4ab9
00000120: eff5 0dbf f821 f9be f948 ccbe 1009 54be
00000130: 03fe a0be 7ab9 e53e 3e44 c53e 717c 9dbe
00000140: d8b5 173f 0471 583e 1481 d7be 381b ce3e
00000150: e9f4 10bf f97a b8be ec09 95be 389c 83be
00000160: e043 e63d 89bf a6be 995e 333e bc20 d5be
00000170: 5da5 6cbd 84dd 90bd 6384 8cbb 1bbc 603e
00000180: e827 7abd c6e6 2c3d f4fa a03e f1eb 063f
00000190: 7a05 a5be 38c6 e33e d4de 8ebe 3e0e 993e
000001a0: d5f5 543d aec5 823d f70e c43e 9f00 42bd
000001b0: bbe9 a8be 2a98 ed3e 7a6a bcbe e3be fb3e
000001c0: c0d3 0fbe 1aff 103f 5013 86be 762b ef3e
000001d0: dcfd 193f 8a07 783d 306d 5cbe 8dd1 1b3f
000001e0: 72de 68bd 2f7f 86bd f611 ee3e 63d9 2d3e
000001f0: 7206 a9bc 60f2 1a3f 5bc8 96be 199e b3be
00000200: 53be 0c3f 0e57 263e e6d6 45be 003a 87be
00000210: aaae 043f 2599 5ebe 884f f03e e0f0 d23e
00000220: b8bc d23e 690c ddbe 591f 1e3e c9c0 e03e
00000230: 2c9d f53e 1271 febe ef44 413e 940f a5be
00000240: 0e29 1a3f 0e56 f6be 366c 04be cd73 08be
00000250: 1416 abbe 8cbc f73e 2f4c 773e e765 f43d
00000260: f259 9dbe b376 493b a6de c93e 624e d4bd
00000270: c560 84be cc41 e73e 67f5 69be aa59 2d3f
00000280: b5f6 153e b077 d43e 1478 07bf c6a2 f83d
00000290: af69 75be fb4a 95be 1f18 4bbc ea7c 01bf
000002a0: d0a4 1e3f 911b 133f 5b90 4a3e 7f8e b23e
000002b0: 3240 a8be c779 cd3e ceb8 96be 5586 ed3e
000002c0: b17e ddbe aa94 5fbe bae7 cfbe d68e ac3e
000002d0: 7f4a ac3e ec49 f03c f8a3 a93e b015 f13e
000002e0: fbb8 193d b9ea 953e 6188 95be d938 2c3d
000002f0: 6263 943e 0111 c63d d5dd 103f b8ac cf3e
-0.22293964 0.098631054 0.15085505 0.43581071 0.42442644 -0.065116055 -0.2765185 0.22896892
-0.34695274 0.029880596 -0.024533955 0.43555546 0.50026166 0.2707624 0.05121371 -0.3852303
0.059788313 -0.27896234 -0.48213744 0.50001407 -0.1878827 0.45001578 0.3880494 0.1711926
0.08852799 -0.25883564 -0.39402676 -0.25193945 -0.057532556 0.31635344 -0.44310316 0.604176
-0.013988015 0.24197981 0.63379705 -0.3558994 -0.1813346 -0.2622925 0.45214584 0.053941514
-0.0040006205 -0.23593758 -0.4335646 0.08964406 -0.520315 -0.31799343 0.3320666 -0.2596945
-0.020496761 -0.042798884 -0.45573434 0.60005796 0.18191512 0.3169584 -0.20055328 -0.52542734
0.007888574 0.6295792 -0.35630748 -0.015616425 0.22421962 0.37231547 0.45123374 -0.2871262
0.43212843 0.24864078 -0.39102238 -0.21409772 0.32897812 0.6288597 0.61047345 -0.00019287
-0.5545339 -0.4865873 -0.39899424 -0.20706582 -0.31443796 0.4486807 0.38528627 -0.30759004
0.59261847 0.21136862 -0.42090666 0.4025514 -0.56623703 -0.3603132 -0.29109132 -0.25705123
0.11243415 -0.32568005 0.17516555 -0.41626537 -0.05777489 -0.07073501 -0.0042882427 0.21946757
-0.061073214 0.04221227 0.31441462 0.5270377 -0.3223074 0.44487166 -0.2790438 0.29893678
0.051992256 0.06385361 0.38292667 -0.047363874 -0.32990822 0.46405154 -0.36799985 0.49169073
-0.1404562 0.56639254 -0.2618661 0.46712846 0.60152984 0.060554065 -0.21526027 0.60866624
-0.056852765 -0.06567227 0.46498078 0.16977458 -0.020632956 0.60526085 -0.29449734 -0.35081556
0.5497791 0.16244146 -0.19320258 -0.26411438 0.51829016 -0.21738108 0.46935678 0.41199398
0.41159606 -0.4317353 0.15441646 0.43897083 0.47971475 -0.4969564 0.18873952 -0.32238448
0.60218894 -0.4811253 -0.12931904 -0.13325424 -0.33415282 0.48386037 0.24150155 0.11933499
-0.30732685 0.0030740916 0.3942768 -0.10366513 -0.2585508 0.45167387 -0.2284752 0.6771494
0.14644893 0.41497564 -0.529176 0.121404216 -0.23966096 -0.29158768 -0.012395888 -0.5058123
0.61970234 0.5746394 0.1978163 0.3487434 -0.32861477 0.4013197 -0.2943787 0.4639155
-0.4326072 -0.21834055 -0.4060648 0.33702725 0.33650586 0.029332124 0.3313291 0.4708686
0.037529927 0.29280642 -0.2920561 0.0420464 0.28982073 0.09671212 0.5658849 0.4056146

shared_layers.0.bias f4 [64]
00000000: 3c7e cd3e 8ed5 8f3e 732c c83e 4457 c3be
00000010: 72c2 2c3e f481 75be ae96 ffbe 3f47 813e
00000020: 1f19 1a3f 7d0a 21be 45bb 9a3e e8fc d43e
00000030: 2722 c63e 300a 75bd a1e5 b8be 9d05 03be
00000040: 56c3 913e 53e8 ba3e 0b55 8abe 3c41 b73e
00000050: bd60 1b3f dcab 94be 3d4f 163b 0d85 ebbe
00000060: c73b cfbd 174d 5fbe 8673 f03d b6c3 993e
00000070: d7ff 1cbe 908d 133f 9f30 94be c1c4 c4be
00000080: 8bde febe ad18 f53e eae7 bf3e 9c15 563e
00000090: 123f cebe 5d93 e4bd fac7 6f3e b54f a63e
000000a0: a7a8 5dbd 44e3 ba3e cae7 12bf 27ed ed3e
000000b0: ceec be3d 0996 173f cd64 d03e 54be 323e
000000c0: 9a88 623e c5dd 29be 1759 013f 8f6b fbbe
000000d0: 077b 173f 568e 5ebd da7f 11bf e587 343e
000000e0: 42cf b4be 6aff bebe 0afd f63e 8a63 98be
000000f0: 81ba 0b3e 3821 0f3f 04bb bdbe 4dc3 213f
0.40135372 0.28092617 0.39096412 -0.38152516 0.1687105 -0.23975354 -0.49919647 0.2524967
0.6019458 -0.15726657 0.30221 0.41599202 0.3869793 -0.05982417 -0.36112693 -0.1279511
0.28469342 0.36505374 -0.27018008 0.35791957 0.60694486 -0.29037368 0.0022935413 -0.45999947
-0.101188235 -0.21806751 0.11740784 0.30032128 -0.1533197 0.5763788 -0.28943345 -0.3843136
-0.49779162 0.4787039 0.37481624 0.20906681 -0.40282494 -0.1116092 0.23416129 0.32482687
-0.054115918 0.36501515 -0.5738493 0.46469995 0.09322511 0.5921331 0.40701905 0.17455417
0.22122422 -0.16588505 0.50526565 -0.49105498 0.591721 -0.05433496 -0.5683571 0.17629965
-0.35314375 -0.3730424 0.48239928 -0.29763442 0.13645364 0.5591006 -0.37056744 0.6318863

shared_layers.2.weight f4 [32, 64]
00000000: 60cf 9a3c 22fb a5bd 7c99 3a3d 687a 2bbd
00000010: 4c44 08bd ceb0 af3d 0cfb 183d c09e f8bc
00000020: 1c7c 71bd 92e3 a7bd ead6 813d 009c a03d
00000030: 5c80 1d3d 10d7 693d d83b 4a3d 2464 84bd
00000040: 34d7 6fbd e86d ec3d 80c8 09bd a888 e1bd
00000050: 8a9c acbd 30ca 03bc 78b1 e73d 7c74 eb3d
00000060: f0c9 11bc 4078 cbbb ea82 f0bd 1820 c0bc
00000070: 30b8 333d f276 b3bd b052 5ebd 24f3 a93d
00000080: f8fb 493d e836 873d b49e e2bd 8495 07bd
00000090: bccf 173d c249 dcbd 5efd fe3d 3484 b6bd
000000a0: b0fc b93c 907b 40bd aa40 bcbd 5e13 a8bd
000000b0: 9a79 a5bd e06c cdbd a61a 92bd 30ed a33d
000000c0: a0f4 df3b 1ef6 b4bd 64c7 fb3d 4033 21bb
000000d0: ceba eb3d fa7e babd 08f8 5e3d 8036 9bbb
000000e0: 7052 6a3d 80e8 1a3b a6d5 ebbd 24df 3c3d
000000f0: 6c72 6ebd 2ab1 ca3d 8c5c 683d b082 ef3c
00000100: 7b0c f93c f04c a3bd 6257 9cbc 7003 45bd
00000110: ead2 d1bc a0ab 6abd 24d2 353d 0b61 6e3d
00000120: fb73 123d 687e 27bd fd8c 8cbd 3e34 163c
00000130: 8d85 8f3d 5438 08bd 446b b6bd 8028 7fbc
00000140: 7365 6fbc f86e 603d 2e21 ce3d 8850 6bbd
00000150: 338a dcbd 085f ebbd 00e2 bfba 7f21 773d
00000160: 6273 ca3d 423b c83d fa91 c23d 04e1 503d
00000170: a8b7 b8bc 3569 a43d f0a0 39bd c6f5 a73d
00000180: 14b0 cabd 674e 983d 2006 c2bd 7e2a 3d3d
00000190: f690 da3d c0b8 b2bc 10b0 c73d 432b ad3c
000001a0: 7e74 ba3d b489 64bd 0857 efbc 1460 a3bd
000001b0: 4fdd ab3d 7081 c1bd c950 733d 08d4 c03d
000001c0: 80d9 edbd 281e 6e3d 8895 e4bd f880 efbc
000001d0: a238 6ebd 8263 893d 2073 02bc d001 02bd
000001e0: 9794 f43c ea1a c03d c50e b9bd 4e9a f23d
000001f0: 3611 393d fe21 673d b8d5 96bd 5308 fb3c
00000200: 40b6 43bd 2862 b4bb f3eb f3bd 4057 4b3d
00000210: 9848 93bd 4444 dbbd b619 d83d 0499 8b3d
00000220: 9f93 063c f822 97bd 7797 5c3d b95b 88bd
00000230: 848d 8e3d c035 33bd c843 413d c024 dfbc
00000240: bcfd 34bd efce 9e3d b28b ffbd 86ea 553c
00000250: a680 c63d 985a db3d 603e b9bd f8bf 0cbd
00000260: 7835 d73c aea8 f1bd f7f2 60bb cb4f 93bc
00000270: 9273 e53d c9c0 cc3d 5871 af3c 286c 263d
00000280: 9ef3 d9bd 6e99 febd 353b 9e3d 122b 803c
00000290: c04d 94bc f6c6 e0bd 1c8f 7abd e28f fabb
000002a0: f010 b3bd 9934 76bd 50cf 93bd 7819 4dbc
000002b0: 90ac a8bc 06ca e23c 5e91 c2bd 80bb 99bd
000002c0: a242 17be 8217 f83d 6350 333d fca0 8dbd
000002d0: dde1 6dbd 6f87 873d 005c d0bc 6cad 76bd
000002e0: a289 51bd 105e 8abd 9978 87bd 124c 913d
000002f0: e7e2 a63d 4ddd 29bd c0e2 cebb 5201 d3bd
00000300: 1496 e33d f1e9 ed3d affd c53d ae6d b93d
00000310: 8636 01bd 00e2 273b e817 4ebd 5db2 4e3e
00000320: 1c11 2d3e 0862 87bc 673a 673e 34a9 8e3d
00000330: 6252 4dbd ce00 d5bd 6010 ac3d 3099 a03d
00000340: 13c6 813d f37f 31bc 98d4 c2bd 7a91 513d
00000350: 94ce de3d b0fd e9bd 9e30 ee3d e668 603e
00000360: 607c c7bc f0ff 10bc 297d e33d fb2f 893e
00000370: 2019 ba3b 0bc6 503e 64d9 f93d a8c2 1f3d
00000380: 44a0 80bd 8cdf 0a3d b473 653d 386d 2e3e
00000390: 0697 ea3d a06b 203e bd94 0d3d db7c 573e
000003a0: 3ce0 75bd 7a96 cf3d 3c38 4bbd aee3 173e
000003b0: a1df 273e ea84 de3d 9b38 543e 44ca c2bd
000003c0: 8b3f 353e 1654 c33d 8903 e93d 78c9 aebc
000003d0: 59ee 543e a82e e23d 90bf a2bc eebb c3bd
000003e0: e8d6 203e aa9a 973d 9922 823c 741e 50bd
000003f0: 85ab e9bb 9a55 573e d0b7 473d ffbe 043e
0.018897712 -0.081045404 0.04555653 -0.041864783 -0.033268258 0.08578645 0.037348792 -0.030349135
-0.05895625 -0.081977025 0.0633982 0.07842255 0.03845249 0.057089865 0.049373478 -0.06464413
-0.058554843 0.115444005 -0.033638477 -0.11012393 -0.08428295 -0.008043811 0.11313146 0.11496827
-0.008898243 -0.0062094033 -0.1174372 -0.023452803 0.043876827 -0.087629214 -0.054278076 0.082983285
0.04931256 0.066022694 -0.110654265 -0.033101574 0.037063345 -0.10756256 0.1245067 -0.089119345
0.022703499 -0.04699284 -0.09192021 -0.08206819 -0.08079834 -0.10030532 -0.07133989 0.08004224
0.0068345815 -0.08836006 0.1229389 -0.0024597198 0.115102395 -0.0910625 0.05443576 -0.0047367215
0.057207525 0.0023637116 -0.115153596 0.04611124 -0.05821459 0.098970726 0.056728885 0.029237121
0.030401459 -0.07973659 -0.019084636 -0.04809898 -0.025613267 -0.05729258 0.04438986 0.058198016
0.03575514 -0.040892035 -0.06862829 0.009167729 0.07007895 -0.033256844 -0.08907178 -0.015573621
-0.01461159 0.054793328 0.10064922 -0.057449847 -0.10768547 -0.11492735 -0.0014639497 0.06033468
0.09885289 0.097769275 0.09500499 0.05099584 -0.022548512 0.08027879 -0.045319498 0.082011744
-0.098968655 0.07436829 -0.094738245 0.0461831 0.1067218 -0.021816611 0.09750378 0.021138793
0.0910425 -0.055795386 -0.029216304 -0.0797731 0.08391821 -0.09448516 0.059403215 0.09415442
-0.116137505 0.058134228 -0.11161333 -0.029236302 -0.058159478 0.06708433 -0.007962018 -0.03174001
0.02985601 0.093801335 -0.0903602 0.118458375 0.04518243 0.0564289 -0.07364982 0.030643618
-0.04778123 -0.005504865 -0.11910238 0.049643755 -0.071915805 -0.1070638 0.10551779 0.06816295
0.008213907 -0.07379717 0.053855386 -0.0665812 0.06960586 -0.043752432 0.04718378 -0.027239203
-0.044187292 0.07754313 -0.12477817 0.013056403 0.096925065 0.10710639 -0.090451 -0.034362763
0.026270613 -0.11799751 -0.0034324506 -0.017982384 0.11203684 0.09997708 0.021416351 0.04063049
-0.106421694 -0.12431608 0.077261366 0.015645538 -0.01810348 -0.10975449 -0.061171636 -0.0076465467
-0.08743465 -0.060108755 -0.07217276 -0.012518279 -0.020590097 0.027684223 -0.09500383 -0.07506466
-0.14771512 0.12113859 0.043777835 -0.06915471 -0.058076728 0.06617629 -0.025434494 -0.06022398
-0.051156648 -0.06756222 -0.06614799 0.070945874 0.08148747 -0.041470814 -0.006313652 -0.10302986
0.111126095 0.116168864 0.09667527 0.09054123 -0.03154614 0.0025616884 -0.050315768 0.20185228
0.16901058 -0.016526237 0.22580872 0.06965867 -0.050127394 -0.10400544 0.08401561 0.07841718
0.06336608 -0.010833728 -0.09513205 0.051164128 0.108792454 -0.1142534 0.11630367 0.21915016
-0.024351299 -0.008850083 0.11107857 0.2679442 0.0056792647 0.20388047 0.12199667 0.039003998
-0.06280568 0.033904597 0.056018546 0.17033851 0.11454587 0.15666056 0.034565676 0.21043722
-0.0600283 0.10136123 -0.049614176 0.14832947 0.16393901 0.10865195 0.20724718 -0.09511235
0.17700021 0.095375225 0.113776274 -0.021336302 0.20794047 0.11044055 -0.019866735 -0.09557329
0.1570698 0.07402547 0.015885638 -0.050810292 -0.0071310424 0.21028748 0.04875928 0.12963484

shared_layers.2.bias f4 [32]
00000000: b45c fcbd 3894 cb3c a764 11bc 9a16 c23d
00000010: d02c 063c c07a dd3d b6ac 203e 1f53 463e
00000020: 7720 6c3b 96d4 a9bd 2c54 f2bd af60 aebd
00000030: a62a 60bc f671 dcbd 35e5 823d bcd6 473d
00000040: 4676 3e3d 3e7b ab3d 460e 1b3e 882a ce3d
00000050: 35fd d73d e014 ca3d 6e07 303d 17e1 773d
00000060: 28e6 91ba af0f 773d 001b 48bd 708e babd
00000070: 7380 3d3e 02d7 383e 6978 c93d 10d8 7ebc
-0.12322369 0.02485095 -0.008874095 0.09476967 0.008189395 0.10814428 0.15690884 0.19367646
0.0036030093 -0.08292501 -0.11832461 -0.08514535 -0.013682043 -0.10763924 0.06391374 0.04878877
0.046499513 0.08373116 0.15142164 0.10066706 0.10546342 0.09867263 0.042975836 0.060517397
-0.0011131214 0.06031769 -0.048853874 -0.09109199 0.1850603 0.18050769 0.098374195 -0.015554443

shared_layers.4.weight f4 [8, 32]
00000000: 9d67 13be 3ec4 9d3c 7454 5a3d 7e4b fbbd
00000010: f314 123e 67c2 ac3d b4b0 6e3c a250 93be
00000020: e715 223e ff60 a23c 97c3 1c3e b182 81bd
00000030: bf47 073e 636b c73c 59bc b0be 5fbf 72ba
00000040: a840 ef3d 02bf 523c b3bb 4a3d 96b3 d6bb
00000050: 317f eb3d 8b9f aa3d 3687 79be 8ad1 e33c
00000060: df3f a2bd d046 65be dff6 2cbd 563b c93d
00000070: 4074 85be c6c6 5f3c 9381 a43c 6985 1abe
00000080: 4774 123e c0e4 b2bd b057 18be 9d1c cebd
00000090: 30a1 09bc 7e5f 0d3e 76fe 8dbd 9da1 98be
000000a0: db74 e23d 6039 303e d428 69bc e469 6f3d
000000b0: f7d9 29be 55fd a43d 2d61 4fbe 5b6c e5bd
000000c0: 6ad4 11be ebcc 0f3e c937 5fbc 324e b3bc
000000d0: 4c61 9dbd 12cd 02be 7b0d 0ebe ac1c 09be
000000e0: 1ea7 08be ffd2 72be fda8 373d 651f 213e
000000f0: 8202 52bd 35f6 91bc ca7b 0ebe 85b8 21be
00000100: d9c1 ca3d e317 babc 04ba 2dbe 915f d3bb
00000110: 76a3 d9bc 97b5 d7bc 26f0 7bbe e23f 89be
00000120: 50eb d03d ed2e 32bd 1801 0d3c 2a6e 9fbc
00000130: 11b6 843d f300 31bd 22fb d0bd 2c4c b03d
00000140: f6f2 903d a8a6 243d 3eb9 76be 4c68 f3bd
00000150: a1b9 7b3d 048b 05be e984 8cbe 57af 3e3d
00000160: 7aa6 37be 4b75 0bbe 63f5 0d3e daf8 babd
00000170: 3c9f 2abe 623e b9bc 244f fc3d 6aa9 d33c
00000180: 009c dc3c 6d67 1f3e 7d55 73bd 7eed cebd
00000190: 384d bb3d f628 bf3c 32bd ee3a e03f 0abd
000001a0: 6dd3 05be c7db ce3d 4eea 983d 8a8a 0bbe
000001b0: fc08 0cbc 85fc 073e a2a6 c0be 12f4 173e
000001c0: 32e4 e93d be13 b73b fec7 6bbe 9a3d 24be
000001d0: eb27 3c3c 04f3 2a3c d94b 57be aa8e 0c3e
000001e0: b0b2 df3c 939e 8ebe 547d 603d bd94 b43c
000001f0: c269 9fbd b690 39be 7d68 06bc bec0 e33d
00000200: 8a60 3e3d 79b0 c3bd 573b 953d 8987 26be
00000210: 48c5 223e f602 f4bd d7ce 3ebc 058b f7bd
00000220: 4dfd d93b 75c0 27be aa59 233e 21b6 343d
00000230: acc2 6dbd 8b51 8cbd 04a3 8fbe 8edd 5d3d
00000240: 1ae1 de3d 7d0e dcbd 2c0c 25bd f3c3 04be
00000250: 6445 c03d 302a 5e3d 9206 16be fa03 a63d
00000260: 7d48 82be f3ab 8bbe 03b9 06be 9f3b 803d
00000270: 06c4 bbbc 8a10 efbd 3684 2ebe 3f71 6c3d
00000280: b0f2 023e 81ad fdbd c2b1 98bd d512 423e
00000290: 516e b83c c05b 1ebe 3a02 ef3d 3826 153e
000002a0: 710a 9dbd f6ef 66bd 5fa9 293e 8e5c 19be
000002b0: 58aa 9bbd 8d59 69bd ab19 2d3c 16a9 2fbe
000002c0: fed7 933c 7fcf 9fbd 7da0 5d3e e9c3 f53d
000002d0: 58a4 a5bd 13d3 b0bc 4a11 3d3e f9c2 b0bd
000002e0: 3840 4b3e cd3b 433e 38ff 53bd 25be 9e3d
000002f0: 6959 5f3d cf30 16bb 1e33 9cbd 4a2f 273e
00000300: c425 84bd de8e 2ebe 5afd 9d3d b31c 3b3c
00000310: 8b37 d4bd 395c 143e 8fb3 2fbd e25f c8bd
00000320: 19a9 2a3d eac6 ec3d 4b97 debd f753 e93d
00000330: 0628 023e 2837 1bbe 9d5b e73d 69e5 83bd
00000340: be02 323d 88b7 2d3e 2686 463d cf62 46be
00000350: 9d9c fbbd 89ad 01be 8b7a 23be 221c 1abe
00000360: 04f8 233c e1a0 12be 2fa4 323e a06f 9b3d
00000370: 5194 fd3d 0d20 13be 5b65 d93d 8abd 04be
00000380: fe9c 00be 9262 233d 919a 9abd a88e 6ebe
00000390: 4b7e 9c3d 89d6 da3d c9e5 74be 35df 8cbe
000003a0: 94ce d83d 8fdf fcbd ca06 f5bd 9d69 83bd
000003b0: 5ead 1abe caf5 aa3d 38e9 b3be b723 253e
000003c0: b464 f83d 24ea 893d ff71 80be f02c 2abe
000003d0: c1e9 21be d395 0ebd 1cf0 b6bd b254 143d
000003e0: 374c 97b9 68d9 91be 57b0 c93d d078 1bbe
000003f0: bf9f 5fbe 2f0b 72be 926f a8bd 14b1 2d3e
-0.14394994 0.019258615 0.053303197 -0.12270258 0.14265804 0.08435517 0.0145684965 -0.28772455
0.15828668 0.019821642 0.15308987 -0.063237555 0.13210963 0.024343198 -0.34518698 -0.0009260084
0.11682254 0.012862923 0.04949541 -0.00655217 0.11498869 0.08331212 -0.24367985 0.027809877
-0.07922339 -0.22390294 -0.042227622 0.098257706 -0.26065254 0.013658231 0.020081317 -0.15089954
0.14302169 -0.08735037 -0.148772 -0.10064051 -0.0084002465 0.13805959 -0.069333 -0.298108
0.11057445 0.17209387 -0.014230926 0.058450595 -0.16587053 0.08056132 -0.20251913 -0.11202308
-0.14241186 0.14043014 -0.01362414 -0.021887872 -0.076845735 -0.1277354 -0.1387233 -0.13389844
-0.13345 -0.23713301 0.044838894 0.15734632 -0.051271923 -0.017817596 -0.1391441 -0.15793045
0.09900255 -0.022716468 -0.1696549 -0.0064506014 -0.026567202 -0.026331706 -0.24603328 -0.2680655
0.10201132 -0.043501783 0.008606218 -0.01946171 0.06480039 -0.043213796 -0.1020415 0.08608279
0.07077591 0.040198 -0.24094102 -0.118851274 0.061456326 -0.13041312 -0.27445152 0.046553936
-0.179346 -0.13618962 0.13863139 -0.09129496 -0.16662306 -0.022612754 0.123197824 0.025837619
0.026929855 0.15566798 -0.0594077 -0.10103892 0.09145588 0.023334961 0.0018214344 -0.033752322
-0.13068934 0.10100513 0.07466565 -0.13627067 -0.008547064 0.13279922 -0.3762713 0.14839199
0.11420478 0.0055870702 -0.2302551 -0.16039124 0.011484127 0.010433916 -0.21025027 0.13726297
0.027306885 -0.27855358 0.054807022 0.02204358 -0.077838436 -0.18121609 -0.008203623 0.11120747
0.046478786 -0.09555144 0.07286709 -0.1626264 0.1589557 -0.11914627 -0.011645994 -0.12087063
0.0066525103 -0.1638201 0.15952173 0.044119004 -0.05804698 -0.068514906 -0.2805406 0.05416637
0.108827785 -0.10744951 -0.04029481 -0.12965374 0.09388235 0.054239452 -0.14650944 0.08106227
-0.2544593 -0.27279624 -0.13156514 0.06261372 -0.02292062 -0.116730765 -0.17042622 0.057725187
0.1278789 -0.12386609 -0.074557796 0.18952496 0.02251354 -0.15464687 0.116703466 0.1456536
-0.07668007 -0.05638119 0.16568516 -0.14976713 -0.0760085 -0.056970168 0.010565202 -0.17154345
0.018047329 -0.078032486 0.21643253 0.120002575 -0.08087987 -0.021585023 0.18463627 -0.08630938
0.19848716 0.19065781 -0.051757067 0.07751111 0.054528628 -0.0022917276 -0.07626937 0.16326633
-0.06452516 -0.17046687 0.077143386 0.011420417 -0.103621565 0.14488305 -0.04289585 -0.09783913
0.04166517 0.11561377 -0.108687006 0.11392968 0.1271058 -0.15157759 0.11296771 -0.06440241
0.043459646 0.16964543 0.048467778 -0.1937363 -0.12285731 -0.12663855 -0.15964715 -0.15049794
0.010007862 -0.14319183 0.17445444 0.0758965 0.12381805 -0.14367695 0.10615035 -0.12962928
-0.12559888 0.039888926 -0.075490125 -0.23296607 0.07641276 0.106854506 -0.23915781 -0.27514043
0.10586277 -0.12347328 -0.119641855 -0.064166285 -0.15105197 0.08347662 -0.3513887 0.16126905
0.121285826 0.06734112 -0.25086972 -0.16618705 -0.15811826 -0.034810852 -0.08932516 0.036213584
-0.0002885775 -0.2848618 0.09848087 -0.15182805 -0.21838282 -0.23637079 -0.08224405 0.16962081

shared_layers.4.bias f4 [8]
00000000: 8671 c33d ba7b 36be e7dc 21be 3ce5 02be
00000010: abb6 bdbb e19a b73c 8de3 41be 6d7f d33d
0.09543137 -0.17820635 -0.15806924 -0.12782758 -0.005789598 0.02241272 -0.1893446 0.10327039
