training/models/5controller_controller_acc0.819_lat0.006_succ5_small7_large10_carb15_cap105_rate0.001598_best_model.pth (torch, 17049 bytes, 6 tensors)

shared_layers.0.weight f4 [64, 3]
0	0xbefbaed8	-0.49156833
1	0x3eec700a	0.4617923
2	0xbece2851	-0.40265134
3	0x3c7b41c6	0.015335506
4	0x3e123fd6	0.14282164
5	0x3eb90b1e	0.36141294
6	0x3e6a11a2	0.22858289
7	0x3eab761b	0.33488545
8	0x3d8112b0	0.063023925
9	0x3e93de87	0.28880712
10	0x3e11df2a	0.14245287
11	0x3ea7579e	0.32684034
12	0xbf138790	-0.57628727
13	0xbd918611	-0.07105649
14	0x3bb657ec	0.0055646803
15	0xbed0929b	-0.4073685
16	0xbe97f649	-0.29680088
17	0xbeeb59e0	-0.45967007
18	0xbe8f79fa	-0.28022748
19	0x3e947b1c	0.29000175
20	0x3e7fc791	0.24978472
21	0x3ea3f21e	0.32020658
22	0x3e127463	0.1430221
23	0x3ee959f9	0.45576456
24	0x3e870230	0.26368856
25	0xbd249b8e	-0.04018741
26	0xbed4ce2c	-0.41563547
27	0x3f163e69	0.5868898
28	0xbd60fd03	-0.05492879
29	0x3ed19c35	0.4093949
30	0xbec88f90	-0.3917203
31	0x3e9a588e	0.30145687
32	0xbf01f10e	-0.50758445
33	0x3ac1aed7	0.0014776838
34	0xbd7cc29a	-0.061709024
35	0x3daca26e	0.084294185
36	0x3ee21391	0.44155553
37	0x3e6fbdf9	0.23412313
38	0xbef57739	-0.47942522
39	0x3ed3eec0	0.4139309
40	0xbdc0127b	-0.09378525
41	0xbec38f1c	-0.3819512
42	0x3e9c46b5	0.30522695
43	0xbdd07f33	-0.10180511
44	0xbeba3415	-0.3636786
45	0x3cefe3c6	0.029283416
46	0x3eac5d06	0.3366472
47	0x3d40f46c	0.0471081
48	0xbe430fac	-0.19048947
49	0x3e2db8ad	0.1696498
50	0xbdabd4b7	-0.083901815
51	0xbd140249	-0.03613499
52	0x3e7af83c	0.24508756
53	0x3db1026b	0.08643039
54	0x3e4a003c	0.19726652
55	0x3e6210f8	0.22076786
56	0xbdd08acc	-0.101827234
57	0xbe7265ea	-0.2367169
58	0x3dc78366	0.09741859
59	0xbe7d9be7	-0.24766503
60	0x3f05c670	0.52255917
61	0x3ef9c46f	0.4878268
62	0xbd398802	-0.045295723
63	0x3d6a71b0	0.057237327
64	0x3f14e793	0.58165854
65	0xbed2d082	-0.41174704
66	0xbc3fafcf	-0.011699631
67	0x3f28cf39	0.65941197
68	0x3d72384b	0.059135716
69	0x3df5c7b0	0.12000978
70	0x3cac9f58	0.021072075
71	0xbefd8ef6	-0.49523133
72	0x3f1a8136	0.6035341
73	0xbdc76a16	-0.09737031
74	0x3e921c6a	0.28537303
75	0x3f15ca27	0.58511585
76	0xbd6fdff2	-0.05856318
77	0xbec1532e	-0.37758774
78	0xbef6e8d7	-0.48224518
79	0x3db8cf0a	0.090238646
80	0x3e5b5473	0.21418934
81	0xbe89f722	-0.2694636
82	0xbe8bf1f4	-0.27333033
83	0xbe1e20ae	-0.15442154
84	0x3e93ddf6	0.2888028
85	0x3c9c7313	0.01909784
86	0xbdba2998	-0.09089965
87	0x3e0cd046	0.13751325
88	0xbbc3a784	-0.005970897
89	0x3f0fcd7b	0.56172913
90	0x3e525d89	0.20543493
91	0x3e76152d	0.24031515
92	0xbec1f1f7	-0.37879917
93	0x3d7852e0	0.06062591
94	0x3e78ff41	0.24316122
95	0x3eaf56fe	0.34246057
96	0x3f07e04d	0.5307663
97	0xbe9edb93	-0.31026897
98	0xbee1912b	-0.44056067
99	0x3f0ed4d2	0.5579349
100	0x3ef20161	0.47266677
101	0xbec38a93	-0.3819166
102	0x3d89e038	0.067322195
103	0x3ea0d8a7	0.31415293
104	0x3ea8c0be	0.3295955
105	0x3ee479bb	0.44624123
106	0x3e5d36e0	0.21602964
107	0xbec5401c	-0.38525474
108	0xbecd61d6	-0.40113705
109	0xbeb1afb2	-0.34704357
110	0x3cbfc720	0.02341038
111	0xbde64374	-0.112433344
112	0xbe2eff62	-0.17089608
113	0x3e8b43b4	0.2720009
114	0xbebe5467	-0.3717377
115	0xbe4e1a90	-0.2012732
116	0x3e38496b	0.17996757
117	0x3e97fc20	0.29684544
118	0xbe8703fb	-0.26370224
119	0xbde0bb6f	-0.1097325
120	0xbe3a2e2e	-0.18181679
121	0x3ed33f22	0.41259104
122	0xbef94fe7	-0.48693773
123	0xbdb28066	-0.08715896
124	0x3edb3a25	0.42817798
125	0xbeb57622	-0.3544169
126	0x3e1c10f2	0.15240839
127	0x3ead13ca	0.3380416
128	0xbee79171	-0.4522815
129	0xbdf1ecfb	-0.118127786
130	0x3b1d6406	0.0024015917
131	0x3e46fc59	0.194322
132	0xbe3ebcf7	-0.18626772
133	0xbefba23c	-0.49147213
134	0x3e120584	0.14259917
135	0x3e8a0d35	0.269632
136	0x3f1c62db	0.6108834
137	0x3f13e7d2	0.57775605
138	0xbdd85ff5	-0.10565177
139	0xbf0c59e8	-0.54824686
140	0xbeda328c	-0.4261669
141	0xbe9adf13	-0.30248317
142	0x3e7eb5d3	0.24874048
143	0x3ed5cf6b	0.4175981
144	0x3e090cf7	0.13383852
145	0x3f05475f	0.5206203
146	0xbecbc511	-0.39798787
147	0x3ebca473	0.36844215
148	0x3f08b1a3	0.5339605
149	0xbe8a7c05	-0.27047744
150	0x3f0b70df	0.544691
151	0xbe806406	-0.25076312
152	0x3f2059c2	0.6263696
153	0x3f0f50d2	0.55982697
154	0x3e9a0541	0.30082133
155	0x3f105aff	0.5638885
156	0x3eee3cf4	0.4653088
157	0x3f0de0b5	0.55421
158	0x3db53ab0	0.088490844
159	0x3eea3e22	0.4575053
160	0xbefcebc2	-0.4939862
161	0x3ebcc01a	0.36865312
162	0xbedd96c4	-0.43279088
163	0x3e47d408	0.19514477
164	0x3f0da26d	0.5532597
165	0xbed0622e	-0.40699905
166	0xbd40daf4	-0.04708381
167	0x3ed566d9	0.4168003
168	0x3e477f93	0.1948226
169	0x3e3460ff	0.17615126
170	0x3e9cf9cb	0.30659327
171	0x3f09288b	0.5357749
172	0x3e734941	0.23758413
173	0x3ee66084	0.4499551
174	0xbf0073f1	-0.5017691
175	0xbf008fb6	-0.50219285
176	0x3f031b90	0.5121393
177	0xbeab9355	-0.33510843
178	0x3f26a565	0.6509612
179	0x3f11be09	0.56930596
180	0x3f32011e	0.69532955
181	0xbee03b55	-0.43795267
182	0xbd2d1266	-0.042253874
183	0xbe61fb38	-0.22068489
184	0xbdfcfdb5	-0.12353078
185	0xbe084987	-0.13309298
186	0x3deb4c4a	0.1148916
187	0xbc476872	-0.012170898
188	0xbd98a634	-0.07453576
189	0x3ef5fe42	0.48045546
190	0x3ddce276	0.107853815
191	0xbd82cece	-0.06387101

shared_layers.0.bias f4 [64]
0	0xbe1636c6	-0.14669332
1	0x3e167cde	0.1469607
2	0x3eeb5db2	0.4596992
3	0x3f205c5d	0.62640935
4	0x3d9722ce	0.07379685
5	0x3e7d0c78	0.24711788
6	0xbeeb37b1	-0.45940927
7	0xbee6935a	-0.45034295
8	0x3e9d5d35	0.30735174
9	0x3f2399eb	0.63906735
10	0x3f1fb261	0.6238156
11	0xbed4a6aa	-0.41533405
12	0xbe69eb5a	-0.22843686
13	0x3ef74981	0.48298267
14	0x3ebe14c5	0.3712522
15	0x3eea6a84	0.4578439
16	0xbeea6d4e	-0.45786518
17	0x3e2595fb	0.16170494
18	0x3e8120ba	0.2522028
19	0xbde34dcc	-0.11098823
20	0x3cc96a39	0.024586784
21	0x3eeaa503	0.4582902
22	0x3ae89383	0.0017744157
23	0xbe15f909	-0.1464578
24	0x3c338f72	0.010959493
25	0x3f06c47d	0.5264357
26	0xbf11daf5	-0.56974727
27	0x3dff6169	0.124697514
28	0xbed5e20a	-0.41774017
29	0x3f18c264	0.59671617
30	0xbed7d292	-0.4215284
31	0x3f159328	0.5842767
32	0x3eb9833e	0.36232942
33	0xbe23f6af	-0.16012071
34	0x3ee4857c	0.4463309
35	0x3e26f01e	0.16302535
36	0xbf013c3b	-0.5048253
37	0x3f0d4165	0.5517791
38	0x3c61c3a6	0.013779556
39	0x3ea4d801	0.32196048
40	0x3ef894d7	0.48551056
41	0x3e81c811	0.2534795
42	0xbee3e65d	-0.4451169
43	0x3f24148d	0.6409386
44	0xbef9a49d	-0.48758402
45	0x3f2eb1e8	0.68240213
46	0x3c98aa92	0.018636022
47	0x3ebdcf0f	0.37072036
48	0x3f11c67a	0.56943476
49	0x3f146159	0.5796104
50	0x3f282544	0.6568186
51	0xbe486726	-0.19570598
52	0x3f01d3c7	0.5071377
53	0xbeb5edc3	-0.3553296
54	0x3cfc3969	0.030789094
55	0xbece0c1c	-0.40243614
56	0x3f01f048	0.50757265
57	0x3f0c9de5	0.5492843
58	0x3d251383	0.04030181
59	0x3ddd1fe6	0.107971
60	0xbdba5298	-0.09097785
61	0x3db31c4b	0.08745631
62	0xbeb4fdaf	-0.35349795
63	0x3e09ae50	0.13445401

shared_layers.2.weight f4 [32, 64]
0	0xbdae04b8	-0.08496994
1	0xbdc4f590	-0.0961715
2	0xbc1a4a60	-0.009417146
3	0xbd2dc758	-0.042426437
4	0x3d91654c	0.07099399
5	0xbd2b1ba0	-0.041774392
6	0x3de3a37c	0.111151665
7	0x3b7ee940	0.0038896352
8	0x3dba5254	0.09097734
9	0xbdf5b718	-0.11997813
10	0x3d4f7858	0.050651878
11	0xbdcc9530	-0.09989393
12	0xbde35c20	-0.11101556
13	0x3c2f2040	0.010688841
14	0x3dd52492	0.10407366
15	0x3dae3f1e	0.085081324
16	0x3db98a6a	0.090596035
17	0xbbf08cc0	-0.0073409975
18	0x3dd4a060	0.103821516
19	0x3d8c1624	0.068401605
20	0x3d19d244	0.03755404
21	0x3dfa02fa	0.12207599
22	0x3dcf90fc	0.101350754
23	0xbd9cbe6a	-0.07653506
24	0x3d80a76e	0.06281935
25	0xbd891258	-0.06692952
26	0xbbed8b00	-0.007249236
27	0xbd88a06c	-0.06671223
28	0x3c81afe8	0.015830949
29	0x3d75a240	0.059969187
30	0x3ddd6640	0.10810518
31	0xbd6720ac	-0.056427643
32	0x3dfebf9c	0.1243889
33	0x3dd01620	0.1016047
34	0xbdec286a	-0.11531146
35	0xbd42da44	-0.047571436
36	0x3d5453d4	0.051837757
37	0xbd08782c	-0.03331773
38	0x3d936968	0.07197839
39	0x3cdcdff0	0.02696225
40	0x3d22cc44	0.039745584
41	0x3c1a74a0	0.00942722
42	0x3d0b2fb4	0.03398104
43	0x3d76f52c	0.060292408
44	0xbdeceb80	-0.115683556
45	0xbde5a87a	-0.11213775
46	0x3d347994	0.04406126
47	0xbdaf264e	-0.08552228
48	0xbd59c36c	-0.053164884
49	0xbc006320	-0.007836133
50	0xbc6e86c0	-0.014558494
51	0x3dc1e41e	0.09467338
52	0xbdfef8bc	-0.12449786
53	0xbc8e9ae8	-0.01740785
54	0xbd0e99b8	-0.034814566
55	0x3d96fe7e	0.07372759
56	0x3db6d7d6	0.08927886
57	0x3bd0bde0	0.006370291
58	0xbc73d140	-0.014881432
59	0xbddd75c0	-0.10813475
60	0xbdba9c3a	-0.09111829
61	0xbae65800	-0.0017573833
62	0xbca8f888	-0.020626321
63	0x3de69864	0.11259535
64	0x3dac742a	0.08420594
65	0x3d869989	0.06572253
66	0x3dd68b1e	0.10475753
67	0xbddb3ffc	-0.107055634
68	0xbd0a47d0	-0.033759892
69	0xbc062f60	-0.008190006
70	0x3dddad58	0.10824078
71	0xbd8630ee	-0.06552301
72	0xbd3a7a7c	-0.045526966
73	0x3d295eb0	0.041350067
74	0xbd2f0a9b	-0.042734724
75	0x3bf45580	0.0074564815
76	0xbc56f8fc	-0.013120886
77	0x3b323ecb	0.0027198072
78	0xbcf2b671	-0.02962801
79	0x3d01bea6	0.031675957
80	0xbdaafaac	-0.08348593
81	0x3db126ff	0.08650016
82	0x3bc8c28a	0.0061267065
83	0x3d26ff1c	0.040770635
84	0x3daa295b	0.08308669
85	0xbcdb6ea1	-0.02678615
86	0x3d41dc1d	0.047329057
87	0xbdcdae81	-0.100430496
88	0x3ddd2fa7	0.108001046
89	0x3d7a6fa3	0.06114162
90	0x3d02e61c	0.03195773
91	0x3d04b9fc	0.03240393
92	0xbd336284	-0.043795124
93	0xbdc601b4	-0.096682936
94	0x3d4a115c	0.04933296
95	0xbdc5d7fe	-0.09660338
96	0x3de64f7a	0.11245628
97	0xbd47480d	-0.048652697
98	0x3db52a2a	0.08845933
99	0x3d027b15	0.03185566
100	0x3dc27cf6	0.09496491
101	0xbc285665	-0.010274504
102	0xbb2c5000	-0.00262928
103	0x3d55ad49	0.05216721
104	0xbc5ab257	-0.013348184
105	0x3de6a2c7	0.11261516
106	0x3c95e4d8	0.018297598
107	0xbdc2ca61	-0.09511257
108	0xbdf95254	-0.12173906
109	0xbd800169	-0.06250269
110	0x3db76c0c	0.08956155
111	0x3b8c2a8e	0.004277534
112	0xbd6f4504	-0.058415428
113	0xbdc4fb84	-0.09618285
114	0xbdd0934a	-0.10184343
115	0xbc6a1a2a	-0.014288465
116	0xbde1fb5b	-0.110342704
117	0x3d92a446	0.07160239
118	0x3d91a24e	0.07111035
119	0x3da1e884	0.07905677
120	0x3d74c52b	0.059758347
121	0x3cd930e1	0.026512565
122	0x3d61bbb8	0.055110663
123	0x3c535033	0.012897539
124	0xbcd124d9	-0.025530266
125	0xbd838dae	-0.06423508
126	0x3c59f750	0.013303593
127	0xbdcd3721	-0.10020281
128	0x3d9567f0	0.07295215
129	0xbdfa2830	-0.122146964
130	0xbd448f68	-0.047988325
131	0xbd0ae97c	-0.033914074
132	0xbd71a86c	-0.05899851
133	0x3de59444	0.1120992
134	0x3c525ce0	0.012839526
135	0xbdba2e80	-0.090909004
136	0xbc977c70	-0.018491954
137	0x3d9a1084	0.07522681
138	0xbce18690	-0.027529985
139	0x3b8bb840	0.0042639077
140	0x3d08aa24	0.033365384
141	0xbc793630	-0.015210673
142	0x3df240b2	0.11828746
143	0xbbde5c00	-0.0067858696
144	0xbd0c073c	-0.034186587
145	0xbde5fbc4	-0.11229661
146	0x3ddc591c	0.10759184
147	0xbb4bd040	-0.0031099468
148	0x3d97691a	0.073930934
149	0x3dd1709e	0.10226558
150	0x3bf01c60	0.0073276013
151	0x3d711170	0.05885452
152	0xbda74e66	-0.0816925
153	0xbd4995b8	-0.04921505
154	0x3cadfee8	0.021239713
155	0xbdcdacf2	-0.10042752
156	0xbdc70a7c	-0.097187966
157	0xbda91992	-0.0825683
158	0xbdc46c84	-0.0959101
159	0x3cd57298	0.02605562
160	0xbd534964	-0.051583663
161	0x3d0bcfc4	0.034133688
162	0xbda5027a	-0.08057113
163	0xbdd0c15c	-0.101931304
164	0x3d0456f0	0.032309473
165	0x3d8c4376	0.06848805
166	0x3cc65748	0.02421154
167	0x3c617d50	0.013762787
168	0xbda476e6	-0.080304906
169	0xbd5438b4	-0.05181189
170	0x3da32cd2	0.07967533
171	0x3d835b8c	0.064139456
172	0xbcd144c0	-0.025545478
173	0xbdc097e8	-0.09403974
174	0x3dc8fda6	0.098140046
175	0x3bc47dc0	0.005996436
176	0xbcc065c0	-0.023486018
177	0x3d316ff0	0.043319643
178	0xbd9630e4	-0.07333544
179	0x3deeb32a	0.116552666
180	0xbdca0efe	-0.09866141
181	0x3d18f300	0.037341118
182	0xbdb7f66a	-0.08982547
183	0x3d6d37a4	0.05791439
184	0xbd90be32	-0.07067527
185	0x3d23bff8	0.039977998
186	0xbdea4d1c	-0.11440489
187	0xbdc13058	-0.09433049
188	0x3d6c5cf4	0.057705835
189	0x3cd322e0	0.025773466
190	0x3dee21f6	0.11627571
191	0xbdb54816	-0.0885164
192	0xbc1ab720	-0.009443074
193	0x3ba74980	0.0051051974
194	0x3dcae848	0.099075854
195	0xbdbc5cd8	-0.09197396
196	0x3d43e7b0	0.047828376
197	0x3c19d060	0.009388059
198	0x3a541200	0.00080898404
199	0x3c5fc9c0	0.013658941
200	0x3df0b9ba	0.117541745
201	0xbd229450	-0.039692223
202	0x3d911780	0.070845604
203	0x3bbcaea0	0.0057581216
204	0xbd9835b6	-0.074321195
205	0xbd3637e8	-0.04448691
206	0xbd9661b6	-0.07342856
207	0x3d86c186	0.065798804
208	0xbd88cde0	-0.066798925
209	0xbdfcd914	-0.12346092
210	0xbab79800	-0.0014007092
211	0xbcc0df78	-0.023544058
212	0xbd20e250	-0.03927833
213	0xbb719380	-0.0036861598
214	0xbde0d932	-0.10978927
215	0x3dfaf9d6	0.12254684
216	0x3da10e40	0.07864046
217	0xbd99bbc8	-0.075065196
218	0xbd75698c	-0.05991511
219	0x3d1c6eec	0.03819172
220	0xbda06472	-0.078316584
221	0x3db24fa6	0.08706598
222	0xbddcb442	-0.10776569
223	0xbd324228	-0.043520123
224	0xbda00bb4	-0.07814732
225	0x3c82a8c0	0.015949607
226	0x3ccd90b0	0.025093406
227	0xbd8b30fa	-0.06796451
228	0x3cf9a1a0	0.030472577
229	0x3db8491c	0.089983195
230	0x3de897ba	0.113570645
231	0x3c8fb098	0.017540261
232	0xbde9b312	-0.11411108
233	0x3dc4f762	0.09617497
234	0xbdb9f20e	-0.090793714
235	0xbd401018	-0.04689035
236	0xbb38d440	-0.0028202683
237	0x3bf9c3a0	0.0076221973
238	0x3db76cc8	0.08956295
239	0xbd0883f8	-0.03332898
240	0x3d3730ac	0.04472415
241	0x3d21a600	0.03946495
242	0x3dbc5468	0.09195787
243	0xbdce49d2	-0.10072674
244	0x3d972358	0.07379788
245	0x3b8b4380	0.00424999
246	0x3df33a4a	0.11876352
247	0x3c1a8b70	0.009432659
248	0xbdd068a6	-0.1017621
249	0x3a80e580	0.0009834021
250	0xbd94209a	-0.07232781
251	0xbd95da06	-0.07316975
252	0xbceafb80	-0.028684378
253	0xbdf94958	-0.12172192
254	0xbdce3e8c	-0.100705236
255	0xbd2dc338	-0.042422503

shared_layers.2.bias f4 [32]
0	0xbdd58b9e	-0.104270205
1	0x3da0a33e	0.07843636
2	0x3dbc1ae0	0.091848135
3	0xbd7a53c4	-0.06111504
4	0x3e2daa14	0.16959411
5	0x3d8f3e04	0.069942504
6	0x3e18a453	0.14906435
7	0x3d837f2f	0.06420743
8	0x3dc3a1bf	0.09552335
9	0x3c860e60	0.016364276
10	0xbdea09f4	-0.1142768
11	0x3c930a20	0.017949164
12	0x3d1dfe07	0.038572337
13	0x3dc102da	0.09424372
14	0x3d23d42e	0.039997272
15	0xbd8d0b54	-0.06886926
16	0xbda620ee	-0.081117496
17	0xbafe8d1c	-0.0019420716
18	0x3d201ef5	0.039092023
19	0x3df82a44	0.121174365
20	0xbdbe6692	-0.092969075
21	0x3c9d318a	0.019188661
22	0x3df856fc	0.12125966
23	0x3cbb66f0	0.022876233
24	0x3d2aa97c	0.04166554
25	0xbdb53dc6	-0.08849673
26	0xbd4e8728	-0.050421864
27	0x3e4ebdd6	0.20189604
28	0xbc641970	-0.01392208
29	0xbdd85d80	-0.10564709
30	0x3df41434	0.11917916
31	0x3ca9cf70	0.020728797

shared_layers.4.weight f4 [8, 32]
0	0x3c96565d	0.018351728
1	0x3e210316	0.15723833
2	0xbdff834a	-0.12476213
3	0xbd49961c	-0.04921542
4	0xbe54a27c	-0.20765108
5	0x3ddd96d8	0.10819787
6	0xbe6e9f3b	-0.23302929
7	0xbc9db9cf	-0.01925364
8	0xbdad50c0	-0.084626675
9	0xbdcc0b83	-0.09963133
10	0x3de1fcfd	0.11034582
11	0xbe139f89	-0.14416327
12	0xbd9c629e	-0.07635997
13	0xbe2d8c64	-0.16948086
14	0xbdc0b203	-0.09408953
15	0xbd9ae540	-0.07563257
16	0xbd9e0afb	-0.07716938
17	0xbe004375	-0.12525733
18	0xbd4112a9	-0.047136936
19	0x3d425f5e	0.04745423
20	0xbe09639d	-0.13416906
21	0xbe937744	-0.2880193
22	0xbe1ad351	-0.15119673
23	0x3d90b1ca	0.070651606
24	0xbbe896fc	-0.007098077
25	0x3b6d50d9	0.003621152
26	0x3e2c2cf0	0.16814017
27	0xbd22673e	-0.03964924
28	0xbd20783b	-0.03917716
29	0x3dc959d7	0.09831589
30	0x3d75cd7c	0.06001042
31	0xbe12ef01	-0.14348985
32	0x3bca42c7	0.0061725113
33	0xbdc0caf5	-0.09413711
34	0x3e0a6cb2	0.13518026
35	0x3e25ffba	0.16210833
36	0x3e4ab727	0.1979643
37	0xbe194e21	-0.1497121
38	0x3e26a331	0.1627319
39	0x3e352acf	0.17692111
40	0x3d976fec	0.07394394
41	0xbcf814a9	-0.030283289
42	0x3e2cd8bc	0.16879553
43	0xbce85bfd	-0.028364176
44	0x3e3f021a	0.18653145
45	0xbe103933	-0.1408432
46	0x3e78281b	0.24234049
47	0xbd37d294	-0.044878557
48	0x3dfdffc5	0.124023
49	0xbdcd5549	-0.100260325
50	0x3e6b54af	0.22981523
51	0x3af11009	0.001839162
52	0x3d05bb81	0.03264952
53	0xbca89eb1	-0.020583482
54	0xbd4e35c3	-0.05034424
55	0xbd300a03	-0.042978298
56	0xbd3b21ee	-0.045686655
57	0xbe2cf2e8	-0.16889536
58	0xbd75f06f	-0.06004375
59	0x3d9ba60f	0.076000325
60	0x3b89a732	0.0042008394
61	0xbd47d946	-0.048791192
62	0x3e0710d4	0.13190013
63	0xbdfc6198	-0.12323302
64	0x3d6f3c43	0.05840708
65	0xbe1df7fd	-0.15426631
66	0x3e08937f	0.13337515
67	0xbe309157	-0.17242943
68	0xbd079458	-0.033100456
69	0x3def6653	0.11689439
70	0x3c73d260	0.0148817
71	0xbea2bdf5	-0.3178555
72	0xbe5cd064	-0.2156387
73	0xbd1c1eb7	-0.03811523
74	0x3e1c2a71	0.15250565
75	0x3dd7b636	0.10532801
76	0xbe3d1e7c	-0.1846866
77	0x3d602d18	0.054730505
78	0xbdd3b6bb	-0.103375874
79	0x3b7f2dfa	0.0038937316
80	0xbd93eaed	-0.07222543
81	0xbd81d831	-0.06340063
82	0xbdb1d7d2	-0.086837426
83	0xbbb68653	-0.005570212
84	0xbd23989c	-0.03994046
85	0xbeaeaf00	-0.3411789
86	0x3cde766c	0.027156077
87	0xbb8fc241	-0.0043871705
88	0x3db49a2a	0.08818467
89	0xbdd534e6	-0.1041048
90	0x3e109bf9	0.14121999
91	0xbdeceb2f	-0.11568295
92	0xbdaef953	-0.085436486
93	0xbc430573	-0.011903155
94	0xbc37485c	-0.011186685
95	0x3c82bea2	0.015960041
96	0xbdcfeb27	-0.101522736
97	0x3d98126b	0.07425388
98	0xbab1a6fc	-0.0013553794
99	0x3d5c2a88	0.0537515
100	0xbe7766f1	-0.24160363
101	0x3c9a6af1	0.018849822
102	0xbe277740	-0.16354084
103	0xbd7e8ebf	-0.062147852
104	0xbe2e9de0	-0.17052412
105	0xbe1ee7d3	-0.15518121
106	0xbdf18622	-0.11793162
107	0xbd4bf4e5	-0.049794096
108	0xbdccd3bb	-0.10001322
109	0xbd6248ed	-0.05524533
110	0xbe0e0e79	-0.13872708
111	0xbd640284	-0.05566646
112	0xbdeeec24	-0.11666134
113	0x3dee0a1f	0.11623024
114	0xbd1ead80	-0.03873968
115	0xbda4e82a	-0.08052094
116	0x3b86b75d	0.004111214
117	0xbdc01c6f	-0.09380423
118	0xbd51333a	-0.051074244
119	0x3d95d1fe	0.073154435
120	0xbdb19878	-0.08671659
121	0x3e19ad36	0.15007481
122	0x3d00f610	0.031484663
123	0xbe5d6506	-0.21620569
124	0xbdce1eb2	-0.100644484
125	0xbca8b007	-0.020591749
126	0xbe4732d2	-0.1945298
127	0x3cb34ee6	0.021888208
128	0x3e1f0d09	0.15532316
129	0xbe0bb8e3	-0.13644747
130	0xbd8d3c89	-0.06896312
131	0xbe316dad	-0.17326994
132	0xbe5c9967	-0.21542893
133	0xbd9a8391	-0.075446256
134	0xbd489115	-0.048966486
135	0xbeac6330	-0.33669424
136	0x3c8e1699	0.01734476
137	0x3db86180	0.09002972
138	0xbe1ff01a	-0.15618935
139	0xbdbc5e40	-0.09197664
140	0xbe205f41	-0.15661336
141	0xbda9ee3f	-0.08297395
142	0xbd5880cd	-0.05285721
143	0x3e067e74	0.13134176
144	0x3d7128b2	0.0588767
145	0x3cb2baa9	0.021817522
146	0xbcd74d4f	-0.02628198
147	0x3df8ff25	0.1215804
148	0x3d5c0d95	0.05372389
149	0xbe270f37	-0.16314398
150	0x3e03b820	0.12863207
151	0xbdd60c33	-0.104515456
152	0x3e17b030	0.14813304
153	0xbd6c3431	-0.05766696
154	0x3d2ae2dd	0.04172026
155	0xbe581cd1	-0.21104743
156	0xbe281b93	-0.16416769
157	0x3c541a33	0.0129456995
158	0x3d177b19	0.03698263
159	0xbe1d6b1a	-0.15372887
160	0xbb843cea	-0.004035582
161	0xbe0d207d	-0.13781925
162	0xbe1a933c	-0.15095228
163	0xbd3bd885	-0.045860786
164	0xbd786adc	-0.060648784
165	0xbd546548	-0.0518544
166	0xbe20f8a2	-0.15719846
167	0xbd2a607b	-0.041595917
168	0xbdc5aef7	-0.096525125
169	0xbdcff62b	-0.10154375
170	0xbd258f4b	-0.040419858
171	0xbc75fd29	-0.015013971
172	0xbe62ccb6	-0.22148404
173	0xbdb7ce0e	-0.08974849
174	0x3c616024	0.013755832
175	0xbe31fc80	-0.17381477
176	0x3e3260e9	0.17419781
177	0xbd99928e	-0.07498656
178	0xbcfc5fc4	-0.030807383
179	0x3df02448	0.1172567
180	0xbd055a3b	-0.032556754
181	0xbe76554b	-0.24055974
182	0xbdc47d09	-0.09594161
183	0x3e2a78c5	0.16647632
184	0x3dc746fb	0.09730335
185	0x3e08bd14	0.13353378
186	0x3e02d6f5	0.12777312
187	0xbe8dbafa	-0.27681714
188	0xbca77b05	-0.020444402
189	0x3c5c8658	0.013459764
190	0xbe4358f9	-0.19076909
191	0x3e2ba4dc	0.16762108
192	0xbd275f33	-0.040862273
193	0x3b72ab84	0.00370285
194	0xbd10e6bc	-0.035376295
195	0xbdd36457	-0.10321873
196	0x3e238c47	0.1597148
197	0x3d6dd2f1	0.058062498
198	0x3ddb026f	0.106938235
199	0x3e58d258	0.2117399
200	0xbdec0ff9	-0.11526484
201	0x3da2868a	0.079358175
202	0x3d6eeb1f	0.058329698
203	0xbbdb4bae	-0.0066923713
204	0xbd92bd52	-0.07165016
205	0xbd51867d	-0.05115365
206	0x3d001c5e	0.031277053
207	0xbd6f064d	-0.05835562
208	0xbdd151b6	-0.10220663
209	0xbdffcacb	-0.124898516
210	0x3d6d65bb	0.057958346
211	0xbe1a6a4d	-0.15079613
212	0x3dfc2e87	0.12313562
213	0xbc347cc5	-0.0110160755
214	0xbc9b71fb	-0.018975249
215	0xbd8e4107	-0.06945997
216	0x3dd2757b	0.10276314
217	0x3da7850b	0.08179673
218	0xbded5dc6	-0.115901515
219	0xbdb312e5	-0.08743838
220	0xbdb09a7c	-0.086232156
221	0xbd2992fc	-0.04139994
222	0xbe2b9822	-0.16757253
223	0x3cdf0148	0.02722229
224	0x3cdfb7a0	0.027309239
225	0xbcff5958	-0.031170532
226	0xbd3c2fac	-0.0459439
227	0x3baf7c9d	0.005355431
228	0xbe960eda	-0.29308206
229	0x3d8ef125	0.069795884
230	0xbe4587d0	-0.1929009
231	0xbeabae03	-0.33531198
232	0xbe834561	-0.2563887
233	0x3dfcb377	0.12338918
234	0xbd4d4580	-0.05011511
235	0x3d6f16e0	0.058371425
236	0xbcbc4999	-0.022984313
237	0x3e24343e	0.16035554
238	0xbc57c08f	-0.013168468
239	0x3e12f88f	0.1435263
240	0x3cfa2bf1	0.030538531
241	0xbe0c14c4	-0.13679796
242	0xbda82b50	-0.08211386
243	0x3b894b46	0.0041898815
244	0xbe165255	-0.14679845
245	0xbe9d2636	-0.30693215
246	0xbe2e878c	-0.17043895
247	0xbda02e07	-0.07821279
248	0xbd60901d	-0.054824937
249	0x3d86a79f	0.0657494
250	0xbdb1f7aa	-0.08689816
251	0xbe8d5bd3	-0.2760912
252	0xbe0c9f53	-0.13732652
253	0xbe07b4e4	-0.13252598
254	0xbe89901c	-0.2686776
255	0x3d8fc5cd	0.070201494

shared_layers.4.bias f4 [8]
0	0x3b4eab22	0.0031535109
1	0xbde23b81	-0.11046506
2	0x3db84786	0.08998017
3	0xbd85bb24	-0.06529835
4	0xbbe105a1	-0.006867126
5	0x3d966841	0.073441036
6	0xbe124678	-0.14284694
7	0xbe42fa5f	-0.19040821
