training/models/6controller_controller_acc0.819_lat0.006_succ5_small7_large10_carb15_cap610_rate0.000269_best_model.pth (torch, 17049 bytes, 6 tensors)

shared_layers.0.weight f4 [64, 3]
00000000: 7d15 2e3e 8c48 ffbb 3b88 d9be 1ef3 123f
00000010: e999 2d3f 766b c43e 3946 e7bd 67ac fc3e
00000020: 2d43 873e ac8e b53e 5b42 033e 335b e6bc
00000030: 3afe 413c 68d3 eebd cfd6 11bf 2763 8b3e
00000040: f77d af3e 6c63 263f 9cbb 013f 90c4 363e
00000050: be78 57be e7b7 13bf 3a15 d53e 92d9 8cbe
00000060: b267 fcbe 6b70 2c3d e82b c1be 4f76 523e
00000070: 1961 02be 7f60 56bd eff7 06be fb81 bc3e
00000080: 378d bbbe 06d2 dc3d c84e a4bd 2c3c 0cbf
00000090: c7d7 10bf bc81 0fbe b16e cfbe 7765 bc3e
000000a0: 90c5 023f 0524 993e 3f8f cb3d 9ab0 a4bd
000000b0: 9935 e1be 3a96 9fbe f3cb ccbd 9709 37bd
000000c0: 0fc9 f73e 6f21 c1bd f96c 963d 67fc 8ebe
000000d0: 7ca0 e1be e42c 983d 096c eebe 9a27 7d3e
000000e0: 7e2f 883e 9a50 c43e ffe0 2f3e 5e41 1a3f
000000f0: 9a8c 96be a2db 9d3d 0c8f 253e 9a32 a63e
00000100: 7604 d73d 35f0 5f3e 421a 22be 414e 68be
00000110: 769f 1cbd 577f b93e 3a5d e83d dc5e 423d
00000120: bd2a 43be b5ae 503e c08f 083e 83e7 77be
00000130: 30fc 73be c56b 043f db12 0e3f 6b66 e7be
00000140: 1963 323e 6fd3 fb3e c5cd 153f cd17 cbbe
00000150: 6e05 f0be c31c 32be c436 703e ba93 1f3d
00000160: 57bd 123f 4200 fbbe 796a 2b3f bf7e 223f
00000170: 7ff8 243f d9c3 f2be 7bea 863e 47d3 0dbf
00000180: f4df 2b3f 7eab 133f f727 2f3e 89d2 633e
00000190: 89d0 2a3e e2c6 ef3e a937 003f 7db2 d23e
000001a0: 6c38 103c a295 04bf b174 913e f4c9 e3be
000001b0: 0924 493e a3cd 083f 88c9 8dbe 9716 173f
000001c0: 712b 7e3e 3ff1 af3e 07c2 ad3e 8717 a33e
000001d0: 0a56 883e 374c 90be 514c 073f bde2 69be
000001e0: 9ed8 223f 6fb5 ba3e 6fbb 573e 3edf d2be
000001f0: 88f4 9fbd 930c 2dbe a82a cb3e eee0 183f
00000200: 334d d63e 0f11 253e b95a 06be b029 d63e
00000210: 8425 6bbe 2ac8 153f 4b4e 82be ecd9 753e
00000220: 818a 843e d7f1 8d3d de1c 813e cfe3 3d3e
00000230: c8e5 863d e82a 8fbd 3b7c 923e 983b b7bd
00000240: 990e 2e3f b4ae 96be f650 e7bd ab88 bebe
00000250: 69ba d33e f6db a3bc a3c1 fabe 005a b73d
00000260: 6391 04bf 1228 fabe 516c 56be 25ff 57be
00000270: 646c cebe 9a7d 413e c652 f83e 2e9f 8ebe
00000280: 07fa 4bbe 94ac 93be 3822 043f 3caf 153f
00000290: 03be 0a3d 780a 4fbe 9bda 383e 18d9 723e
000002a0: d034 383e c0f9 993e 34e4 563e 53d6 0c3f
000002b0: c54e 7ebe f1bc 08be 8985 03be 07f9 febe
000002c0: e793 f53e 6b90 61bd 44f0 ec3e ef64 03bf
000002d0: 33cd a63e 40c7 bebe 47b5 35be 6e60 de3d
000002e0: e1b0 a73c da7d d53d 5de6 f03d 5d4d 1a3f
000002f0: 2b64 0ebe f430 2d3f 9d1d 8a3e 58c8 19be
0.17000385 -0.0077906307 -0.42486748 0.5740222 0.67812973 0.38363236 -0.11292691 0.49350283
0.2641844 0.35460413 0.12818281 -0.028119659 0.0118403975 -0.11661416 -0.56968397 0.27224085
0.3427579 0.64995456 0.50676894 0.1784842 -0.21042153 -0.5770249 0.41617757 -0.27509743
-0.49297863 0.042099398 -0.3772881 0.20552944 -0.12732352 -0.05233812 -0.13180517 0.36817917
-0.36631176 0.10782246 -0.08022839 -0.54779315 -0.5657925 -0.14014333 -0.40514138 0.36796162
0.51082706 0.29910293 0.099394314 -0.080414966 -0.43986204 -0.311693 -0.09999838 -0.04468688
0.48395583 -0.09430205 0.07345004 -0.27926943 -0.44067752 0.07430437 -0.465668 0.24722138
0.26598734 0.38342744 0.17175673 0.6025599 -0.29404145 0.07707907 0.1616785 0.3246048
0.10498898 0.21868975 -0.15830329 -0.22686101 -0.03823801 0.36229965 0.113459066 0.047453746
-0.19059272 0.20379145 0.13336086 -0.24209408 -0.2382667 0.51726943 0.5549752 -0.45195326
0.17420615 0.4918475 0.58517104 -0.39666596 -0.46879143 -0.17393784 0.23458391 0.038959242
0.5732016 -0.49023634 0.6695934 0.6347465 0.64441675 -0.47415045 0.2635077 -0.5540051
0.671386 0.5768355 0.17105089 0.22248282 0.16681112 0.46831423 0.5008493 0.411518
0.0088025145 -0.5179082 0.2840934 -0.44490016 0.19642653 0.53438777 -0.2769282 0.59018844
0.24821259 0.34363744 0.33937094 0.31853887 0.26628143 -0.28183147 0.52850825 -0.228404
0.6361178 0.36466548 0.21067594 -0.41185945 -0.078103125 -0.16899328 0.39680982 0.59718215
0.41855773 0.16119789 -0.13120545 0.4182868 -0.2296353 0.5850855 -0.25450358 0.24008912
0.2588692 0.06930893 0.25217336 0.18543933 0.06586796 -0.069906056 0.28610405 -0.089469135
0.67991024 -0.29430163 -0.11294739 -0.37213644 0.41353157 -0.020002346 -0.48975858 0.08952713
-0.5178434 -0.48858696 -0.20939757 -0.21093424 -0.4031707 0.1889557 0.4850065 -0.2785582
-0.19919597 -0.28842604 0.51614714 0.5847051 0.033872616 -0.20218837 0.18052141 0.23715627
0.17988896 0.30073357 0.2098549 0.5501453 -0.24834736 -0.13353325 -0.12843908 -0.49799368
0.47964403 -0.05506937 0.46277058 -0.5132589 0.3257843 -0.3726139 -0.17744933 0.10858236
0.020470085 0.10424395 0.11762688 0.60274297 -0.13905399 0.6765282 0.26975718 -0.15017831

shared_layers.0.bias f4 [64]
00000000: d97d a03e b6a8 17bd c655 0abf 77e8 773e
00000010: 0424 b8be 0d31 1a3f b8c1 883d 4a16 23bd
00000020: 22ab 1d3c 4d16 1e3f 2ea0 c43e 9093 debe
00000030: 0f4e 97be 1f49 9c3c 8854 ab3e 5ffc 1a3f
00000040: 9077 f13e b4c0 0fbe dc17 d63c d552 1a3f
00000050: bd3b 62bc 46a9 403e 2918 1abe c41f 13bf
00000060: 83c3 abbe 469d 63be 9209 8c3e ae1a 793e
00000070: 3621 463e 13ce a03e 2a47 243f 3f39 933d
00000080: caab ca3d 44f4 e03d 397f ae3e 847c d1be
00000090: f910 b13e c379 223f e00b 223f cb61 02bf
000000a0: 0878 cfbe bfd3 09bf 4c9d e5be e4e3 e3be
000000b0: 4678 af3e caf1 2f3f 7f76 613e 267a df3e
000000c0: 3dab 3fbe 6156 02bf 2bcd 05bf 45c8 1a3d
000000d0: bd66 1ebe 278b 593e ab4b df3d df1a eebe
000000e0: 137e ce3e 7634 463e dc78 2abe 6a43 d03e
000000f0: b153 1d3f 2aae 02be afa1 073f a158 ddbd
0.31346014 -0.03702613 -0.5403713 0.24209772 -0.35964978 0.60231096 0.06677574 -0.03981618
0.009623321 0.6175278 0.38403457 -0.43471956 -0.2955174 0.019077836 0.3346293 0.6054134
0.4716153 -0.14038354 0.026134424 0.6028264 -0.013808188 0.18814573 -0.15048279 -0.57470345
-0.335476 -0.22227964 0.27351052 0.24326584 0.19348606 0.31407222 0.6417109 0.07188653
0.098960474 0.1098409 0.34081438 -0.4091531 0.34583262 0.63467044 0.6329937 -0.5093047
-0.40521264 -0.53838724 -0.4484657 -0.44509804 0.3427145 0.68728316 0.22017859 0.4364788
-0.18717666 -0.50913054 -0.52266186 0.03778865 -0.15468879 0.21244489 0.109031044 -0.46504876
0.40330562 0.1935595 -0.16647667 0.40676433 0.6145583 -0.12761751 0.52981085 -0.1080792

shared_layers.2.weight f4 [32, 64]
00000000: 86fe 753c 0be2 b1bd d27d ab3d 1647 5cbc
00000010: f0ac 493c f679 a5bd 19d5 a43d 563a b0bd
00000020: a085 253c 8cbf 05be 298e 29bb f64b babd
00000030: aa3f fb3d bade c13d 768f fabd 0e2d 753d
00000040: 047c a83d 2037 09bd 76f5 ce3d 386e 75bd
00000050: c0a0 793b 3888 c03d ecd8 df3d 0435 043d
00000060: c821 9a3d d086 a7bc 3ce4 98bd fd66 9a3d
00000070: 8c49 8dbd ac0f 13bd 2a71 bebd 04e4 90bd
00000080: c6d8 b4bd abb2 5abd 82c0 9e3d 4ef5 d03d
00000090: 4c1f d83d d8a9 cc3c 39ae 843d 4872 3b3d
000000a0: 7a1a ab3d 5068 e03d 933e a43d 3c83 d1bd
000000b0: e23f ddbd ca7b c83d 8670 78bd 110b 8b3d
000000c0: 6d08 39bd e06d ecbb 1804 f03c 001e 573a
000000d0: 24a3 053d 8899 003d 76c5 62bd 08b3 bb3d
000000e0: 3025 823d 4c89 e23d ced7 d5bd 1f40 ab3c
000000f0: 2e59 03be dc9f 36bd c63f 4dbd bc33 d2bd
00000100: 1025 e63c c65f 8e3d 9af6 a6bd 80ab c0bb
00000110: 2805 7f3d e4be afbd ccd7 07bd c21f 8dbd
00000120: a866 cdbd 7e58 bf3d 2026 dbbb 54e0 2e3d
00000130: 209e 69bc 6a93 fc3d ea31 8d3d bc47 0f3d
00000140: 2e50 d73d 3814 a93c 9292 d7bd 6e8c 923d
00000150: 70bf b53c 9ed9 99bd 9c20 cb3d 066d a4bd
00000160: 50fa ab3c 38bf e4bd 422c a3bd 24df 3abd
00000170: 38e0 a93c ecfd 22bd 6414 75bd d80e 63bd
00000180: acb3 57bd 20a1 4dbd e8ef a93d 52b4 c43d
00000190: 58c5 223d 00b3 13bb 34d1 3a3d 98ff 6abd
000001a0: 6c9e 3fbd ba36 be3d 3c9c 693d 4080 e9bd
000001b0: e20e b6bd b615 bcbd 9e96 9bbd 9854 92bd
000001c0: 804b f53c 9857 88bd 8c96 243d e0e4 1d3c
000001d0: a83b 4f3d 8456 113d 6836 b9bd 1ee2 debd
000001e0: a85a f4bd a065 c7bd 3057 cbbc 467c a8bd
000001f0: 2669 babd be95 923d 405f 7dbb 24f4 a1bd
00000200: f184 8b3d f805 533e 2a95 cfbd 6575 243e
00000210: c205 b5bd 22e8 103e 5ae0 3e3e 8ac9 e23d
00000220: d8ca 23bd 843e 9f3d c133 9c3c e4bc 9fbd
00000230: 2215 e13d 2723 3e3e bc35 d03d b790 203c
00000240: c172 92bc 8006 9f3b 7270 c93d dbeb af3d
00000250: 8032 04bb 8ad6 d53d b62f 973d eee8 863d
00000260: 8c04 f0bd 52d7 c93d e516 053e f564 9e3d
00000270: 7c0c 8b3d ff1c 283e ed0d ef3d defb c0bd
00000280: ce9c 1b3e 4479 483e 3c6d 203e 9aa7 c9bd
00000290: bf3a a03d 708a f63d a946 883d e024 d23b
000002a0: 2f03 53bc a0d9 753d 9415 2f3d 26c1 c83d
000002b0: 4f98 023d c4ed 9f3d 1577 b43d 67c1 3a3e
000002c0: 5b4a 3d3d 38eb 2c3d 601b 843b d859 a03c
000002d0: a07d 423d 6444 d23d 4e46 2e3e b6e2 bf3d
000002e0: d102 613e a1e4 b4bc 6c8a 233d 1be4 d8bc
000002f0: 88df 8f3c 8433 85bd 8516 b23d 1748 813d
00000300: 18e6 9c3d 2a07 a3bd 0a4d a43d e0bb b33b
00000310: b4c6 353d 5c07 4ebd 8021 c7ba 6256 c83d
00000320: 30a1 cfbd 4ce1 4e3d 8e95 873d 3035 09bd
00000330: c4ac 52bd 0057 01bd 70a6 87bc 10e8 23bd
00000340: 4056 54bc f680 99bd 0400 a3bd f090 83bc
00000350: c475 c1bd 0659 f0bd bc19 88bd 0872 e1bd
00000360: f496 cc3d 6a59 cfbd 02fd c3bd 94f2 1d3d
00000370: de81 d8bd 2005 c83c 40c7 93bc e04d fcbd
00000380: 4603 e3bd 44d8 aabd 6053 b3bd f4ad 223d
00000390: a0b5 f43b f4bb bf3d 16ea e0bd 00e2 9f3b
000003a0: 3021 043c 9026 dc3c 40c2 fb3d 6e20 c6bd
000003b0: 68f6 82bc 68d4 9dbc 784c b83c d220 d1bd
000003c0: eeb7 fbbd a80a c93d a8eb e1bd 98db d8bd
000003d0: 5004 3d3d b817 253d ec03 72bd 2866 d2bd
000003e0: 1216 b1bd f0b7 c5bd f88e 3dbd 00a0 86bb
000003f0: d62b b23d 2499 b7bd dcf4 d7bd e080 82bc
0.015014296 -0.086856924 0.08373608 -0.013444683 0.012309298 -0.08079903 0.08048458 -0.08604877
0.010102659 -0.1306135 -0.0025872088 -0.0909652 0.12268002 0.0946631 -0.12234394 0.05985742
0.08226779 -0.033499837 0.10105412 -0.059919566 0.00380902 0.09400982 0.109300464 0.032277122
0.075259745 -0.020450026 -0.07465407 0.07539175 -0.068987936 -0.035903618 -0.09298928 -0.070747405
-0.08830409 -0.053393047 0.07751562 0.10203038 0.105528444 0.024983332 0.06478543 0.045763284
0.083546594 0.10957396 0.080197476 -0.10230109 -0.108032 0.09789236 -0.060654186 0.0678922
-0.04517405 -0.0072152466 0.029298827 0.00082060695 0.032626286 0.03139642 -0.055364095 0.09165007
0.06354749 0.110613436 -0.10441552 0.020904599 -0.12826988 -0.044586048 -0.050109647 -0.10263774
0.028093845 0.06951861 -0.08152504 -0.0058798194 0.062260777 -0.08581331 -0.033164784 -0.06890823
-0.10029346 0.093430504 -0.0066878945 0.042694405 -0.014258891 0.123328045 0.06894286 0.03498052
0.1051334 0.020639524 -0.10526003 0.07155691 0.022186011 -0.0751221 0.09918329 -0.08028607
0.020993382 -0.111692846 -0.07967426 -0.04562296 0.020736799 -0.03979294 -0.0598339 -0.055434078
-0.052661583 -0.05020249 0.082977116 0.09604706 0.039738983 -0.0022537112 0.045609668 -0.05737266
-0.046781942 0.09287782 0.057033762 -0.11401415 -0.088895574 -0.091838285 -0.07597087 -0.07145041
0.029943228 -0.06657332 0.040182635 0.009637088 0.050594002 0.0354829 -0.0904358 -0.10882972
-0.11931354 -0.0973618 -0.024821848 -0.08226828 -0.09102087 0.07157467 -0.003866151 -0.07907894
0.06812466 0.20607746 -0.10135873 0.16060407 -0.08838989 0.14151052 0.18640271 0.11073597
-0.03998837 0.07775596 0.019067647 -0.077997 0.10990359 0.18568097 0.10166499 0.009800128
-0.017876985 0.00485307 0.098359 0.08589908 -0.0020171702 0.10441311 0.07382147 0.065873966
-0.11719617 0.09855522 0.12997015 0.077341 0.067894906 0.16417311 0.11672578 -0.0942304
0.15196535 0.19577509 0.1566667 -0.098464206 0.07823705 0.120381236 0.06654102 0.0064130872
-0.012879177 0.060021996 0.042745188 0.09802465 0.031883534 0.07809022 0.088117756 0.1823784
0.04621349 0.04221651 0.0040315837 0.01957409 0.047483087 0.10266951 0.17019007 0.093694136
0.2197373 -0.022081675 0.03992693 -0.026475957 0.017562643 -0.065039665 0.086957015 0.06312578
0.076610744 -0.07960351 0.080225065 0.005485043 0.04437895 -0.050299987 -0.0015192479 0.09782101
-0.10138166 0.05050783 0.06620322 -0.03349799 -0.051434293 -0.03157711 -0.016558856 -0.040016234
-0.012960017 -0.074953005 -0.07958987 -0.016060323 -0.0944629 -0.1173573 -0.066455334 -0.11008078
0.099897295 -0.10124476 -0.09569742 0.03856142 -0.10571645 0.024416506 -0.018039346 -0.12319541
-0.11084609 -0.08342031 -0.08756137 0.039716676 0.0074679404 0.09362021 -0.10982148 0.004879236
0.008064553 0.026873857 0.122929096 -0.09674154 -0.015986636 -0.019266322 0.0224974 -0.10211338
-0.12290941 0.09816486 -0.11031276 -0.10588759 0.04614669 0.040305823 -0.05908577 -0.10273391
-0.08646788 -0.09654224 -0.046278924 -0.004108429 0.08699767 -0.08964756 -0.1054475 -0.015930593

shared_layers.2.bias f4 [32]
00000000: f887 5ebd 802e e03a 9ecc 1f3e d069 ddbd
00000010: 723c e33c 60c6 e5bc a863 8d3d 3235 f93d
00000020: 6481 313e 6be0 123e bcc7 8f3d 60d1 a63d
00000030: 09b1 083e 85cb debb 5574 193c 60da aebd
00000040: c893 63bd 4386 c3bd 8668 cfbd 1476 b33d
00000050: 194c ad3d 680a f53c d38a 6a3e 84b9 9c3d
00000060: 74bb 52bd 1a7b a9bd 1092 d5bc 72fa c1bd
00000070: e723 0b3e 28d2 88bd 231f c6bd 2e07 48bb
-0.05432889 0.0017103702 0.15605399 -0.10811198 0.027738784 -0.028048694 0.069037735 0.12168349
0.17334515 0.14343421 0.07020518 0.08145404 0.13348784 -0.0067991638 0.009366115 -0.085377455
-0.055560857 -0.09547093 -0.10127358 0.08762756 0.0846178 0.029912189 0.2290452 0.07652572
-0.0514483 -0.08275433 -0.026070625 -0.09471597 0.13587914 -0.06680709 -0.096739076 -0.0030521858

shared_layers.4.weight f4 [8, 32]
00000000: f091 d93d 8adb f73d 8a22 153c 94cf 873d
00000010: cd62 ed3d 7fb4 73bd eb80 09bd 0c5c 84bd
00000020: c398 d2bd e2ac c5bd 5ec3 17be a4ae bdbd
00000030: 25d1 073d e737 13be d632 dd3d 2f10 183e
00000040: 24d0 b33d 89a6 0e3d 1e44 fe3d 5658 47be
00000050: cbe8 15be 774a 4d3c 9fd5 803b 2a2d 34be
00000060: 3cf2 22be b75b 7abd 5e9b f8bd e6ee 27bd
00000070: ae1c 7bbe eeca a23d 700a 2bbd e06c 6dbb
00000080: 2708 bfbd dec2 343e 4ff4 cb3d df31 1d3e
00000090: 0e8c 0dbd ab65 05be 42ac 17be fa58 b23d
000000a0: 3bdc 693e 9705 ba3d d963 22be 1793 17be
000000b0: 9a5c 2b3d 508b 1a3e b6d1 b9bc 3af0 8dbc
000000c0: 25c1 32be 7f5a dfbd cf86 efbd 9c4c 243e
000000d0: d519 2b3d e8b0 803d 752f 163e a23b 543d
000000e0: 8927 8c3d 7ffb 893d 9d54 80bd 94d8 12be
000000f0: dd7d 6b3e a618 723d 80bc 8cbd 08f7 0dbe
00000100: 3c1a 26be a17f 183e 4b17 04be 6402 efbd
00000110: 10d9 92bd b072 86bc 86ed b93d 0d37 8e3d
00000120: aa3f 24be c85d 1ebe 2d23 3dbe 66ea 0c3e
00000130: b161 6d3d b5e9 09be ee81 0c3e a2d3 ab3d
00000140: 0271 5abd 8ece 99bd ecd2 4d3d faea 95bd
00000150: bf90 293d 0af2 0ebd 8863 57be a7c0 ad3d
00000160: 8699 843d 0e3f aa3c 9956 0e3e 13d7 083e
00000170: 4e7f 69be b64e 16be f97b e23d e823 39be
00000180: 7d1f dbbd 4d16 c93d 068b 2e3d 2387 86bd
00000190: 8159 eebd d1ad fa3d 0395 eabd 87ee 233e
000001a0: 209c 5abe 9f8d 55be c4b9 153e af1e 9dbd
000001b0: e6d4 06be 2e88 e4bc a82c c7bd e2ca 18be
000001c0: ef2d 233e 2f51 043d 9911 19be b139 70be
000001d0: 4d7e 71be 78e9 9ebd 7450 87bc 9d99 ba3d
000001e0: 8967 dbbd 7fc1 69bd 7fb0 27bd d087 063d
000001f0: 7186 23be d9cb 123e 23f5 8bbd 073c f7bd
00000200: f65a b93d fd85 88bc b54e 94bd 1258 ebbd
00000210: 3923 46be 4d9e 1cbe a0cc adbd cbe5 273d
00000220: 8aa8 3bbe 65a4 92be 9fd0 773d 7aa6 cdbc
00000230: 65eb 54be 0f0f 97bd 623e debd 1270 643d
00000240: 4fa3 c8bc 3307 db3d 75ba 563d 52fa afbb
00000250: a5af b438 64dd b73d 45b0 54be f977 16bd
00000260: b84e 2abe 956a 123c ee1f 6cbd d2fe 53bd
00000270: ceda 35be 9293 de3d 4d93 12be 5305 173e
00000280: 5f06 c53d 2587 b5bc fcf7 5bbe 3e1b 1a3e
00000290: 055f b2bd 0903 1bbe 628e 073e ba26 bf3d
000002a0: 4dfa 9b3d a8d0 4abe f899 edbb 0162 d83c
000002b0: a573 f5bd 77da 7bbe 185d 1abd bae5 a33c
000002c0: ab85 84bd 51cc a93d b1c7 70bd f5ea b4bd
000002d0: 280c ddbd a8f4 77bd fa7c 3fbd 1007 973d
000002e0: 279a 523c 4146 013d 8055 1fbe c19d 80bd
000002f0: 6ebe 84be b49a 1a3e 3d58 e63d 8162 71bd
00000300: 81e8 b03d 613b ebbd 62ca eebd ec61 22bc
00000310: a8c2 e83c 7511 0f3d f3ac 803d fdc4 193e
00000320: a0f9 713c 45d7 b8bd 2eb6 c13d bf14 40bd
00000330: 62ef 44bb 89ca 973b fe94 82bd 8e40 1ebd
00000340: 1b1e ea3d cf03 c73d f199 133e 0749 4d3d
00000350: d050 a1bd 6dee 1e3e 3558 aa3c 59f8 07bd
00000360: 4bd5 d03c e4cd 76bd 564c 04be 9637 953d
00000370: 74e3 f03d a07b 2dbe e02c 11be 98fd 113e
00000380: 083a babc 02b7 14be c5fe 98be d418 173e
00000390: a575 a0bb eb37 d6bd cfd5 253d 6d18 a93d
000003a0: 5871 2ebe f281 b6bd af23 123e f706 02bd
000003b0: cf7a 8bbe e8d6 413b 6acb d03d 411f 06be
000003c0: 6124 66bd 4024 7abd 1342 863c ce29 5cbe
000003d0: 4125 9fbe 7b2f 923d a5e9 08be 3b13 00be
000003e0: 6953 223e 713e a73d 5e43 223e 9253 d73c
000003f0: 253b debd 3e34 9b3d 5a99 d73d dcc6 dc3d
0.106235385 0.12102421 0.009102473 0.06631389 0.115911104 -0.059498306 -0.03357021 -0.06462869
-0.10283043 -0.096521154 -0.1482062 -0.09261826 0.03315844 -0.14376794 0.10800712 0.14849924
0.08779934 0.03482679 0.12415336 -0.19467291 -0.14639585 0.012529961 0.0039317156 -0.17595354
-0.15912718 -0.061122622 -0.12139009 -0.040999316 -0.24522659 0.07948862 -0.041758 -0.0036228225
-0.09327727 0.17652461 0.099587075 0.15351056 -0.034557395 -0.13027065 -0.14811805 0.08708377
0.22837918 0.090830974 -0.15858401 -0.14802204 0.04183636 0.15092206 -0.022683006 -0.017326463
-0.17456491 -0.10905933 -0.116956346 0.16044849 0.041772682 0.06283742 0.14666541 0.051814683
0.06843478 0.06737422 -0.06266139 -0.1434043 0.22997232 0.059105538 -0.06871891 -0.13863766
-0.16220945 0.14892437 -0.1289951 -0.11670378 -0.07170308 -0.01641211 0.09078507 0.06944094
-0.16039911 -0.15465462 -0.1847045 0.13761291 0.057954494 -0.13468058 0.13721439 0.08389975
-0.05333043 -0.075101 0.05024998 -0.07320209 0.041397806 -0.034898795 -0.21034062 0.08484011
0.06474595 0.02078202 0.13900222 0.13363294 -0.22802469 -0.14678463 0.11058802 -0.18080103
-0.10699365 0.09818707 0.04261305 -0.06568744 -0.11638165 0.12240184 -0.11454203 0.1600896
-0.2134862 -0.20854805 0.14621645 -0.07671868 -0.13167152 -0.027896967 -0.097253144 -0.14921144
0.15935491 0.032303985 -0.14948119 -0.23459508 -0.23583336 -0.077593744 -0.016517855 0.09111331
-0.10713107 -0.057069298 -0.040939804 0.032844365 -0.15969254 0.14335574 -0.068338655 -0.12071996
0.090505525 -0.016665453 -0.07241575 -0.114914075 -0.19349374 -0.15294762 -0.08486295 0.040990632
-0.18326011 -0.28641048 0.06050169 -0.025103796 -0.20792921 -0.07375919 -0.10851742 0.05577094
-0.024491934 0.106947325 0.052423913 -0.0053704167 8.615785e-05 0.08977774 -0.20770366 -0.03673551
-0.16631591 0.008936544 -0.057647638 -0.051756687 -0.17759249 0.108679906 -0.14314003 0.14748125
0.09620356 -0.022159168 -0.21481317 0.15049455 -0.0870953 -0.15137877 0.13237908 0.093335584
0.076161005 -0.19806159 -0.0072510205 0.02641392 -0.11984948 -0.24595056 -0.037686437 0.020007003
-0.06470808 0.082909234 -0.05878419 -0.08833877 -0.10793334 -0.060536057 -0.046750046 0.07374394
0.012854136 0.03156114 -0.1555996 -0.06280089 -0.25926536 0.15098077 0.11247299 -0.05893183
0.086380966 -0.11485935 -0.11659695 -0.009911042 0.028413132 0.034928758 0.062829874 0.15016551
0.014768988 -0.090254344 0.09458576 -0.046894785 -0.003004991 0.0046322984 -0.06376074 -0.038635783
0.114315234 0.09717523 0.14414193 0.050118472 -0.07876742 0.1552064 0.020794014 -0.033195827
0.025492331 -0.060254946 -0.12919745 0.07285993 0.11762133 -0.1694169 -0.14177275 0.14256895
-0.02273275 -0.14522937 -0.29881874 0.14755565 -0.004896837 -0.10459884 0.040487107 0.08256612
-0.17035425 -0.08911504 0.14271425 -0.031744923 -0.27242133 0.0029577557 0.10195048 -0.1309786
-0.056187037 -0.061069727 0.016388929 -0.21500322 -0.3108311 0.071379624 -0.13370378 -0.12507336
0.15852131 0.08166207 0.15846011 0.026284967 -0.10851125 0.07578324 0.10527296 0.10780117

shared_layers.4.bias f4 [8]
00000000: c0ab 9a3d 540f 663e 3b49 443d 4e52 4dbd
00000010: 9988 cabd 10d2 593d d035 3c3d 8181 69be
0.0755229 0.22466785 0.0479214 -0.05012732 -0.09889335 0.053178847 0.045949757 -0.22803308
