training/models/7controller_controller_acc0.819_lat0.006_succ20_small5_large8_carb7_cap105_rate0.001598_best_model.pth (torch, 17037 bytes, 6 tensors)

shared_layers.0.weight f4 [64, 3]
0.58796656 0.0378786 0.13651834 0.2809726 -0.54922366 0.540305 -0.20373172 -0.49467024
0.025391316 -0.2707825 -0.069553405 -0.18008351 0.045223787 -0.22489919 -0.03615402 0.16647622
0.3381202 0.070626445 -0.25950158 -0.14668809 0.32399988 0.18632291 -0.27314356 0.5801175
0.46862343 -0.36639518 0.023671228 0.20213234 -0.13706435 0.31019852 0.65261096 0.04127191
0.38492084 0.35673016 -0.4463482 -0.45473546 0.3032251 -0.18439017 -0.27598184 0.17468143
-0.5207588 0.14790225 -0.19646773 -0.030699827 -0.112234935 0.13256373 -0.5097496 -0.0625615
-0.17167448 0.23358725 0.55987734 -0.29673797 0.55400443 -0.28200313 -0.45563117 -0.43239576
-0.018683098 0.50386983 -0.17102367 0.38471735 -0.43474773 0.46779296 -0.32699028 0.5638489
-0.4507127 -0.5198896 -0.30988503 -0.2159099 -0.2151489 0.32827553 -0.0685301 -0.4712962
0.64751136 -0.38447496 0.15959749 -0.20538269 0.27854267 0.55611247 -0.2875875 -0.4098103
-0.010405592 -0.45372415 -0.56720483 0.123465404 0.11738194 -0.20103209 0.38641512 -0.5180224
-0.10700674 -0.4998517 -0.40303093 -0.17260076 -0.02551706 -0.4572229 -0.21085295 0.4287394
0.6918287 0.44600785 -0.21159497 0.067754075 -0.18252456 -0.42501196 0.25138092 0.35222366
0.5176682 -0.035976678 0.36538282 0.35159424 0.47482872 -0.5336076 -0.20714745 0.4651205
0.5648491 0.13652296 0.31288746 -0.085664436 -0.49082336 0.40526712 -0.28727275 0.12000706
0.681347 -0.15131222 0.6123014 0.2224471 -0.0050811814 0.56913894 0.023654157 -0.55912364
-0.20869642 0.6050136 0.41288316 0.01189555 -0.41983286 0.45460787 -0.008807781 -0.21396795
0.55885565 0.28593418 0.3854938 -0.415385 -0.33354172 -0.4003808 0.13514592 -0.45429602
-0.49859962 -0.0712554 0.5024495 -0.46426022 0.30627385 0.33793014 0.6679482 -0.25477612
-0.06391735 -0.19711782 0.52447355 0.29595932 0.60046536 0.33110434 -0.24050298 -0.1661549
-0.21104696 -0.12903152 -0.039049238 -0.34429124 0.4740103 0.19008197 0.17356604 -0.066050455
0.23330602 0.34798273 0.16875988 0.20329666 -0.57329947 0.09055029 -0.38367975 -0.19887525
0.30528292 0.109867886 -0.54848725 -0.50884354 0.086562194 -0.12933044 0.572818 -0.37966123
0.21101958 0.284932 0.4260851 0.12345821 0.49901807 -0.40971878 0.4370536 0.13105644
00000000: fa84 163f 9726 1b3d 77cb 0b3e a4db 8f3e
00000010: ec99 0cbf 6e51 0a3f 0c9f 50be 6b45 fdbe
00000020: 7301 d03c 01a4 8abe 0472 8ebd d067 38be
00000030: 943c 393d f94b 66be 3d16 14bd be78 2a3e
00000040: 171e ad3e 99a4 903d 64dd 84be 6735 16be
00000050: 50e3 a53e 6fcb 3e3e 79d9 8bbe 9582 143f
00000060: 69ef ef3e 2698 bbbe 2aea c13c c8fb 4e3e
00000070: 995a 0cbe 57d2 9e3e 8311 273f bc0c 293d
00000080: 5814 c53e 56a5 b63e c087 e4be 16d3 e8be
00000090: 5240 9b3e c7d0 3cbe 7e4d 8dbe b0df 323e
000000a0: 7350 05bf b073 173e d62e 49be 347e fbbc
000000b0: 6edb e5bd c9be 073e f37e 02bf 3e20 80bd
000000c0: 6fcb 2fbe 7f31 6f3e 1f54 0f3f 0aee 97be
000000d0: 3cd3 0d3f b762 90be 7d48 e9be fa62 ddbe
000000e0: 4c0d 99bc 9dfd 003f d420 2fbe acf9 c43e
000000f0: 4197 debe 8f82 ef3e 456b a7be 6758 103f
00000100: d1c3 e6be 7c17 05bf 40a9 9ebe 7c17 5dbe
00000110: fe4f 5cbe bb13 a83e 8259 8cbd bc4d f1be
00000120: 4ec3 253f e7d9 c4be 866d 233e d74f 52be
00000130: 259d 8e3e 635d 0e3f ab3e 93be a8d2 d1be
00000140: 377c 2abc 884e e8be 5634 11bf 6edb fc3d
00000150: f165 f03d 5bdb 4dbe 34d8 c53e 1e9d 04bf
00000160: 5a26 dbbd 90ec ffbe 125a cebe 41be 30be
00000170: 2709 d1bc 1f19 eabe d6e9 57be bb83 db3e
00000180: b01b 313f 245b e43e 5aac 58be a6c2 8a3d
00000190: b8e7 3abe 2b9b d9be 00b5 803e a956 b43e
000001a0: e785 043f 485c 13bd 7513 bb3e 2904 b43e
000001b0: c01c f33e 829a 08bf 761e 54be 4624 ee3e
000001c0: f399 103f adcc 0b3e c932 a03e d670 afbd
000001d0: 334d fbbe 2c7f cf3e 6a15 93be 43c6 f53d
000001e0: c26c 2e3f 97f1 1abe c9bf 1c3f 2cc9 633e
000001f0: 0a80 a6bb 17b3 113f 5dc6 c13c ba22 0fbf
00000200: 84b4 55be 2ce2 1a3f 6c65 d33e 8ee5 423c
00000210: 55f4 d6be 5dc2 e83e 834e 10bc 6a1a 5bbe
00000220: 2a11 0f3f f765 923e 715f c53e 58ad d4be
00000230: fbc5 aabe b6fe ccbe b163 0a3e 7d99 e8be
00000240: 7348 ffbe 5aee 91bd 88a0 003f 84b3 edbe
00000250: edcf 9c3e 2e05 ad3e a7fe 2a3f 0472 82be
00000260: 19e7 82bd 41d9 49be e643 063f fb87 973e
00000270: 19b8 193f 8286 a93e 6a46 76be 8324 2abe
00000280: b21c 58be d720 04be 18f2 1fbd f146 b0be
00000290: 7ab1 f23e d9a4 423e 4cbb 313e 7645 87bd
000002a0: c6e7 6e3e cb2a b23e 64cf 2c3e 002d 503e
000002b0: c1c3 12bf 6e72 b93d ac71 c4be f4a5 4bbe
000002c0: 0b4e 9c3e 6a02 e13d a969 0cbf 9243 02bf
000002d0: 8547 b13d 336f 04be 33a4 123f f562 c2be
000002e0: 8415 583e 9be2 913e d427 da3e a8d7 fc3d
000002f0: 4c7f ff3e a9c6 d1be 7dc5 df3e a933 063e

shared_layers.0.bias f4 [64]
-0.20430951 -0.14088906 0.0079521 0.6306047 0.34703538 0.31609103 -0.54568124 0.25656956
-0.46394005 -0.17109025 -0.18210325 -0.18639734 0.09020259 -0.28104278 -0.31073728 -0.15580548
0.4401399 0.43734345 -0.40377307 0.0971402 0.3089126 0.23902595 -0.5455866 0.1746584
0.39568245 0.24837895 -0.5687157 -0.33122382 0.38203144 -0.43095297 -0.47288895 -0.05984771
0.6004792 0.6250282 -0.5010558 -0.44727555 0.23124848 0.60580504 -0.46408486 -0.56097203
-0.101091765 -0.39337808 0.38571736 0.08527243 -0.02630273 0.54174995 0.51095724 -0.30481333
0.13798167 0.6749651 0.055589307 0.5316526 0.33855578 -0.24955994 0.43125984 -0.2862288
0.36899352 -0.19245562 -0.268261 -0.25957316 -0.14539279 -0.3838334 -0.07021194 -0.10960525
00000000: 8336 51be 3945 10be 8649 023c 4f6f 213f
00000010: 9fae b13e afd6 a13e c4b1 0bbf 165d 833e
00000020: 8d89 edbe 4832 2fbe 4679 3abe f2de 3ebe
00000030: 23bc b83d d7e4 8fbe f518 9fbe 798b 1fbe
00000040: 045a e13e 7beb df3e 58bb cebe 71f1 c63d
00000050: cb29 9e3e 38c3 743e 90ab 0bbf a7d9 323e
00000060: e496 ca3e 0d57 7e3e 5a97 11bf 2b96 a9be
00000070: a099 c33e dea5 dcbe 801e f2be df22 75bd
00000080: 01b9 193f d901 203f 3145 00bf 4d01 e5be
00000090: 67cc 6c3e 0a16 1b3f 889c edbe dd9b 0fbf
000000a0: 3309 cfbd da68 c9be bf7c c53e 50a3 ae3d
000000b0: d378 d7bc 20b0 0a3f 18ce 023f 7e10 9cbe
000000c0: 114b 0d3e 83ca 2c3f 9db1 633d 631a 083f
000000d0: 2f57 ad3e a48c 7fbe 17ce dc3e 958c 92be
000000e0: b8ec bc3e 1613 45be 8159 89be c6e6 84be
000000f0: d9e1 14be d085 c4be 47cb 8fbd b878 e0bd

shared_layers.2.weight f4 [32, 64]
0.025598302 0.10721202 -0.079444915 -0.035439745 0.007925421 0.012436509 -0.08673443 -0.119224966
-0.08862816 -0.055299357 -0.05912678 -0.09459369 0.08522059 0.09264028 -0.06425685 0.062773004
-0.071209684 0.026129678 -0.109740734 -0.12282178 0.092512146 -0.057764947 0.074624985 0.11283484
0.04181564 0.060174733 -0.07972428 0.122975156 0.008305669 0.0012991875 0.08215925 0.10398258
-0.09363039 0.08709051 0.11899027 0.11953999 0.026362836 -0.08690795 -0.09490253 0.07576667
0.0031986386 0.06484552 0.09056935 0.037769437 0.08798276 -0.08040954 0.11516212 0.015716478
-0.0979349 -0.09739049 -0.08399804 0.11039132 -0.011155024 -0.11297129 0.007960394 -0.048848078
-0.06368077 -0.09629077 -0.08931698 0.04399465 0.026940003 0.041044995 0.005581394 0.07739034
-0.08336601 0.11306284 0.037639797 0.039115474 -0.099069804 -0.07680218 -0.113560766 0.059053123
-0.021052033 -0.12196386 -0.018276125 0.053963736 -0.04297687 -0.115183905 -0.10004406 0.12380448
-0.070111394 0.03886044 -0.12486325 0.12118013 -0.037677288 -0.07695906 -0.09801124 -0.0019812733
-0.07979965 -0.033655882 0.098603174 0.07911056 -0.039316222 0.10351202 0.09525773 0.022965014
-0.11189169 0.018185437 -0.1130036 0.088993 -0.04690373 0.106283695 0.11144057 -0.021817833
-0.11418314 0.12069048 0.085720286 -0.05518706 0.09579407 0.08915758 -0.096943155 0.0019315481
0.04020706 0.06826003 0.09786898 -0.023243338 0.05616702 0.024134934 -0.008125111 -0.051427335
-0.10334852 0.0605568 -0.057366416 0.016292766 -0.0632842 -0.10062826 0.03185627 -0.0044842064
0.057756275 0.101285115 -0.09618136 -0.11823256 -0.08040753 -0.019892767 -0.10108277 -0.025707409
-0.029925153 -0.014756739 0.033032075 -0.092742816 -0.08586724 0.02543889 0.08347981 0.07724084
-0.095813975 -0.0029221028 0.04019986 -0.00029061735 -0.087250814 0.009708747 -0.037996784 0.10185461
-0.005189851 0.08221215 0.075393856 -0.05689141 -0.09939462 0.11222333 0.057393193 -0.03748536
-0.09144129 -0.07915631 0.025100946 -0.06919563 -0.103393316 0.03424853 0.08033337 -0.023880228
0.06385656 0.052307248 0.042698547 0.12173812 -0.075194344 -0.113119826 -0.06658776 0.009147435
0.019059524 -0.026186869 0.0062450618 0.09378472 -0.063525364 0.0040788352 0.07645036 -0.035663933
-0.1175888 -0.011382341 0.06918788 -0.031429186 0.10855241 0.06759581 -0.016514122 -0.07258847
0.051691756 -0.06193894 0.022876233 -0.03543891 -0.10558963 0.086068556 0.085922375 0.07222721
0.112354964 -0.049578726 -0.050729632 -0.110210955 -0.069654524 -0.11408849 -0.07023698 0.04003641
0.11031696 -0.122129306 -0.060170174 -0.06657153 -0.022733644 0.033956975 0.087944165 -0.07799095
0.00024975836 -0.09232664 -0.059925303 -0.028780773 0.0864159 -0.027884096 -0.042718127 -0.053208858
0.017708018 0.013303891 -0.11597961 0.109139666 0.10919067 -0.12179598 -0.1242035 -0.1229253
-0.042798012 0.07099526 0.08366676 0.0879461 0.056865335 0.08011493 -0.053505495 -0.06695035
-0.09964402 -0.115612075 -0.120427 -0.09417312 -0.032093957 0.0803476 -0.124239326 0.06221567
-0.06605503 -0.036110505 0.09921542 0.05673504 -0.11776264 -0.0072066486 -0.04585664 0.05032319
00000000: 88b3 d13c fa91 db3d 04b4 a2bd 4429 11bd
00000010: a0d9 013c 80c2 4b3c d2a1 b1bd 382c f4bd
00000020: ae82 b5bd 9481 62bd ec2e 72bd 56ba c1bd
00000030: 2288 ae3d 30ba bd3d 1899 83bd 228f 803d
00000040: 62d6 91bd e80d d63c c0bf e0bd fc89 fbbd
00000050: 0277 bd3d f09a 6cbd fcd4 983d f415 e73d
00000060: e046 2b3d c879 763d 7c46 a3bd 66da fb3d
00000070: 8014 083c 8049 aa3a 1c43 a83d d2f4 d43d
00000080: 4ac1 bfbd 825c b23d 2cb1 f33d 62d1 f43d
00000090: e0f6 d73c ccfc b1bd 425c c2bd 8e2b 9b3d
000000a0: 40a0 513b bacd 843d 6c7c b93d 20b4 1a3d
000000b0: 4e30 b43d c2ad a4bd 1eda eb3d d8bf 803c
000000c0: 1892 c8bd aa74 c7bd 2a07 acbd d814 e23d
000000d0: 90c3 36bc 7e5d e7bd 506c 023c ec14 48bd
000000e0: 106b 82bd 1834 c5bd d2eb b6bd bc33 343d
000000f0: 48b1 dc3c cc1e 283d 20e4 b63b d47e 9e3d
00000100: ccbb aabd 7e8d e73d 302c 1a3d 8c37 203d
00000110: 1ce5 cabd 764a 9dbd 8c92 e8bd b0e1 713d
00000120: 5075 acbc 30c8 f9bd d0b7 95bc 1409 5d3d
00000130: 8408 30bd 8ae5 ebbd e6e3 ccbd 348d fd3d
00000140: 9096 8fbd 202c 1f3d 4eb8 ffbd 4a2d f83d
00000150: 8053 1abd b69c 9dbd 1eba c8bd 40d8 01bb
00000160: 006e a3bd c0da 09bd 76f0 c93d b804 a23d
00000170: 0c0a 21bd 1cfe d33d 7c16 c33d 2021 bc3c
00000180: 7827 e5bd a0f9 943c 6e6e e7bd f641 b63d
00000190: 201e 40bd 44ab d93d f43a e43d 50bb b2bc
000001a0: dad8 e9bd 922c f73d 1e8e af3d d40b 62bd
000001b0: ae2f c43d 4098 b63d 228a c6bd 002c fd3a
000001c0: 28b0 243d eacb 8b3d 886f c83d d068 bebc
000001d0: 640f 663d a0b6 c53c 301f 05bc 78a5 52bd
000001e0: 64a8 d3bd 680a 783d 0cf9 6abd 6878 853c
000001f0: 269b 81bd 3016 cebd b87b 023d 40f0 92bb
00000200: d891 6c3d 926e cf3d bcfa c4bd ea23 f2bd
00000210: b4ac a4bd 28f6 a2bc 7c04 cfbd 5898 d2bc
00000220: 9825 f5bc 40c6 71bc a44c 073d f2ef bdbd
00000230: 2adb afbd 3865 d03c 76f7 aa3d 7230 9e3d
00000240: 1e3a c4bd c080 3fbb 9ca8 243d 005e 98b9
00000250: 8eb0 b2bd 7011 1f3c 84a2 1bbd 2699 d03d
00000260: a00f aabb d85e a83d 1868 9a3d f806 69bd
00000270: 688f cbbd 58d5 e53d 2015 6b3d 408a 19bd
00000280: 9245 bbbd b41c a2bd 80a0 cd3c 70b6 8dbd
00000290: e0bf d3bd 3048 0c3d d285 a43d 78a0 c3bc
000002a0: 3ac7 823d 2040 563d ace4 2e3d d651 f93d
000002b0: 7eff 99bd 5eab e7bd 2a5f 88bd 20df 153c
000002c0: b822 9c3c d885 d6bc 60a3 cc3b 3412 c03d
000002d0: 9619 82bd c0a7 853b 0292 9c3d 5814 12bd
000002e0: 66d2 f0bd 007d 3abc 60b2 8d3d e4bb 00bd
000002f0: ba50 de3d ac6f 8a3d a048 87bc 44a9 94bd
00000300: bcba 533d b0b3 7dbd f066 bb3c 6428 11bd
00000310: 603f d8bd b644 b03d 12f8 af3d dceb 933d
00000320: 5c1a e63d 1013 4bbd e0c9 4fbd 48b6 e1bd
00000330: 08a7 8ebd 3aa7 e9bd 68d8 8fbd 38fd 233d
00000340: dced e13d ee1e fabd 0075 76bd a856 88bd
00000350: e83b babc 7816 0b3d 121c b43d b8b9 9fbd
00000360: 00f2 8239 c015 bdbd 3c74 75bd a8c5 ebbc
00000370: d2fa b03d 306d e4bc 34f9 2ebd 88f1 59bd
00000380: 6810 913c 90f8 593c b886 edbd 9e84 df3d
00000390: 5c9f df3d 2c70 f9bd 685e febd 42c0 fbbd
000003a0: f84c 2fbd f665 913d 7a59 ab3d 161d b43d
000003b0: a0eb 683d 4c13 a43d 9428 5bbd 441d 89bd
000003c0: 2a12 ccbd 06c6 ecbd 6ea2 f6bd d6dd c0bd
000003d0: f474 03bd 488d a43d 3071 febd dcd5 7e3d
000003e0: dc47 87bd 9ce8 13bd 7431 cb3d 0063 683d
000003f0: 8a2d f1bd c025 ecbb 2cd4 3bbd b01f 4e3d

shared_layers.2.bias f4 [32]
0.03764406 -0.04535626 -0.06482139 0.03472604 -0.0746768 -0.0600847 -0.047142103 0.012419046
0.08388324 0.074831106 0.14171605 -0.04839187 -0.08345015 0.07349498 0.0676825 0.0981959
0.07901506 0.046517663 0.04829429 -0.08258074 -0.02384865 0.1227066 -0.060090497 0.12725891
-0.104171485 0.054336663 -0.08440915 0.19563456 0.017389089 0.12108767 -0.112186566 0.043360684
00000000: a830 1a3d 7cc7 39bd 14c1 84bd e43c 0e3d
00000010: 26f0 98bd 601b 76bd 1418 41bd 4179 4b3c
00000020: faca ab3d 0d41 993d 031e 113e 8e36 46bd
00000030: eae7 aabd 8984 963d 1f9d 8a3d ef1a c93d
00000040: a6d2 a13d 4e89 3e3d 3cd0 453d 1720 a9bd
00000050: 3e5e c3bc 994d fb3d 7421 76bd 2950 023e
00000060: dc57 d5bd 1f90 5e3d b4de acbd 6d54 483e
00000070: 9073 8e3c d0fc f73d 12c2 e5bd f99a 313d

shared_layers.4.weight f4 [8, 32]
0.11033484 -0.13575175 -0.060333084 0.054670446 0.039638348 0.14114384 -0.11694528 -0.025440939
0.051780943 -0.22836818 -0.27708295 -0.13516198 0.0051576574 -0.037656363 -0.13605115 -0.13522136
0.033024777 -0.08438922 -0.05944328 0.0461554 -0.122916214 -0.19707613 0.057426326 -0.011458255
-0.068710655 0.0061828536 0.15372652 0.059215944 -0.19415927 -0.046990186 0.11415513 -0.19312344
-0.012240751 -0.10721069 0.052668914 0.08803448 -0.04437989 0.04076233 -0.008485783 -0.09191881
0.17066693 0.05630571 0.22169793 -0.13882904 0.13811758 -0.015690213 0.13357916 -0.05144695
0.10767183 0.121204324 -0.14104934 -0.050439887 0.14052516 0.07800174 -0.025454907 0.27003688
0.09020095 0.15804166 0.05210516 0.16600133 0.11508144 0.005876661 0.1026668 0.1904967
0.0431731 0.09993136 0.052115694 -0.11992045 -0.009101489 0.039417423 0.16833243 0.04147112
0.053353693 -0.11574509 0.022848465 -0.17711872 0.13956898 -0.020602692 -0.061720055 -0.07462246
-0.035931777 -0.0150744505 -0.073152624 0.025286619 -0.24240631 -0.1873761 -0.09303125 -0.21096922
-0.06448234 0.0043297764 -0.15055004 -0.11641632 -0.16399978 -0.25268957 0.10363285 0.0535775
0.13320574 0.1471144 0.16165693 -0.09260069 -0.0234418 0.1507552 -0.004820946 0.069385156
-0.06552191 -0.29446742 -0.12016598 0.15401919 0.06222746 -0.013243472 -0.18604003 -0.17606096
-0.07280813 -0.12377979 0.06961418 0.07149099 -0.08929567 -0.040415592 -0.10549878 -0.040687777
-0.15126602 -0.28256828 -0.108762786 -0.04359904 0.008301168 -0.05048095 0.08637911 -0.11664521
0.1406803 -0.07279747 -0.11587089 0.09887231 0.13347925 0.03812254 0.026836246 -0.0013712349
-0.07135075 -0.11708745 -0.24367121 0.15193954 -0.17013238 0.10857193 -0.1182003 0.13394634
0.03997538 -0.12909481 -0.105056524 0.01290936 -0.058234334 0.021472123 -0.06641013 -0.08084622
-0.1694643 -0.2550053 0.019507078 -0.22390205 -0.12185078 -0.2704196 -0.06713699 -0.23344734
-0.027570529 -0.10814289 0.08819508 -0.16390005 -0.025325267 0.04724033 -0.081870444 0.027289169
0.16618365 -0.07539833 -0.11466859 -0.0006164506 0.009836041 -0.124077976 0.041415732 0.0378978
-0.1327375 -0.040166374 -0.18032295 -0.03597473 -0.15120584 -0.1766735 -0.11177985 -0.24504781
0.08354093 0.0073786303 -0.15233278 -0.25840452 -0.24398556 -0.14925806 -0.014194474 -0.029547442
0.06116085 0.14683978 -0.110171355 0.027843852 0.14899933 0.034998838 0.07865563 -0.010913825
0.05167155 -0.16411367 -0.05539426 -0.07937692 0.15743653 -0.040460054 0.097673826 0.15974075
-0.11096633 0.021153187 0.16154104 -0.09527623 -0.087474935 -0.12757841 0.09523662 -0.072962776
0.015930096 0.076655 0.070610635 -0.091117956 -0.15874925 -0.07342782 0.1329975 -0.08763626
-0.050298344 0.13229853 -0.06654243 0.102813445 0.112419255 0.0035525116 -0.07535976 -0.118706286
-0.13717689 -0.07953957 -0.28525802 0.031156035 -0.056149464 0.096155085 -0.2524205 -0.049838446
-0.2554455 -0.20416914 0.031328943 -0.009294919 -0.053356376 -0.20057401 -0.02065455 0.04633839
0.08327663 -0.13776979 0.15244901 -0.28734908 -0.08896941 -0.2905598 0.056268793 -0.19048057
00000000: 3cf7 e13d 8202 0bbe d31f 77bd 1eee 5f3d
00000010: d25b 223d 0388 103e 0281 efbd 8469 d0bc
00000020: 4118 543d 59d9 69be d1dd 8dbe e767 0abe
00000030: 9101 a93b 8f3d 1abd fe50 0bbe 7877 0abe
00000040: fd44 073d 41d4 acbd cc7a 73bd 720d 3d3d
00000050: 7fbb fbbd 53ce 49be de37 6b3d 68bb 3bbc
00000060: 2cb8 8cbd 8999 ca3b 7c6a 1d3e 6b8c 723d
00000070: b0d1 46be c878 40bd 2aca e93d 27c2 45be
00000080: 6e8d 48bc 4791 dbbd 5cbb 573d 6c4b b43d
00000090: b0c7 35bd 67f6 263d f407 0bbc ee3f bcbd
000000a0: 50c3 2e3e d1a0 663d c804 633e 3329 0ebe
000000b0: b26e 0d3e c388 80bc fac8 083e 09ba 52bd
000000c0: 0c83 dc3d f939 f83d 3d6f 10be 0e9a 4ebd
000000d0: d4e5 0f3e 60bf 9f3d cf86 d0bc 4642 8a3e
000000e0: 47bb b83d acd5 213e 386c 553d 41fc 293e
000000f0: d1af eb3d 0191 c03b f942 d23d 9111 433e
00000100: 47d6 303d d0a8 cc3d 4477 553d da98 f5bd
00000110: 691e 15bc 2a74 213d 565f 2c3e 9fdd 293d
00000120: 6789 5a3d c30b edbd b42c bb3c 9c5e 35be
00000130: 2ceb 0e3e fac6 a8bc 2bce 7cbd a9d3 98bd
00000140: 332d 13bd d4fa 76bc 0bd1 95bd e225 cf3c
00000150: 5c39 78be 85df 3fbe 2b87 bebd 5108 58be
00000160: 510f 84bd cce0 8d3b ca29 1abe ae6b eebd
00000170: 8fef 27be 8760 81be 763d d43d 1574 5b3d
00000180: 1667 083e 28a5 163e 6589 253e 6ea5 bdbd
00000190: 0509 c0bc 925f 1a3e 07f9 9dbb ce19 8e3d
000001a0: 5a30 86bd 6fc4 96be 9519 f6bd 35b7 1d3e
000001b0: 39e2 7e3d 26fb 58bc 4781 3ebe 5349 34be
000001c0: 6e1c 95bd 4280 fdbd e191 8e3d de69 923d
000001d0: a6e0 b6bd d28a 25bd bf0f d8bd 3aa8 26bd
000001e0: 7be5 1abe caac 90be 06bf debd e894 32bd
000001f0: 9f01 083c 1dc5 4ebd 88e7 b03d afe3 eebd
00000200: 7f0e 103e d716 95bd b84d edbd 917d ca3d
00000210: c9ae 083e 6126 1c3d b0d7 db3c 02bb b3ba
00000220: 5820 92bd 8ccb efbd f284 79be 0a96 1b3e
00000230: 2f37 2ebe f65a de3d 0013 f2bd 3b29 093e
00000240: 39bd 233d 6e31 04be e027 d7bd c881 533c
00000250: 2087 6ebd 4ee6 af3c 0902 88bd b492 a5bd
00000260: 0d88 2dbe 0e90 82be 4fcd 9f3c 9446 65be
00000270: e78c f9bd 7074 8abe 1e7f 89bd d20c 6fbe
00000280: 97db e1bc 057a ddbd 9f9f b43d 6ad5 27be
00000290: ef76 cfbc 147f 413d b1ab a7bd 898d df3c
000002a0: 0c2c 2a3e 716a 9abd 5ed7 eabd 4d99 21ba
000002b0: 5927 213c 981c febd 8ba3 293d b93a 1b3d
000002c0: 57ec 07be 7f85 24bd 94a6 38be 3d5a 13bd
000002d0: b4d5 1abe e6e9 34be d6ec e4bd d0ed 7abe
000002e0: 8217 ab3d 70c8 f13b 20fd 1bbe 994d 84be
000002f0: 5ad7 79be 1bd7 18be f08f 68bc 7a0d f2bc
00000300: cd83 7a3d 2b5d 163e 85a1 e1bd ca18 e43c
00000310: 4893 183e f15a 0f3d 3416 a13d e6cf 32bc
00000320: 8ca5 533d 6a0d 28be 17e5 62bd 5e90 a2bd
00000330: 0b37 213e 71b9 25bd 3709 c83d 1493 233e
00000340: 5142 e3bd 7349 ad3c 046b 253e 2f20 c3bd
00000350: 0f26 b3bd eaa3 02be 6b0b c33d 826d 95bd
00000360: d57f 823c 4cfd 9c3d 4f9c 903d 0d9c babd
00000370: 2a8f 22be 5361 96bd 7f30 083e a47a b3bd
00000380: a305 4ebd 4479 073e 6647 88bd db8f d23d
00000390: 113c e63d 41d1 683b 3856 9abd 481c f3bd
000003a0: 1978 0cbe a4e5 a2bd 570d 92be f13a ff3c
000003b0: fbfc 65bd f5ec c43d 433d 81be 6623 4cbd
000003c0: c1c9 82be b711 51be c752 003d b749 18bc
000003d0: 378c 5abd 4663 4dbe bb33 a9bc 53cd 3d3d
000003e0: f08c aa3d 8613 0dbe 981b 1c3e 6b1f 93be
000003f0: 9835 b6bd 41c4 94be 1b7a 663d 570d 43be

shared_layers.4.bias f4 [8]
0.036561973 -0.1055058 -0.18407565 -0.103879765 -0.21414225 -0.119155146 0.06715516 -0.22504099
00000000: 02c2 153d 6d13 d8bd 547e 3cbe eabe d4bd
00000010: 1b48 5bbe 9d07 f4bd a588 893d 2571 66be
