training/models/8controller_controller_acc0.819_lat0.006_succ20_small5_large8_carb7_cap610_rate0.000269_best_model.pth (torch, 17037 bytes, 6 tensors)

shared_layers.0.weight f4 [64, 3]
000000 ad ef b4 be 29 41 d7 be 85 73 aa be 6a 8a 1d 3f
       -0.35339108 -0.420419 -0.3329126 0.6153933
000010 08 da c9 be f7 9c b6 3e 9a ef 80 3c 69 64 b9 3e
       -0.39424157 0.3566663 0.01573925 0.3620942
000020 e7 f2 e4 be 11 af a6 3d ab 46 ee 3e 8f 8d f2 bb
       -0.4471657 0.0813886 0.4653829 -0.007402129
000030 f0 39 b2 3e ef e8 52 3d 5d 3d 21 3f 98 d9 d0 bd
       0.34809828 0.051491674 0.6298426 -0.10197753
000040 11 80 35 3d 6d b7 99 3e b3 e0 d9 3a 8b a2 17 3f
       0.044311587 0.30022755 0.0016622752 0.59232396
000050 5e 52 fb be 97 d4 18 3c 79 09 a1 3e b7 34 8b 3e
       -0.4908628 0.009328029 0.3145254 0.27188656
000060 d3 d7 51 be 19 ac f3 bc e0 b1 89 be db 44 95 be
       -0.20492487 -0.029745148 -0.2689352 -0.29154095
000070 7b 45 e6 3d ab ac f7 3e 42 ec 79 be 08 6d b4 3c
       0.11243721 0.48373923 -0.24406531 0.022024646
000080 fb 58 13 3e ee c4 a2 3e 48 f3 4c be e4 52 6b bd
       0.14389412 0.3179087 -0.2001468 -0.057452098
000090 72 ab 1d 3f 83 46 df be 58 c5 e3 3e ed be 96 be
       0.6158973 -0.43608484 0.444865 -0.2944254
0000a0 83 1a 08 bf 03 e6 9a be de ab 14 be a9 d5 93 be
       -0.53165454 -0.3025361 -0.14518687 -0.28873947
0000b0 a7 40 39 3e 59 20 63 3e 2e 1e 5f 3e f0 2a 5f 3e
       0.18091069 0.22180308 0.21788856 0.21793723
0000c0 8f e4 c9 3e 29 21 80 be c6 95 24 3e 83 60 a8 3e
       0.3943219 -0.250253 0.16072759 0.32886133
0000d0 22 f8 f9 3e b8 f4 b0 be 5f 63 9c be 07 f8 07 3f
       0.48822123 -0.34561706 -0.30544564 0.53112835
0000e0 6f fe 37 3e bd e3 58 be 50 01 e8 3e aa a0 df be
       0.17968152 -0.21180625 0.453135 -0.43677264
0000f0 e2 ab b5 be d8 28 aa be 21 31 4d 3d 60 51 11 bf
       -0.354827 -0.33234286 0.05009568 -0.56764793
000100 ca a3 1b be f4 ed 5b 3e cb cc 12 3f 94 39 20 3f
       -0.151992 0.2147749 0.5734374 0.6258786
000110 5f eb f6 3e 73 57 61 be 97 79 0b bf e1 45 8c be
       0.4822645 -0.22006015 -0.54482406 -0.27397063
000120 9f 23 22 3e ff 61 df be 72 d5 d7 3e 68 bb 4b 3e
       0.15833901 -0.43629453 0.42155033 0.19895709
000130 ca 7b 00 bd ae 64 c6 be 3f 25 40 be c7 54 dc 3e
       -0.031368054 -0.38748688 -0.18764208 0.4303343
000140 40 76 7b be 56 cf 97 be cc 6e 53 3e 43 56 d1 3c
       -0.24556828 -0.29650372 0.20647734 0.025553828
000150 ea 79 10 bf ab 11 06 bd 30 de 9f 3e 15 b8 fa be
       -0.56436026 -0.032731693 0.31224203 -0.48968568
000160 fe 02 48 be 5f 5a fa be 86 da c8 be a9 76 2e 3d
       -0.19532391 -0.48897073 -0.3922922 0.042593632
000170 f6 ef be be 32 ae 7b bd 06 6d eb be 49 89 66 3e
       -0.3729245 -0.061445422 -0.45981616 0.22513308
000180 ad 12 1a be 31 82 ca bd 43 17 86 bd 8a 4c 90 be
       -0.15046187 -0.09888113 -0.065474056 -0.28183395
000190 51 6d 94 be 00 0d e6 3e 15 50 e9 3e 35 eb dc 3e
       -0.28989652 0.44931793 0.4556891 0.431482
0001a0 bc 08 78 3e 76 b5 9b be 26 e8 cb be 5a 6e 20 be
       0.24222082 -0.3041188 -0.39825553 -0.15667096
0001b0 14 fe 01 bf 75 ce 01 3e b4 ca 08 bf 22 80 c5 be
       -0.5077832 0.12676413 -0.534343 -0.3857432
0001c0 2e c5 5d be 17 6e 10 bc b0 c2 92 3e 85 f8 23 3f
       -0.2165725 -0.00881531 0.2866416 0.64051086
0001d0 e3 46 e2 3e 10 d1 d4 be 37 92 9a 3d 52 76 03 bf
       0.44194707 -0.41565752 0.075474195 -0.5135242
0001e0 26 97 2b 3f 2c 35 98 3e 85 3d 03 bf 46 2b 16 3f
       0.6702751 0.29728067 -0.51265746 0.5865978
0001f0 5c 45 c2 3e e0 c5 00 3f 7b b0 c0 be 94 39 84 be
       0.37943542 0.50301933 -0.37634644 -0.2582518
000200 7c 17 10 be b4 68 b6 bd da 6f 55 bc 24 e2 e1 3e
       -0.14071459 -0.08906689 -0.013027156 0.44117844
000210 82 73 4c be 07 a1 64 3e 1f a4 89 be 5b dd 07 be
       -0.19965938 0.22327052 -0.26883027 -0.13268034
000220 5a ea 12 3f 12 de e1 be 7a 38 10 bf c6 fa e8 3e
       0.5738884 -0.4411474 -0.56336176 0.45503825
000230 3e 85 ca be e6 7b 07 bf 40 6b d5 be 42 4e 0d 3f
       -0.3955478 -0.5292343 -0.41683388 0.55197537
000240 1b 5d a4 3d 63 cf da bd 6c f9 ac 3e 2b 7f 16 3f
       0.08025571 -0.10684087 0.33784044 0.5878779
000250 ff 2a 62 3d 0d cf e3 be 2a 97 82 be e4 37 0c 3f
       0.055216786 -0.44493905 -0.25505954 0.5477278
000260 03 15 d5 3e 53 c8 35 3e b2 e7 af bd fd 9f a5 3d
       0.41617593 0.17752199 -0.08589114 0.08087156
000270 c3 a9 a7 3e e0 45 a5 bd cf 28 1d 3f 6b 1a bf 3e
       0.32746705 -0.08069968 0.61390394 0.37324843
000280 50 d0 c7 be 34 90 35 3e 1e 66 fa be 1d af 0d 3f
       -0.39026117 0.1773079 -0.48906034 0.55345327
000290 7a 67 0c bf 34 0c 63 3d 7d 60 80 bd ab 24 df 3e
       -0.5484539 0.05543156 -0.06268404 0.43582663
0002a0 59 16 9a be f2 9e db bc b3 69 a2 3d 73 37 43 bd
       -0.30095175 -0.02680919 0.07930317 -0.047660302
0002b0 23 68 9d 3e 30 a5 85 be ff bf 01 bf 93 f2 45 be
       0.30743513 -0.2610259 -0.5068359 -0.19330816
0002c0 77 a8 12 3f 4d 12 87 be be 5d 9c be df e2 89 3e
       0.57288307 -0.2638115 -0.3054027 0.269309
0002d0 f2 c0 34 3e 02 b2 eb 3e 5e a9 b2 be d1 87 1f 3e
       0.17651728 0.46034247 -0.34894842 0.15579154
0002e0 1b ce 2f 3e 84 0f dc 3d af e0 82 be ec 87 c0 be
       0.17168467 0.10745147 -0.25562045 -0.376037
0002f0 9d d1 fb 3e b0 37 35 3f bc ac 99 be a3 30 f7 be
       0.4918336 0.707881 -0.30014598 -0.48279294

shared_layers.0.bias f4 [64]
000000 0d 27 08 3e 3b 58 b2 3e 38 20 1a 3f 83 62 4d 3e
       0.13296147 0.3483294 0.6020541 0.2005711
000010 77 5f 23 3f 45 e7 d2 be b1 b0 da 3e c2 c4 07 3f
       0.6381754 -0.4119207 0.4271293 0.53034604
000020 e8 50 05 bc e5 5f c9 bc f6 53 10 3d 4f 6e ca be
       -0.008136965 -0.024581859 0.03523632 -0.39537284
000030 44 d5 92 bd a8 3f f3 3e ed 9a e2 bd e7 ef 04 bf
       -0.071695834 0.47509503 -0.11064706 -0.5192856
000040 63 d3 52 3e f8 88 43 be a0 d0 e7 be fb 4c 01 bf
       0.2058845 -0.19095218 -0.45276356 -0.5050809
000050 e9 80 fb 3d c6 65 2e bd 83 23 f7 bd 4e d7 e1 be
       0.12280447 -0.042577527 -0.1206732 -0.44109577
000060 8a 84 d9 3e 31 d2 97 be 28 60 8b 3e c4 d1 ff 3d
       0.42483932 -0.2965255 0.272218 0.124911815
000070 9b ca c1 be 3c b0 a3 3e 92 ac 79 3e 89 a7 13 be
       -0.37849888 0.31970394 0.24382237 -0.14419378
000080 93 f8 0e bf 17 68 b6 b9 f3 4c 0f 3e 25 8d 1b be
       -0.55848044 -0.00034791298 0.13994198 -0.15190561
000090 c1 e2 b2 3e 81 96 a0 3e 73 95 6e 3e 16 36 b7 be
       0.34938625 0.31364825 0.23299198 -0.35783452
0000a0 20 7e 71 be 62 3c 2a 3f 59 af 93 3e 04 de 39 be
       -0.23583269 0.66498387 0.28844717 -0.18151098
0000b0 77 2b e3 be a5 cd 14 3f de 46 2f 3e 54 21 85 3e
       -0.443691 0.5812629 0.17116877 0.2600199
0000c0 fb 60 4e be df 1e ff 3e 18 7e 87 3e e2 a5 67 be
       -0.20154183 0.4982824 0.2646339 -0.22621873
0000d0 71 67 f8 3e 6b ee 24 3f 6f fb 96 be fe a0 1e 3e
       0.4851642 0.64426297 -0.29488704 0.15491101
0000e0 e8 25 4c be c1 9b ba 3e ae 81 80 be e2 09 13 3e
       -0.19936335 0.36446956 -0.25098938 0.14359239
0000f0 d6 82 04 3f a2 f9 fa 3c 6e 96 07 bf b5 ed fb bc
       0.5176214 0.030636612 -0.5296391 -0.030752996

shared_layers.2.weight f4 [32, 64]
000000 bc e3 14 bd 44 f8 a6 3b 50 07 d0 3c 0f f3 e3 3d
       -0.036349997 0.0050955135 0.025394112 0.11130344
000010 3e e8 13 3e 94 b0 50 3d ad 62 38 3e 22 9f 46 3e
       0.14444062 0.050949648 0.18006392 0.19396642
000020 28 2e 0d bd 18 68 62 bd fe d8 fa bd 88 00 0e 3d
       -0.034467846 -0.055275053 -0.12248419 0.034668475
000030 ff 96 8a 3e 45 24 ba 3d 08 d4 5d 3d 8c 4b d8 bd
       0.27068326 0.09088949 0.054157287 -0.105612844
000040 76 c6 e9 3d 21 29 9d 3d 6c 73 6b bd e6 26 80 bd
       0.114148065 0.0767386 -0.05748312 -0.06257419
000050 68 27 6c 3d e0 ab eb 3c 42 1a 58 3e fe 08 87 bd
       0.05765477 0.02876848 0.21103767 -0.06593512
000060 f8 0a 76 3e ac 3f 39 bd 9e 2f 7c 3e e0 d1 d2 bd
       0.24027622 -0.045226738 0.2462754 -0.10293937
000070 de fd b6 bd 70 d7 99 bd 2c 9f 71 bd a6 1f 90 bd
       -0.0893514 -0.075117946 -0.05898969 -0.070372865
000080 28 27 cb bd e0 a2 c2 3b 7d f2 29 3e ce 36 dd bd
       -0.09919578 0.0059398264 0.16596408 -0.10801469
000090 d0 e2 06 3d 68 9c cb 3d 12 2f 88 3d 00 bd 01 bc
       0.03293115 0.099419415 0.06649603 -0.007918596
0000a0 d9 8f 2f 3e fc 5d 30 3d 7a 31 98 3d fe 49 83 3d
       0.17144717 0.04305838 0.07431312 0.06410597
0000b0 14 75 e8 3d 6e e1 db 3d a6 0a c7 3d 3e e9 a1 3d
       0.11350456 0.10736357 0.09718828 0.079058155
0000c0 08 9b 3b bd 65 d9 30 3e 78 6f 5a 3d f4 e7 00 bd
       -0.045802146 0.1727043 0.05332896 -0.031471208
0000d0 ab 06 b1 3d 98 4e fa 3d 1c 53 cf 3d 64 ec b1 bc
       0.0864385 0.12222022 0.10123274 -0.021719165
0000e0 dc 36 65 3d 50 df 9a 3d e0 7b ef bd 30 a8 1e 3c
       0.05596052 0.07562125 -0.11693549 0.009683654
0000f0 46 99 5a 3e a7 03 fa 3d 58 64 99 bd 38 54 3f 3e
       0.21347532 0.12207728 -0.07489842 0.1868447
000100 68 32 ed 3c ba 72 96 3d 9c 17 e0 3c 40 33 af bd
       0.0289547 0.07346101 0.027355008 -0.08554697
000110 20 6f 2e bd b4 ea 62 3d 17 b7 0f 3d 38 74 ae 3d
       -0.042586446 0.05539961 0.035086717 0.08518261
000120 00 03 20 ba e6 8b d0 bd d0 af 6a 3d 7e d8 a2 bd
       -0.00061039627 -0.101829335 0.057296574 -0.07951449
000130 80 5e 80 bd 6d e6 9d 3d 8a 3b 99 3d 38 be 9f 3d
       -0.062680244 0.07709966 0.07482059 0.07799953
000140 91 f7 af 3d e3 d6 ae bd 08 aa c9 bc 20 18 4f 3c
       0.085921414 -0.0853708 -0.02461721 0.012640029
000150 90 18 e2 3c 72 0b c8 3d 27 b6 a5 3d 18 e2 5a 3d
       0.027599603 0.09767808 0.080913834 0.053438276
000160 92 b8 59 bc c0 ac 99 bd c4 b3 9c bd 93 a8 86 bd
       -0.013288634 -0.075036526 -0.07651475 -0.06575122
000170 de ae db 3d a0 34 98 bb c0 ea f5 3b 18 cc d6 bd
       0.10726713 -0.0046449453 0.007504791 -0.104881465
000180 18 b5 5d bd c0 39 c7 3b 5f cb 81 bd 80 ab 86 3d
       -0.054127783 0.0060798824 -0.06337618 0.0657568
000190 90 42 8e bd 20 08 de 3b 56 38 10 bd 60 3e e0 bc
       -0.069462895 0.006775871 -0.035209976 -0.027373493
0001a0 53 7c a2 bd b6 e0 2d bc cc b7 09 3d 66 1d ba 3d
       -0.07933869 -0.010612657 0.033622548 0.090876386
0001b0 00 5e 10 3c 97 f4 f3 bc c0 9c d5 bd 2a 2b d7 bd
       0.008811474 -0.029779715 -0.10430288 -0.1050628
0001c0 38 7f 92 3d b3 80 83 3c 5a 10 1d 3d f0 b1 9b 3c
       0.07153171 0.01605258 0.038345672 0.019005746
0001d0 61 16 d9 3c 82 de b8 bc 40 34 9b 3b 50 8c f7 bb
       0.026499929 -0.022567037 0.0047364533 -0.0075545684
0001e0 46 20 ef 3d ff fb 61 bd d8 c9 e6 3d c4 ce fa bd
       0.116760775 -0.055171963 0.112689674 -0.12246469
0001f0 7c 48 87 bd a5 39 60 bd dc 8e ca 3d a9 4d da bb
       -0.06605622 -0.054742474 0.098905295 -0.00666209
000200 6e c6 e2 3d b6 aa 81 3d 04 92 36 3e ed de 27 3e
       0.11073004 0.06331389 0.17829138 0.16393633
000210 22 a4 33 3e b0 cd 7f bd 25 bd d9 bc d2 20 0f 3e
       0.1754308 -0.06245202 -0.026579449 0.13977364
000220 7c ad f5 bd ec b9 7d bd 50 7b 95 bc 08 c7 71 bd
       -0.1199598 -0.061944887 -0.018247277 -0.0590277
000230 28 93 4f 3d 16 e5 44 bc dc d3 e8 bd 18 65 2b 3d
       0.05067745 -0.012017509 -0.11368534 0.041844457
000240 b0 c3 41 3b c3 fa da 3d 5c be 6b 3d e0 98 db bc
       0.0029566102 0.1069236 0.057554588 -0.026806295
000250 ce b5 dc bd c0 a5 54 bb a9 d4 83 3d 9a bd 9e bd
       -0.10776864 -0.0032447428 0.06437046 -0.077510074
000260 6a e3 0c 3d 98 f1 34 bd 42 e6 9f 3d 15 f2 ba bd
       0.034396566 -0.044175714 0.0780759 -0.09128205
000270 80 81 6e bc 70 4b 0c 3d 66 50 9c 3d 54 5b 26 3d
       -0.014557242 0.03425163 0.07632522 0.04061444
000280 c0 73 b9 bc b4 b3 13 bd e1 5f 29 3e c0 7f b6 3c
       -0.022638202 -0.03606005 0.16540481 0.022277713
000290 d4 ff 99 3d f8 cb d7 bd 16 88 1d 3e 10 59 47 bc
       0.075194985 -0.10536951 0.15383944 -0.01216723
0002a0 3a 37 3c 3c 16 2d 1f 3c 26 f5 cc bd 56 87 a3 3d
       0.011487776 0.009715339 -0.10007696 0.07984798
0002b0 18 dc ff bd 94 d2 e1 3d 40 6f 93 bd 58 dc b9 bc
       -0.124931514 0.11026493 -0.07198954 -0.022688076
0002c0 00 eb df 3a 9e 1f fd bc 9c 77 c1 3d 60 85 f7 bc
       0.0017083585 -0.030898865 0.09446642 -0.030214965
0002d0 26 31 ef 3d 4e ea 2c 3c e0 bd 97 3d 5a 98 90 3d
       0.11679296 0.0105539095 0.07409263 0.07060309
0002e0 44 b7 7b bd 04 48 df 3d e0 80 f7 3b 9c cd b2 bd
       -0.061454073 0.10902408 0.007553205 -0.08730623
0002f0 9f 92 d3 3d e0 5c 90 3d ac d6 58 3d 3a ec cf 3c
       0.103307 0.070489645 0.052939102 0.025381196
000300 60 71 f6 bd 88 9d 1f 3d 38 2e 94 3d 82 33 d3 bd
       -0.12033343 0.038968593 0.07235378 -0.10312559
000310 40 ca 35 3b a4 31 b0 bd 10 e9 0d bc d8 7e 26 bd
       0.0027738959 -0.08603218 -0.008661523 -0.04064831
000320 ea 82 8e bd 80 e9 1b 3b 00 b6 8e bb a6 ef ee 3d
       -0.069585636 0.00237903 -0.004355192 0.11666803
000330 96 8e 9b bd 68 85 a2 bc 90 ff e7 3c e6 82 d6 3d
       -0.075955555 -0.019839004 0.028320104 0.10474186
000340 b0 f4 88 3c a0 41 32 3c 4e a0 ad bd bc fb 51 bd
       0.016718239 0.010879904 -0.08477841 -0.051265463
000350 d0 8b c6 bd 0a a5 88 3d 6c 1a ca bd bc 29 b4 3d
       -0.09694636 0.06672104 -0.09868321 0.08797023
000360 d4 c7 c6 3d 46 c4 a9 bd 80 f1 1b 3d c2 fd 82 3d
       0.09706083 -0.08289389 0.03807211 0.06396057
000370 d8 ad bb 3d 8c 0b 8b bd ee 47 9f 3d ee 28 b3 bd
       0.091640174 -0.06789312 0.077773914 -0.08748041
000380 c8 19 8e bd 1c f9 99 bd 84 9d 72 3d 48 55 89 bd
       -0.06938511 -0.07518217 0.05923225 -0.06705719
000390 c4 28 6f 3d 98 5b ea bd 12 a4 98 3d b4 c8 12 3d
       0.058388487 -0.11443251 0.07453169 0.035835937
0003a0 dc d0 dc 3d 0c b5 4b bd 9e 43 b8 bd e0 69 f3 3b
       0.10782024 -0.049733207 -0.08997272 0.007428393
0003b0 3c 37 3f 3d b0 f5 df bc 58 30 bf 3d d4 0e d7 3d
       0.046683535 -0.027338833 0.09335393 0.10500875
0003c0 f0 22 b2 3c b0 53 d5 bc 60 c0 e4 3b 16 07 85 3d
       0.021745175 -0.026040882 0.0069809407 0.06495492
0003d0 a0 77 7b 3c 7c 56 9b bd c0 65 59 bb 98 0e 7d 3d
       0.015348345 -0.07584855 -0.003317222 0.061781496
0003e0 0e 30 97 bd 24 98 f2 bd 18 d7 89 3d e0 1a 7c bc
       -0.073822126 -0.11845425 0.06730479 -0.015387267
0003f0 c4 0e 71 bd f0 a4 21 3c f4 5e 26 bd 2a fd f2 bd
       -0.058851972 0.009865984 -0.040617898 -0.118646935

shared_layers.2.bias f4 [32]
000000 14 51 ec bc a7 86 6e bd 38 1a 3f 3e d8 b1 fd bc
       -0.028847255 -0.058233883 0.18662345 -0.030968592
000010 7c a5 87 bd ea ee 0b 3e c4 96 29 bc f3 e0 31 3e
       -0.066233605 0.13665357 -0.010350887 0.17370968
000020 36 42 10 3d 58 32 cf 3c 6e 51 e2 3d e6 8c 5a 3d
       0.035219394 0.02529256 0.11050688 0.053357027
000030 ca 68 91 bd 94 1c 6c bd a9 98 cc bd 59 57 9f 3d
       -0.07100065 -0.05764444 -0.09990055 0.07780332
000040 26 26 b9 bd 18 bf b9 3c df b6 85 3e 32 9f 45 3e
       -0.09040479 0.022674128 0.26116082 0.1929901
000050 a8 09 21 3e b8 17 43 3d 1d 46 f0 bd 51 ee 06 3e
       0.1572634 0.04763004 -0.11732123 0.13176848
000060 97 c6 10 3e b1 e7 c4 bd a4 f3 07 3d a2 c9 ab bd
       0.14138256 -0.09614504 0.03319134 -0.08388068
000070 8c 08 35 3d ac 23 45 3e 2e b2 c6 bd 24 85 97 3c
       0.044197604 0.19251889 -0.09701954 0.018496104

shared_layers.4.weight f4 [8, 32]
000000 da 01 1b be 2e 14 1f be 23 e6 9c bd e3 4d 0a be
       -0.15137425 -0.15535042 -0.076610826 -0.13506274
000010 2e 39 69 3d 13 ee 1b be c9 20 80 be 7c fc 06 be
       0.056939296 -0.15227537 -0.25025013 -0.13182253
000020 01 f6 12 3d 0c 99 80 bd cd cb cc 3b 59 30 d5 bd
       0.03587914 -0.062791914 0.006249881 -0.10409612
000030 8d 0b cb 3d e2 95 9c 3a b4 ed be 3d 5a 7d 17 be
       0.099143125 0.0011946524 0.09322682 -0.14793912
000040 14 aa 90 3d 14 49 8a 3c ca 62 47 bd 93 05 89 be
       0.0706369 0.01688055 -0.048678197 -0.26762065
000050 ce 93 87 be de ff 11 3c c5 77 fc 3d d5 e4 29 be
       -0.26479954 0.008911101 0.12327532 -0.16591199
000060 52 e3 66 bc b9 e0 ce ba ec 53 1e be e0 68 ac bd
       -0.014092283 -0.0015783525 -0.15461701 -0.08418441
000070 4e fd c9 bb 02 a1 b2 bd 27 0a 44 bd e2 44 de 3c
       -0.0061642295 -0.08722116 -0.047861245 0.027132455
000080 0d 48 2c 3e 3b d2 7f bd c2 89 72 3e 01 d7 23 3e
       0.1682436 -0.06245635 0.23685363 0.15999986
000090 d7 33 d0 3d c1 da 13 3e 6c d0 f0 3d 0c 52 89 3e
       0.10166138 0.14438917 0.11758503 0.2682041
0000a0 97 8a 66 bd 89 4d e0 bc 54 bd bf bb ef fc d5 bd
       -0.056284513 -0.027380722 -0.005851427 -0.10448634
0000b0 06 c9 f3 3d 96 7a 54 bd 33 d3 a1 bd 8c 20 83 3e
       0.119035766 -0.05187472 -0.07901611 0.2561077
0000c0 e3 51 92 bd 51 ff 00 3e 0f df b8 bc 79 e8 7d 3e
       -0.07144525 0.12597395 -0.0225673 0.24795713
0000d0 be b6 76 3e b3 a5 2a be 6c 33 86 bd fc 65 18 3e
       0.24093148 -0.16664772 -0.06552777 0.14882654
0000e0 3d 8d 47 3d 6c 38 1a be 20 d5 a2 bd bf 35 f1 3d
       0.04871868 -0.15060586 -0.079508066 0.117778294
0000f0 5d 4f 15 3a 43 94 6d 3e c1 90 53 3d 93 8d 9c 3c
       0.0005695725 0.23201089 0.05165172 0.019110477
000100 4d 92 f2 bd 88 a9 f4 3b ed ae 9e bd 77 03 15 3e
       -0.11844311 0.0074664988 -0.07748208 0.14552103
000110 65 e5 33 3e 83 a5 d4 bd e7 4b 4e be 1f da 02 b9
       0.17567976 -0.10383131 -0.20146142 -0.00012479023
000120 12 69 39 be 66 c5 a1 3d cd ab 14 3d 96 1c 89 3d
       -0.18106487 0.07898979 0.036296654 0.066949055
000130 72 a5 d6 bd fa 11 0d bc 5f 6b 3a be 3a b9 3b bd
       -0.10480775 -0.008610243 -0.18205021 -0.045830943
000140 6c 18 b4 3c 13 72 16 be c1 a4 6a be af 4b b6 3c
       0.021984302 -0.14691953 -0.22914411 0.022252886
000150 34 32 31 be a6 33 17 bc 0e 89 2a bd c0 ab 89 be
       -0.17304307 -0.009228623 -0.04163461 -0.26888847
000160 cb 84 c8 3a 07 74 89 3d b9 c0 86 bd ba c1 ca bd
       0.0015298364 0.067115836 -0.06579728 -0.09900232
000170 2e 17 14 be 18 7c 6a be ef 16 30 be a7 ea 0b be
       -0.14461967 -0.228989 -0.17196248 -0.13663732
000180 d2 f1 62 3c 56 bc a8 3d 2f 3e 62 be a5 b1 fb bd
       0.0138516 0.08239047 -0.22094034 -0.122897424
000190 58 8b 06 be 72 d6 fe bd 60 23 35 3c 1e 33 75 be
       -0.13139093 -0.12443246 0.011055797 -0.23945281
0001a0 f8 78 0d be 98 39 83 bd eb 8c f8 3c 74 46 23 3e
       -0.13815677 -0.064074695 0.030340632 0.15944844
0001b0 81 ec 87 3d 05 52 ab 3d 84 c0 61 bc b3 2a 44 be
       0.066369064 0.08365253 -0.013778809 -0.19156913
0001c0 04 9e 1d be fb 9a 47 bc a5 2b 69 be 10 29 53 be
       -0.1539231 -0.012182946 -0.22770555 -0.20621133
0001d0 3e e4 09 be af cc e4 3d 15 42 2e be 23 24 01 be
       -0.13465974 0.11171853 -0.17017396 -0.12611441
0001e0 85 22 29 be c1 86 1b bd 40 1e 70 3d db 31 21 be
       -0.16517074 -0.03797031 0.0586226 -0.15741675
0001f0 90 cd 20 3e a5 95 84 bd e9 f7 b4 bd 1b e8 2b bd
       0.15703416 -0.06473855 -0.088363476 -0.0419694
000200 6f e7 da bd b5 25 38 bd 14 e6 4c be 29 1b 19 be
       -0.10688674 -0.044957835 -0.20009643 -0.14951767
000210 5a 03 0f 3e ee bd 42 be af a7 80 bd 04 86 e0 3b
       0.13966122 -0.19017765 -0.06281983 0.0068519134
000220 93 a6 8a 3d f6 a0 7b 3d 57 2b b5 bd d9 94 00 3e
       0.06770053 0.0614328 -0.08846157 0.12556781
000230 55 a7 e1 bd 3d 82 8d bd d7 2c 79 bd 7e 97 67 3a
       -0.11018244 -0.069096066 -0.06083378 0.0008834525
000240 e2 3f f4 bd 52 55 0a 3e 7c 8b 00 be 2d bc 92 bd
       -0.11926247 0.1350911 -0.12553209 -0.07164798
000250 00 4e 7d bd 8a eb 7c bd 70 04 c1 bc 61 e9 fa bd
       -0.061841965 -0.061748065 -0.023561686 -0.12251545
000260 3b 08 73 be 1f 13 48 bd 2e 24 2c 3e a0 96 fa 3d
       -0.23733608 -0.04884636 0.16810676 0.12235761
000270 cf cf 19 3e ae 2a 8d be 1b dc 87 bc 8a 27 0e be
       0.15020679 -0.27571625 -0.016584447 -0.1388227
000280 eb 4f 61 be 2b 25 0c be 6f a2 31 3d b9 a8 76 bc
       -0.22003143 -0.13686053 0.0433678 -0.015054875
000290 90 c0 8b 3d 61 c4 26 be f9 3a cb 3b 4c ea ab bd
       0.06823838 -0.1628585 0.0062020984 -0.08394298
0002a0 b8 b1 fc 3d 46 a1 1b be e4 96 10 3e fd 7f f6 3c
       0.12338585 -0.1519824 0.1412006 0.030090326
0002b0 27 5e 31 be b8 52 1f be 94 bc 03 be 04 f1 20 bd
       -0.17321073 -0.15558898 -0.12864906 -0.03929235
0002c0 f7 84 23 bd 34 67 33 be 3e 7f 0a be c7 c8 85 be
       -0.039921727 -0.17519838 -0.13525102 -0.26129743
0002d0 dc 0e 12 3d b5 34 a2 bd c0 42 e6 3d b6 b5 ee bc
       0.035658702 -0.07920209 0.112432 -0.02913938
0002e0 e2 3b 84 be 31 e2 96 bd f8 70 1f be 4f 9a ef bd
       -0.25826937 -0.07367361 -0.15570438 -0.11699354
0002f0 09 ed 1f 3e bc 38 2f be 78 fb da bd a6 57 29 bd
       0.15617765 -0.17111486 -0.10692495 -0.041343354
000300 c9 a1 ab bd 5e 9b 4a bd d0 92 a7 bc a1 e7 23 bd
       -0.083804674 -0.049464576 -0.020455748 -0.04001582
000310 05 b8 21 3d c1 b3 f1 bd ff 1d c1 bc fd 21 a8 bc
       0.039482135 -0.118018635 -0.023573874 -0.02052402
000320 c1 05 7d 3d ee f1 6e bd 1a ae 9b 3c dc ae 8f bd
       0.061773065 -0.05833619 0.019003917 -0.07015774
000330 1b 83 9b bd 32 8e 0f bd 3d 3e 9f 3d 9e 98 60 bc
       -0.07593366 -0.035047717 0.07775543 -0.013708262
000340 cb 6b 88 bd 26 72 32 be 85 7b 87 3d 7d be eb bd
       -0.06661185 -0.17426357 0.06615356 -0.11510942
000350 6c 36 9d 3d 28 7f fb 3d c8 b5 9b 3d eb 74 ff bd
       0.07676396 0.122801125 0.076030314 -0.12473472
000360 6a ef 06 3e d9 ca 3f bd 45 7b 0b 3e cf 80 1a be
       0.13177267 -0.04682431 0.13621242 -0.15088199
000370 58 24 25 3d 8c a8 21 3e e5 94 cb 3d 27 d8 b0 3d
       0.040317863 0.15786952 0.09940509 0.08634978
000380 fa 92 14 be 6f eb f5 3d d8 3b 13 bd b9 b3 a5 bd
       -0.14509192 0.12007796 -0.035945743 -0.0809092
000390 56 46 84 bd 00 20 7b be bc 8a b1 be 15 49 41 be
       -0.06458728 -0.24523926 -0.34676158 -0.18875535
0003a0 2d 76 4a 3d 49 a9 f4 3d 8f 7b 55 bd 6f 29 07 3d
       0.049429107 0.11946351 -0.052119788 0.0329985
0003b0 0d f1 19 be 4e 75 31 3e de a5 5a 3b 6d 74 eb bd
       -0.1503336 0.17329904 0.0033363025 -0.11496816
0003c0 8e 70 e7 3d c2 fc 01 3e 28 19 ac be 3c cc d2 bd
       0.11300765 0.12694076 -0.33612943 -0.10292861
0003d0 9d bf 50 be 97 9c 05 bd 5e 25 2e be a4 bb a4 be
       -0.20385595 -0.03262004 -0.17006442 -0.32174408
0003e0 ab b1 0e be fd ef a4 3d e8 42 7d bd 0d 12 5b 39
       -0.13934962 0.08053587 -0.061831385 0.00020892192
0003f0 9a 24 16 3d 8e 73 77 bd 7c db a1 3d 5b 1e 16 3e
       0.036656 -0.060412936 0.079031914 0.14660017

shared_layers.4.bias f4 [8]
000000 0c 18 d4 bc 8a 9d 73 3e c0 59 f3 bd f0 9e 23 bb
       -0.025890373 0.23790565 -0.11882353 -0.002496656
000010 11 5e 49 bb fc 91 82 3d d2 28 09 3e 74 1b 74 be
       -0.0030726234 0.063755006 0.13394478 -0.23838598
