training/models/controller_controller_acc0.819_lat0.006_succ20_small5_large8_carb7_cap610_rate0.000269_best_model.pth (torch, 18445 bytes, 6 tensors)

shared_layers.0.weight f4 [64, 3]
0.563805 -0.2408687 -0.04312354 0.1672553 0.060872037 -0.15817115 -0.08148122 -0.05459345
-0.30026644 0.050210115 0.13802001 0.26876095 0.58746487 0.08537183 0.52649647 0.5653503
0.61246693 0.41944793 -0.28692985 0.59946954 0.3951561 0.082684495 0.54102147 0.527404
0.4659138 -0.12996289 -0.18193707 0.5008944 0.31372714 -0.043588784 -0.29253444 -0.15506808
-0.17377685 0.37773383 0.46314722 0.40121344 -0.22777702 0.3055908 0.49107662 0.3526327
-0.18456943 0.2907461 0.3670605 -0.3002177 -0.15316415 0.57573295 0.19629934 0.16492926
-0.153973 0.65258294 0.09095739 -0.5096884 -0.51793855 0.17015292 -0.021011557 0.46738887
0.3222707 -0.05452439 0.21943232 0.5391585 0.20276894 0.3346991 0.3423289 -0.49980757
0.37516883 0.31467012 0.5616351 0.07724934 0.10940605 -0.116777144 -0.19875646 0.04240808
-0.48845714 -0.548317 0.37183988 0.34127602 0.3925599 0.49969366 -0.35825792 -0.53794265
0.4664178 -0.105299436 -0.08403801 -0.34483886 0.60419625 0.116164096 0.20491469 -0.12026167
0.6949878 -0.26113042 0.4104163 0.38401234 0.19502597 0.53670216 -0.10813981 0.47249526
0.5613048 -0.14862615 0.15011358 0.15448022 0.11852093 0.581484 0.6162511 -0.42472354
0.4080471 0.60468787 -0.09732105 -0.20458929 -0.09690357 -0.42723486 0.13883008 0.50870436
0.6849366 0.25869653 -0.054972176 -0.083670765 0.52182746 -0.4464899 -0.4352067 0.41526246
-0.1386521 -0.41313514 -0.42355105 0.64375746 0.6219339 -0.017455341 0.006949725 -0.41347238
0.48672652 -0.5727699 -0.2523703 0.078003466 -0.40337807 0.48525834 -0.40936768 -0.075900294
0.41527525 0.040174417 -0.3464657 -0.42307338 -0.57386166 -0.5520047 -0.05339745 -0.5182794
-0.2190226 -0.11248787 0.0042736516 -0.26190132 0.5664721 0.2903811 -0.15324372 -0.45379856
0.16072561 0.54313105 0.6693893 0.49474666 0.70322794 -0.09241151 0.117593415 0.044057347
-0.2541115 -0.09563842 0.45085898 0.028821286 0.004236349 0.08533325 0.123325154 -0.46872276
0.49040836 -0.26118484 0.38394773 0.43928885 0.31103075 0.56214976 -0.44876975 -0.57001257
0.1509532 0.62585074 0.54853565 0.13351391 0.5118447 -0.3214016 0.07480335 -0.007645482
0.452682 0.14727786 0.53361547 -0.2534284 0.0054653673 -0.4933245 -0.53878105 -0.044813395
00000000: 8655 103f 49a6 76be 4fa2 30bd f944 2b3e
00000010: f554 793d 9ef7 21be a0df a6bd 629d 5fbd
00000020: 86bc 99be 1fa9 4d3d 1e55 0d3e 099b 893e
00000030: 1964 163f 6dd7 ae3d 79c8 063f ccba 103f
00000040: a2ca 1c3f e1c1 d63e 78e8 92be d676 193f
00000050: e651 ca3e 7d56 a93d 6280 0a3f f303 073f
00000060: 418c ee3e fe14 05be b64d 3abe 9e3a 003f
00000070: d8a0 a03e 278a 32bd 13c7 95be 2bca 1ebe
00000080: 8ff2 31be 5466 c13e a221 ed3e d96b cd3e
00000090: 613e 69be 6676 9c3e 656e fb3e 468c b43e
000000a0: c5ff 3cbe acdc 943e 5bef bb3e 22b6 99be
000000b0: 10d7 1cbe 3c63 133f b202 493e 37e3 283e
000000c0: 19ab 1dbe ad0f 273f de47 ba3d f07a 02bf
000000d0: 9f97 04bf 913c 2e3e 6e20 acbc 984d ef3e
000000e0: aa00 a53e f754 5fbd deb2 603e 4b06 0a3f
000000f0: a9a2 4f3e ae5d ab3e bc45 af3e c7e6 ffbe
00000100: 2116 c03e 711c a13e 51c7 0f3f e734 9e3d
00000110: 4710 e03d db28 efbd d086 4bbe 18b4 2d3d
00000120: 0e17 fabe 815e 0cbf cc61 be3e bbbb ae3e
00000130: 9cfd c83e d9d7 ff3e 956d b7be 9cb6 09bf
00000140: 50ce ee3e 3ba7 d7bd 1f1c acbd b88e b0be
00000150: 9bac 1a3f 71e7 ed3d 28d5 513e c04b f6bd
00000160: b8ea 313f e3b2 85be 1622 d23e 449d c43e
00000170: e3b4 473e 5065 093f 6878 ddbd e6ea f13e
00000180: acb1 0f3f 7431 18be 60b7 193e 1030 1e3e
00000190: 1abb f23d 23dc 143f a2c2 1d3f 5d75 d9be
000001a0: 8deb d03e d3cc 1a3f 4250 c7bd db7f 51be
000001b0: 6175 c6bd 87be dabe 7929 0e3e 733a 023f
000001c0: 0158 2f3f df73 843e 812a 61bd 945b abbd
000001d0: 7c96 053f 539a e4be 6ad3 debe 489d d43e
000001e0: d1fa 0dbe 7386 d3be afdb d8be 4acd 243f
000001f0: 0f37 1f3f 81fe 8ebc 85ba e33b a7b2 d3be
00000200: 3834 f93e 0ca1 12bf ae36 81be 48c0 9f3d
00000210: 9287 cebe c873 f83e a498 d1be 9d71 9bbd
00000220: f59e d43e ee8d 243d f463 b1be 139d d8be
00000230: 99e8 12bf 2e50 0dbf 49b7 5abd f5ad 04bf
00000240: 7647 60be 0a60 e6bd fd09 8c3b ee17 86be
00000250: 5104 113f d5ac 943e eceb 1cbe 4958 e8be
00000260: 4195 243e a30a 0b3f 195d 2b3f 6f4f fd3e
00000270: bf06 343f 3f42 bdbd d1d4 f03d 7a75 343d
00000280: e71a 82be 13de c3bd fdd6 e63e 9e1a ec3c
00000290: 12d1 8a3b 33c3 ae3d e691 fc3d 6efc efbe
000002a0: ce16 fb3e 05ba 85be cc94 c43e 78ea e03e
000002b0: 6c3f 9f3e 0ce9 0f3f 26c5 e5be 58ec 11bf
000002c0: 7a93 1a3e c137 203f d56c 0c3f dfb7 083e
000002d0: 4108 033f c08e a4be 8032 993d f486 fabb
000002e0: efc5 e73e 02d0 163e 069b 083f 5ec1 81be
000002f0: d316 b33b 0795 fcbe 8eed 09bf 408e 37bd

shared_layers.0.bias f4 [64]
0.5444301 -0.446842 0.60601574 0.38046676 -0.07798758 0.3140845 0.3916292 0.29658496
0.20662305 -0.123923995 0.15315218 -0.26799908 0.66891265 0.11440225 0.21604337 0.13100776
0.38372436 -0.53879356 0.47422755 0.15778267 0.31001216 0.14831561 -0.051209312 -0.018693699
0.527151 0.019225964 -0.2603696 0.59645617 0.3910999 0.26525536 0.14630938 -0.100633726
0.26268467 0.2193576 0.019292815 0.4883706 -0.14692052 0.018172747 -0.48996815 -0.34383395
0.06192204 -0.07057367 -0.4950874 -0.16652986 -0.4197103 -0.3905779 0.16013247 -0.38566563
-0.13796026 -0.44829312 0.29780567 0.42422023 -0.16787557 -0.07280535 0.2500574 0.21186098
-0.3872857 0.31923884 0.15465465 0.23881464 -0.44911462 -0.4348221 0.3645096 -0.02680575
00000000: c55f 0b3f 7ac8 e4be d923 1b3f 8acc c23e
00000010: f4b7 9fbd afcf a03e 9f83 c83e fcd9 973e
00000020: fe94 533e ddcb fdbd edd3 1c3e 2d37 89be
00000030: dc3d 2b3f ba4b ea3d 793a 5d3e e626 063e
00000040: 8577 c43e 60ee 09bf f4cd f23e c891 213e
00000050: eab9 9e3e 0ce0 173e dbc0 51bd 8723 99bc
00000060: 5ef3 063f c57f 9d3c 2a4f 85be 5ab1 183f
00000070: 3f3e c83e 8dcf 873e 20d2 153e 0e19 cebd
00000080: 9b7e 863e 479f 603e f70b 9e3c b60b fa3e
00000090: 5572 16be 03df 943c 1bdd fabe 010b b0be
000000a0: f7a1 7d3d ee88 90bd 187c fdbe ce86 2abe
000000b0: 45e4 d6be d4f9 c7be c4f9 233e f775 c5be
000000c0: 7445 0dbe ad86 e5be fc79 983e 6533 d93e
000000d0: 93e7 2bbe f91a 95bd 8607 803e 16f2 583e
000000e0: 504a c6be 4673 a33e ca5d 1e3e d38b 743e
000000f0: 5af2 e5be 01a1 debe 01a1 ba3e bb97 dbbc

shared_layers.2.weight f4 [32, 64]
0.0640105 0.11744104 0.189682 0.044300586 0.1984272 0.00082507386 0.1727949 0.18688032
0.18008268 0.110830836 -0.067891285 0.1663928 0.1605678 0.23925105 0.2173567 0.120572306
0.0032954898 -0.10109426 0.058143046 0.06699783 0.10083517 0.11246435 0.023081532 0.072147176
0.108184576 0.026743317 -0.061343342 0.0032630987 0.15696318 0.18856919 0.16537765 0.2603917
0.18271618 0.1308364 0.029371778 0.13264903 -0.051486045 0.015798545 0.05290985 -0.034119904
-0.032410055 0.04315322 -0.09701681 -0.06640339 -0.015849158 -0.101077706 0.11373058 0.025928482
0.06844619 -0.0584473 -0.032477707 0.19504854 0.025995806 0.099588186 0.054089062 0.08859769
0.078880295 0.014434987 -0.003305629 0.1473274 -0.06586215 0.045421645 0.16620949 0.074435994
-4.312396e-05 -0.06592134 -0.076210424 -0.09822349 0.0014543086 0.024859652 -0.12216249 -0.09153265
0.026291728 0.08508429 0.1138189 -0.12374903 -0.077328265 0.08027236 -0.0896727 0.0012758374
-0.003118053 -0.016567707 0.066863105 -0.015839338 -0.12328035 -0.01566276 0.033056214 0.005734667
0.0682029 0.020647287 -0.027423888 -0.11401826 0.012170568 -0.0483744 -0.0010204911 -0.0990095
-0.06992623 0.04211214 -0.036073178 -0.08876276 -0.027882263 0.086875856 -0.06058237 0.02603595
0.05173683 -0.030162483 -0.04453528 0.0599591 -0.031421572 -0.086822614 -0.061804682 0.038247243
-0.04001957 0.09827986 -0.016954541 -0.11968525 2.2754073e-05 0.07677302 -0.007496819 -0.050481007
-0.03723009 -0.09075661 0.08591007 -0.07007593 0.10169822 0.07367948 -0.054782137 0.12413661
-0.08708477 0.041496977 -0.030373588 -0.021737322 -0.018995866 0.04778187 0.008638784 0.015070409
0.037375152 -0.10406862 -0.021401405 0.02389589 -0.04452111 0.052683726 -0.1150454 0.05221474
0.036048785 -0.06917268 0.07187286 -0.07598524 -0.003919497 -0.08688931 -0.05500318 -0.09301075
0.06874004 0.022074625 -0.023386136 0.062863454 -0.1106205 -0.07703596 0.045455903 0.0051252097
0.022225887 -0.03525187 0.068223506 0.016946033 0.07748997 0.11480506 -0.0963307 0.06317732
0.00966242 -0.052159622 0.04042551 0.043900073 -0.040395707 0.05080828 -0.06959471 -0.09561609
0.07462148 -0.007939205 -0.07775605 -0.10698971 0.054576024 0.030273467 -0.01696612 -0.10009873
-0.01039274 -0.08725686 0.01841776 -0.0023292005 0.030067489 -0.029771134 -0.115563154 0.00714384
-0.10292814 0.06660274 -0.08234586 0.046052027 -0.032679185 0.08602488 -0.1362573 -0.049947683
0.045298133 -0.042771757 0.044787973 0.025585083 -0.09342842 -0.13306992 -0.013606566 0.03460111
-0.038094457 -0.045589477 -0.13630679 -0.15268318 0.07792764 -0.090446874 -0.03884016 -0.003457576
-0.0018953085 -0.0070832516 0.12410338 -0.15313402 -0.00868063 -0.13684914 -0.07171659 0.015069193
0.07778305 0.043832526 -0.07908338 -0.080893464 0.0720325 0.03412812 0.009077936 -0.0073143244
-0.030950204 0.07972215 0.081755236 -0.096487164 0.06390445 0.020316988 -0.024212226 0.08801225
-0.045588076 -0.12142405 -0.010742411 0.0026752579 0.0008979604 0.072881475 0.061382126 -0.08326308
0.08288716 0.046229307 -0.09761086 0.064174056 -0.021262273 0.08118002 -0.07709202 0.09458351
00000000: f017 833d ee84 f03d 003c 423e 8874 353d
00000010: 8030 4b3e c549 583a 25f1 303e 8e5d 3f3e
00000020: 9867 383e 47fb e23d 960a 8bbd e062 2a3e
00000030: e36b 243e 3afe 743e c192 5e3e 9dee f63d
00000040: 25f9 573b 820a cfbd 6727 6e3d 2936 893d
00000050: ab82 ce3d b653 e63d 7b15 bd3c e6c1 933d
00000060: e08f dd3d cd14 db3c 2843 7bbd b6d9 553b
00000070: f5ba 203e 4818 413e c258 293e 1052 853e
00000080: f319 3b3e faf9 053e 159d f03c 26d5 073e
00000090: 08e3 52bd f36b 813c 00b8 583d 50c1 0bbd
000000a0: 68c0 04bd 6ec1 303d c0b0 c6bd 80fe 87bd
000000b0: 18d6 81bc d401 cfbd 94eb e83d f867 d43c
000000c0: 842d 8c3d 7066 6fbd 5807 05bd ceba 473e
000000d0: 28f5 d43c e4f4 cb3d 7e8c 5d3d b572 b53d
000000e0: fe8b a13d b980 6c3c 40a3 58bb fedc 163e
000000f0: bce2 86bd 0c0c 3a3d d232 2a3e e671 983d
00000100: 00e0 34b8 c401 87bd 3614 9cbd 6629 c9bd
00000110: 809e be3a 78a6 cb3c 5430 fabd 7875 bbbd
00000120: c061 d73c ac40 ae3d e219 e93d 2270 fdbd
00000130: 485e 9ebd d665 a43d 52a6 b7bd 003a a73a
00000140: 4058 4cbb 00b9 87bc 86ef 883d 80c1 81bc
00000150: 687a fcbd 304f 80bc f465 073d e0e9 bb3b
00000160: f6ad 8b3d 8024 a93c 10a8 e0bc 6882 e9bd
00000170: 1067 473c 3c24 46bd 00c2 85ba 7ec5 cabd
00000180: 7c35 8fbd c87d 2c3d 78c1 13bd 40c9 b5bd
00000190: 5869 e4bc f8eb b13d 3825 78bd 5849 d53c
000001a0: 00ea 533d 5017 f7bc a06a 36bd ac97 753d
000001b0: e8b3 00bd 0ed0 b1bd e826 7dbd 24a9 1c3d
000001c0: 90eb 23bd f446 c93d 40e4 8abc 8a1d f5bd
000001d0: 00e0 be37 2c3b 9d3d e0a7 f5bb 2cc5 4ebd
000001e0: 947e 18bd 9ade b9bd 9ef1 af3d f883 8fbd
000001f0: 2847 d03d 44e5 963d 3c63 60bd 563b fe3d
00000200: 8059 b2bd bcf8 293d 08d2 f8bc 7812 b2bc
00000210: 389d 9bbc ecb6 433d b089 0d3c e0e9 763c
00000220: b016 193d ee21 d5bd 0052 afbc 50c1 c33c
00000230: c45b 36bd e4ca 573d ec9c ebbd 20df 553d
00000240: e4a7 133d 68aa 8dbd 1432 933d 269e 9bbd
00000250: 206f 80bb 06f3 b1bd 044b 61bd 6c7c bebd
00000260: 94c7 8c3d d8d5 b43c 4894 bfbc 8ebe 803d
00000270: 008d e2bd 08c5 9dbd f82f 3a3d 60f1 a73b
00000280: 1013 b63c 4464 10bd c4b8 8b3d 68d2 8a3c
00000290: 10b3 9e3d ea1e eb3d 0849 c5bd 1c63 813d
000002a0: 204f 1e3c 54a5 55bd 3895 253d 90d0 333d
000002b0: f875 25bd 581c 503d ac87 8ebd 5ed2 c3bd
000002c0: 26d3 983d 7013 02bc 903e 9fbd 6c1d dbbd
000002d0: 1c8b 5f3d 1000 f83c 88fc 8abc 9000 cdbd
000002e0: 5046 2abc bab3 b2bd d8e0 963c 80a5 18bb
000002f0: 1850 f63c 98e2 f3bc 60ac ecbd e016 ea3b
00000300: fdcb d2bd 0467 883d f2a4 a8bd 0da1 3c3d
00000310: 9cda 05bd d02d b03d 0987 0bbe f195 4cbd
00000320: 898a 393d 7031 2fbd 9873 373d cf97 d13c
00000330: 6657 bfbd 7b43 08be 13ee 5ebc e5b9 0d3d
00000340: ef08 1cbd 08bc 3abd 0294 0bbe fb58 1cbe
00000350: 8798 9f3d 363c b9bd dc16 1fbd 8098 62bb
00000360: 006c f8ba 9f1a e8bb ea29 fe3d 2acf 1cbe
00000370: 3339 0ebc 2e22 0cbe 26e0 92bd c7e4 763c
00000380: b84c 9f3d bc89 333d 78f6 a1bd 79ab a5bd
00000390: c685 933d edc9 0b3d a0bb 143c 00ad efbb
000003a0: 488b fdbc 5e45 a33d 4a6f a73d 109b c5bd
000003b0: 56e0 823d d06f a63c b858 c6bc c43f b43d
000003c0: 90ba 3abd 2cad f8bd f000 30bc 6153 2f3b
000003d0: 1a65 6b3a e242 953d d36b 7b3d d585 aabd
000003e0: bec0 a93d f15a 3d3d 34e8 c7bd b06d 833d
000003f0: 382e aebc b641 a63d 6ce2 9dbd 00b5 c13d

shared_layers.2.bias f4 [32]
0.17664573 0.1218268 0.10707411 0.0131318495 0.22071372 0.0054935515 0.22396034 0.1908742
-0.006294787 -0.026002765 0.10155808 0.08866826 0.091303766 -0.053839877 0.10337016 -0.12242803
0.013950674 0.08767961 0.0029457286 0.09262538 -0.05797553 0.08911732 -0.043165803 0.019024312
0.002061583 0.06938265 0.090443686 0.16158432 0.012265205 -0.043187395 0.0066847503 -0.08759762
00000000: 9ee2 343e 5480 f93d ac49 db3d f826 573c
00000010: c702 623e 4003 b43b dc55 653e 8774 433e
00000020: 8044 cebb c003 d5bc affd cf3d b497 b53d
00000030: 78fd ba3d 3487 5cbd bcb3 d33d 8cbb fabd
00000040: 5e91 643c 5e91 b33d 200d 413b 60b2 bd3d
00000050: c077 6dbd 2483 b63d a0ce 30bd e0d8 9b3c
00000060: a01b 073b 7e18 8e3d 8a3a b93d 5c76 253e
00000070: 00f4 483c 44e5 30bd c00b db3b 6266 b3bd

shared_layers.4.weight f4 [8, 32]
-0.19534321 0.100456566 0.13827042 0.05724168 -0.26433164 0.13053595 0.02811293 -0.1541514
-0.06592054 -0.1433248 -0.09244988 -0.23719671 -0.032475684 0.10561098 0.12384704 -0.1185613
-0.1883603 -0.028043564 -0.14018588 0.071805924 -0.07952813 -0.032515466 0.06876353 -0.02316612
-0.124763675 -0.013113125 -0.13804458 -0.27446076 -0.05028241 -0.08801141 0.122425765 -0.13642445
0.17661437 0.08640633 0.022141678 -0.12862319 0.06574212 0.14529268 0.21467035 0.19604132
-0.16020563 0.28930438 0.25224257 0.16228972 -0.08508751 -0.07849953 0.017105108 -0.063678555
-0.096243344 0.25111052 -0.085968874 -0.077056155 0.11184199 -0.12853985 -0.11941298 0.0242396
-0.08105014 -0.09694499 -0.033483393 0.09818016 -0.020976676 -0.038361575 -0.15583986 -0.16205621
-0.27667236 -0.008060753 -0.07514317 -0.15598075 -0.27819845 0.13760024 0.058438897 0.042239502
-0.012940452 -0.022866713 -0.23173746 -0.044817187 0.025583748 0.08752509 0.16450492 -0.047840804
-0.15473208 -0.08062882 -0.018976001 0.11409596 0.16120362 0.0052958555 -0.17427687 -0.04778281
0.10857892 0.09263039 -0.098245464 -0.17252353 0.09725659 0.048712127 -0.08911725 0.06836366
-0.18030047 0.1581318 -0.09267361 0.09555866 -0.041953545 -0.068414405 -0.1462707 0.029605621
0.09928516 -0.2120501 0.033919353 -0.15399195 0.037826963 0.03465183 0.029747983 0.0017836335
0.112236105 -0.20076081 0.0043716687 0.008621328 -0.062069956 -0.12102714 0.15019664 0.1127942
-0.12779483 0.14684993 -0.16064322 -0.16877308 0.1344112 -0.029049926 -0.17514138 -0.07395166
-0.091590956 0.007363455 -0.014839589 0.040863223 -0.100212835 -0.032082055 -0.23887174 0.012720216
-0.038004108 -0.07240195 -0.22923893 -0.12810302 -0.15224305 0.043433044 -0.14900783 -0.1407614
-0.19562471 -0.04184934 -0.14775603 0.112732664 -0.08633207 0.09720183 0.15646678 0.1035948
-0.14491676 0.106175154 0.04905554 -0.023606887 -0.13022588 -0.08641648 -0.1366606 -0.0065112035
-0.1870785 -0.052234232 0.17132016 -0.06970478 -0.018626675 0.10833607 -0.13703105 0.042484492
0.011028165 -0.21259692 -0.14246356 -0.07573224 -0.0006468066 -0.06904743 -0.04173853 0.15013063
-0.05367498 -0.28247818 -0.058682464 -0.09850962 0.052079994 -0.07809392 0.050866295 -0.0067968955
0.046476703 -0.15350763 0.079275526 -0.07824696 0.007241271 0.11039322 -0.09859151 0.036942028
-0.0036367509 -0.15122813 0.044150088 0.14277166 0.06155732 0.022132047 -0.25582504 -0.06827438
-0.1664818 -0.25614604 -0.2292492 -0.15710862 -0.11291298 -0.06329688 -0.06015546 -0.07746662
0.072849944 -0.008973719 -0.06224201 -0.038650557 -0.1383825 0.15870087 -0.1655462 0.11872324
0.030064367 0.0349423 -0.17231183 -0.098633565 -0.11678253 -0.13710944 -0.104053214 0.15077859
-0.0668414 0.025872918 -0.0783261 -0.18524224 -0.33653235 0.061446354 -0.08461826 -0.16444506
-0.017660793 -0.15751979 -0.26289725 -0.0568719 -0.06419321 -0.16234264 0.08248964 -0.16621281
0.12468182 -0.3312961 0.15996404 0.030414935 -0.15085967 0.09868258 0.11990064 0.13286237
0.08406439 -0.1651176 -0.11282028 -0.18370634 -0.12814878 0.1432302 -0.07587467 -0.05558482
00000000: 0d08 48be 2cbc cd3d c396 0d3e 4076 6a3d
00000010: 7a56 87be 37ab 053e 164d e63c ddd9 1dbe
00000020: 5901 87bd bdc3 12be 5d56 bdbd b2e3 72be
00000030: 3905 05bd 924a d83d 84a3 fd3d 44d0 f2bd
00000040: 86e1 40be 9ebb e5bc e38c 0fbe fc0e 933d
00000050: a5df a2bd f02e 05bd e5d3 8c3d e0c6 bdbc
00000060: 1984 ffbd 6fd8 56bc 8f5b 0dbe 1f86 8cbe
00000070: eef4 4dbd 533f b4bd 5cba fa3d dab2 0bbe
00000080: 66da 343e cdf5 b03d 7762 b53c ccb5 03be
00000090: cea3 863d 9bc7 143e 8bd2 5b3e 0ebf 483e
000000a0: f20c 24be b41f 943e f025 813e 472f 263e
000000b0: 5c42 aebd 5dc4 a0bd 0320 8c3c e769 82bd
000000c0: 3b1b c5bd 8f91 803e 7310 b0bd 9ecf 9dbd
000000d0: 6a0d e53d f39f 03be cb8e f4bd 2092 c63c
000000e0: 9efd a5bd 188b c6bd e225 09bd ae12 c93d
000000f0: 47d7 abbc 0721 1dbd 7c94 1fbe 10f2 25be
00000100: 00a8 8dbe 4011 04bc aae4 99bd 6bb9 1fbe
00000110: 0770 8ebe 14e7 0c3e a05d 6f3d 5403 2d3d
00000120: 3104 54bc f952 bbbc 964c 6dbe 3a92 37bd
00000130: 0295 d13c 5b40 b33d fa73 283e b8f4 43bd
00000140: 1672 1ebe b920 a5bd 8f73 9bbc 25ab e93d
00000150: 9012 253e db88 ad3b a375 32be e8b7 43bd
00000160: a05e de3d 00b5 bd3d eb34 c9bd 02aa 30be
00000170: 772e c73d 5e86 473d 1b83 b6bd 3f02 8c3d
00000180: b0a0 38be 4ded 213e a9cb bdbd 42b4 c33d
00000190: 7bd7 2bbd da1c 8cbd fdc7 15be 7d87 f23c
000001a0: 0556 cb3d a923 59be 05ef 0a3d 11b0 1dbe
000001b0: 72f0 1a3d 14ef 0d3d 0bb2 f33c cfc8 e93a
000001c0: 0bdc e53d 3e94 4dbe 3740 8f3b 7840 0d3c
000001d0: 113d 7ebd 14dd f7bd 26cd 193e a500 e73d
000001e0: a6dc 02be d45f 163e a87f 24be dad2 2cbe
000001f0: 17a3 093e 1cfa edbc 4358 33be f873 97bd
00000200: 0a94 bbbd 2349 f13b bf21 73bc 3260 273d
00000210: 633c cdbd 7968 03bd cb9a 74be 7468 503c
00000220: 32aa 1bbd 7947 94bd 9cbd 6abe 702d 03be
00000230: 9ae5 1bbe d9e6 313d 8295 18be c223 10be
00000240: d851 48be 376a 2bbd 5b4d 17be 62e0 e63d
00000250: dece b0bd c111 c73d d438 203e 8329 d43d
00000260: 0f65 14be 5c72 d93d 76ee 483d 3b63 c1bc
00000270: ef59 05be 20fb b0bd c2f0 0bbe ef5b d5bb
00000280: 8291 3fbe 90f3 55bd 8d6e 2f3e 61c1 8ebd
00000290: f896 98bc 4ddf dd3d de51 0cbe 3804 2e3d
000002a0: 7aaf 343c 02b3 59be f8e1 11be 8119 9bbd
000002b0: 758e 29ba bd68 8dbd 05f6 2abd d8bb 193e
000002c0: 4cda 5bbd fba0 90be 065d 70bd 69bf c9bd
000002d0: d551 553d b5ef 9fbd 2d59 503d 7eb8 debb
000002e0: 5b5e 3e3d 1b31 1dbe 355b a23d f13f a0bd
000002f0: 2f48 ed3b d715 e23d 58ea c9bd 8650 173d
00000300: 8e56 6ebb 8cdb 1abe b9d6 343d bc32 123e
00000310: 8723 7c3d 444e b53c 80fb 82be 70d3 8bbd
00000320: 347a 2abe 9325 83be 4dc0 6abe 15e1 20be
00000330: ec3e e7bd cba1 81bd 9265 76bd d2a6 9ebd
00000340: 5a32 953d 8106 13bc 7af1 7ebd 0c50 1ebd
00000350: 24b4 0dbe 7b82 223e f184 29be 2c25 f33d
00000360: 8c49 f63c a81f 0f3d 8372 30be 6500 cabd
00000370: ae2b efbd 6b66 0cbe da19 d5bd b465 1a3e
00000380: 25e4 88bd 71f3 d33c 6f69 a0bd 24b0 3dbe
00000390: f84d acbe 2caf 7b3d 574c adbd 4964 28be
000003a0: 5ead 90bc de4c 21be 789a 86be 82f2 68bd
000003b0: bb77 83bd 263d 26be 54f0 a83d b133 2abe
000003c0: 2f59 ff3d a49f a9be 9dcd 233e be28 f93c
000003d0: f57a 1abe 181a ca3d 778e f53d 130d 083e
000003e0: f329 ac3d 9714 29be 520e e7bd 841d 3cbe
000003f0: 6f39 03be f0aa 123e 2e64 9bbd e9ac 63bd

shared_layers.4.bias f4 [8]
0.063373536 0.18221547 0.044148006 -0.2455807 0.056573313 -0.12329717 -0.13716601 0.054866705
00000000: fcc9 813d b196 3a3e 8ad4 343d 8279 7bbe
00000010: 6bb9 673d 3a83 fcbd 3f75 0cbe e9bb 603d
