training/models/controller_controller_acc0.95_lat0.012_succ20_small5_large8_carb7_cap610_rate0.000269_best_model.pth (torch, 18433 bytes, 6 tensors)

shared_layers.0.weight f4 [64, 3]
000000 43 01 c8 be 64 9f 53 be 58 e4 fe be 07 72 45 3e
       -0.39063463 -0.20666271 -0.49783587 0.19281779
000010 53 1b c6 be 95 52 bd 3e 1c e3 40 bc c5 0c 0e 3f
       -0.38692722 0.36977068 -0.011772897 0.55488235
000020 2d 26 bd be f2 f3 ad 3e 06 00 33 3c 9a 75 1d 3f
       -0.36943188 0.33975178 0.010925299 0.6150757
000030 44 8e db be 1e e4 3c 3d cb 01 3c 3d ef 3b 64 3d
       -0.42881978 0.046115987 0.045900147 0.05572122
000040 5f ed 4d 3e 3d 72 7c 3e e9 d0 23 3f d0 61 ed 3e
       0.20110081 0.24652953 0.63990647 0.46363688
000050 dd 7d 96 3e 18 a3 1f 3f f8 5e 87 3d a1 5a 23 be
       0.293929 0.62358236 0.06609911 -0.15952541
000060 1a 8a 6f bc 78 b3 b8 bd 3e 6d f8 3e 51 e7 86 3e
       -0.014620328 -0.09018606 0.48520845 0.26348355
000070 13 1f e6 3e 36 cb 30 be 59 54 e0 3e ff ce c5 be
       0.44945583 -0.17265019 0.43814352 -0.38634488
000080 71 91 83 3d 16 84 56 3e 8b df 0e 3f 93 d1 f1 be
       0.06424225 0.20948824 0.5580985 -0.47230205
000090 6a cb 55 3e dd c0 58 be d9 0e af be 0c d9 9b 3d
       0.20878378 -0.21167322 -0.34191015 0.07609758
0000a0 00 7e b7 be da 27 ce bd 69 f2 ef 3e 72 00 27 bd
       -0.35838318 -0.10066195 0.46864632 -0.04077191
0000b0 46 79 ca 3d 6d b0 19 3f 05 cb ed bd 14 29 8e be
       0.09886412 0.6003483 -0.116109885 -0.27765715
0000c0 96 4f b5 be fc 56 8e 3e 22 8f 12 bf 45 7e 83 3d
       -0.35412282 0.2780074 -0.57249653 0.064205684
0000d0 f3 f7 ff 3e da c7 85 3e 5f 47 ea be 26 47 22 3e
       0.49993858 0.26129037 -0.45757577 0.15847453
0000e0 18 93 00 3f ba e4 e3 3e eb f9 0a bb 73 a3 07 3f
       0.5022445 0.44510442 -0.0021206092 0.5298378
0000f0 4c 19 80 be 38 7a c1 be 0a a5 52 3e b3 a7 08 3f
       -0.250193 -0.37788558 0.2057077 0.5338089
000100 d8 d7 bf 3e c3 f5 5d 3e ac 43 93 bd 7c 7e b9 3e
       0.37469363 0.21675782 -0.07190642 0.36229312
000110 9d 62 ef bd db dc f2 3e 87 28 cd 3e 72 d6 c1 be
       -0.11688731 0.47434124 0.40069982 -0.3785892
000120 00 7f 02 be 58 16 12 bf d7 d5 9b be 70 58 78 bd
       -0.12743759 -0.57065344 -0.30436584 -0.060631216
000130 cd f8 15 be 98 a5 cd 3e 5c 63 54 3e 96 09 01 3f
       -0.14645691 0.401654 0.20741028 0.5040525
000140 a9 18 e1 3e 13 d1 40 3e f5 bc 8b 3e 18 fd 9a be
       0.43964127 0.18829755 0.272926 -0.3027122
000150 41 c2 88 3e 75 66 7a 3e 09 49 e5 be 32 3f 18 3f
       0.26710704 0.24453147 -0.44782284 0.5947143
000160 04 7f d4 be 46 02 10 be dd f3 29 3f 2f 6b 4a 3e
       -0.41503155 -0.14063367 0.6638773 0.1976745
000170 cc 38 1e 3e 18 38 c9 3e d7 93 8c be d7 fb ca 3e
       0.15451354 0.3930061 -0.27456543 0.39645264
000180 85 36 c4 bd bc 05 fa be b2 7c 6a 3d c8 ff b7 3e
       -0.09580711 -0.488325 0.057247825 0.35937333
000190 93 30 b8 be 8e 9d f1 3d 51 ce eb be 1b 96 9b 3e
       -0.3597456 0.11797629 -0.46055844 0.3038796
0001a0 33 83 12 3e 93 4b e8 be d8 20 3a be 5e f7 09 3e
       0.14307861 -0.4537016 -0.18176591 0.1347327
0001b0 9d f3 a0 bd 0c f3 0b bf dc 1e 0d bf 1b 22 56 3e
       -0.078589655 -0.54667735 -0.5512521 0.20911448
0001c0 ea 76 25 bd 46 87 98 bb f2 1e 32 3e 0a d9 9c 3e
       -0.04039661 -0.0046547977 0.17394617 0.30634338
0001d0 86 1c 9b 3d 3e a7 9f 3d 65 74 64 be b6 f8 f0 3d
       0.075738 0.07795571 -0.22310026 0.11766188
0001e0 97 b2 ed bd dd ba fd bd b6 e4 bb 3e 10 39 b0 3e
       -0.11606329 -0.12389157 0.3669793 0.34418535
0001f0 ce 5d 0f 3f c6 00 d1 3e 7a 39 27 3f 55 1c 61 be
       0.5600251 0.40820903 0.6532208 -0.21983464
000200 ba e6 5a 3e 05 6a 0a 3f 65 ea d8 3e f5 f1 18 3f
       0.21377078 0.5406802 0.4236633 0.597442
000210 56 98 e5 3d 7f 85 8d 3e f2 42 2a bd 5e 03 99 be
       0.112106964 0.27640912 -0.04156775 -0.2988538
000220 50 a4 00 3f df a3 ac 3d 6c ad ce 3e 1c b5 50 bd
       0.5025072 0.084296934 0.40366685 -0.05095397
000230 e8 03 f8 3d ed 6e fa 3e 30 9a ba bd 4b 69 ee bd
       0.1211012 0.48912755 -0.0911144 -0.11641177
000240 f4 d8 15 3f 2b 98 c8 3e 43 8d 81 bd 23 41 f9 3e
       0.5853417 0.39178595 -0.06325772 0.48682508
000250 69 b5 11 3f de 22 dc 3d 65 9e 90 3c 3c 91 a5 3e
       0.56917435 0.10748838 0.017653653 0.32337368
000260 2e 64 87 bd fa 28 07 bd 3d 95 ec be 87 09 01 3f
       -0.06610905 -0.032998063 -0.4620761 0.5040516
000270 11 cd 12 bf 87 ec 92 3d 05 30 25 bc 9d 01 08 bf
       -0.57344157 0.0717402 -0.0100822495 -0.5312746
000280 3c fd f7 be fb 96 dd be b8 9b 15 3e cd 29 ac bd
       -0.4843539 -0.4327925 0.14610183 -0.0840641
000290 52 3e 0e 3f ab ee fb be 80 c4 b4 bc e3 69 12 3e
       0.55563843 -0.49205527 -0.022066355 0.14298205
0002a0 e3 72 8f be 92 8b 83 be 70 6a 95 be 45 0b 09 bf
       -0.2801734 -0.2569242 -0.29182768 -0.5353282
0002b0 36 be 73 bd 14 b3 0c bd 8f 62 f9 3e 12 9f ff 3d
       -0.05950757 -0.03435047 0.48708007 0.12481512
0002c0 b4 52 66 3e 85 86 f7 3e 7a 29 74 be 11 61 84 3e
       0.22492486 0.48344818 -0.23843947 0.25855306
0002d0 8a bc 0c be 1a 5b b0 3e 7b e3 0c 3f 40 a8 59 bd
       -0.13743797 0.34444505 0.5503461 -0.05313897
0002e0 1e 07 fe 3e 5d ca a6 3d 10 8b f6 3e d4 2a 01 3f
       0.49614805 0.081440665 0.4815297 0.50455976
0002f0 b3 5c 9d be 2d 06 85 3d 09 8c 1a 3e 7c 03 07 3f
       -0.30734786 0.064953186 0.15092482 0.5273969

shared_layers.0.bias f4 [64]
000000 f2 e2 02 bf 8e 00 9a 3e d8 83 b0 3e 3d fc 0d 3f
       -0.5112754 0.30078548 0.3447559 0.5546301
000010 c9 d6 b1 be 9b 47 5b be 6c 4a cf bd 2d 91 06 3e
       -0.3473418 -0.21414034 -0.10121617 0.13141318
000020 bb 4e 59 bd 75 d9 fd 3d 89 6e 40 bb d8 fa ab 3a
       -0.0530536 0.12394992 -0.002936276 0.0013121022
000030 f4 f2 b7 be ac 18 0c 3f 7c 5b 16 3f d4 2c e5 3e
       -0.35927546 0.54725146 0.58733344 0.44760764
000040 7f 6c 23 be 1b 72 8c bd 24 3b df 3c 1c 65 c0 bd
       -0.15959357 -0.068577014 0.02724988 -0.09394285
000050 fb 8c 7b be c7 3f dd 3e 39 3f 5a 3e 10 8f cf bd
       -0.24565499 0.4321272 0.2131318 -0.10134709
000060 20 19 a4 be 58 04 e0 bc 66 2d 8d 3d 97 f1 d4 bd
       -0.3205042 -0.027345821 0.06893425 -0.10397642
000070 d7 e9 b8 3e e0 d1 9b 3e b7 16 71 3e 3f 5c 13 bf
       0.36115906 0.3043356 0.23543821 -0.5756263
000080 81 5f 6f 3e 0b 90 e9 be 98 9d e7 be 6e 34 79 3e
       0.23376276 -0.4561771 -0.45237422 0.24336407
000090 cc 33 2f be 01 0a 02 3f 3d 4b ce 3e e4 94 91 3e
       -0.17109603 0.50796515 0.40291777 0.28433907
0000a0 47 bd ae be 45 69 75 3e b0 37 15 3f a4 58 01 be
       -0.34128782 0.23965938 0.582881 -0.1263147
0000b0 f5 e9 9e 3e 2a ac a8 3e c8 0f 8a be fa f3 13 be
       0.3103787 0.3294385 -0.26965165 -0.14448538
0000c0 07 6c f5 be 83 08 a1 be 74 7f 97 3e fe 6c f3 3e
       -0.4793398 -0.31451806 0.29589427 0.47544092
0000d0 2e 84 67 be ab 27 cd 3e a8 c9 fa be 16 83 a7 3e
       -0.22609016 0.40069327 -0.48981977 0.32717198
0000e0 e8 8c d4 be 97 c8 0c bf 72 f5 db 3d bb c0 1b 3f
       -0.41513753 -0.54993576 0.10740174 0.6084096
0000f0 e3 86 e1 3e 3e 1e 7f 3e 5c 29 d7 3d 2c 94 dd 3d
       0.44048223 0.2491388 0.105059355 0.10819277

shared_layers.2.weight f4 [32, 64]
000000 2c 9a ed 3d 23 09 a9 3d f1 79 23 3e 81 3d 13 3e
       0.116016716 0.08253696 0.15964486 0.1437893
000010 00 ba 70 3b 16 7f f0 3d e0 6f 10 3e 14 8f 05 3e
       0.0036731958 0.1174299 0.14105177 0.13042861
000020 18 ef 1d bd 88 57 0b 3e c3 23 3c b9 a1 df e0 3d
       -0.038558096 0.1360761 -0.000179424 0.10980154
000030 44 7e 66 bd 76 d2 21 bd 92 5d e0 3c 94 8f 13 3e
       -0.05627276 -0.03950735 0.027388368 0.1441024
000040 28 38 93 bd 32 24 a3 bc 92 88 ef bd 39 85 2a 3e
       -0.07188445 -0.01991472 -0.116959706 0.16652383
000050 04 42 6c 3d 52 dc bd bc 76 90 00 3e 82 10 2b 3e
       0.057680145 -0.023176346 0.12555107 0.16705516
000060 c0 88 0c bc 8c 54 14 3d a4 ab 4c 3e 92 ca 26 3e
       -0.008577526 0.036213443 0.1998735 0.16288212
000070 b9 d7 de 3d f1 4d 72 3d b7 c9 32 3e 98 24 e7 bc
       0.108809896 0.059156362 0.1745976 -0.028215691
000080 90 7d 46 3c dc 32 a2 3d 64 e6 c4 bd d8 34 02 bd
       0.012114897 0.07919857 -0.09614256 -0.031788677
000090 e0 8e 52 bd 3f dd 75 3d c8 8c 1a 3e 89 28 df bc
       -0.051405787 0.06002545 0.15092766 -0.027241008
0000a0 12 66 e6 3d 3c ad ab 3d c2 e3 77 3d db 18 06 3e
       0.11249937 0.08382651 0.06051994 0.13095419
0000b0 53 f8 1d 3e 6e d1 38 3d 51 94 d2 3d 23 49 fa 3d
       0.1542676 0.045121603 0.10282195 0.12220981
0000c0 b7 77 39 3e 0b 24 4e 3e e5 8e 4a 3d 0b b4 47 3e
       0.18112074 0.20130937 0.04945268 0.19502275
0000d0 3e b4 b2 3d 2c 1f 4c 3d e8 ea fe bd 3c 0e e4 3d
       0.08725785 0.049834415 -0.124471486 0.111355275
0000e0 78 3b 84 3d 0e 46 99 3d af 74 a4 3d ae e9 28 3e
       0.06456655 0.07484065 0.08030068 0.16495392
0000f0 3e 12 27 3e a7 b4 ca 3d 39 40 81 3d 21 e6 69 3d
       0.16315553 0.09897738 0.063110776 0.057104234
000100 0c 97 27 bd 8e cf de 3d f6 e8 84 3d 24 97 b2 bc
       -0.040915534 0.10879432 0.06489746 -0.021800585
000110 7e 86 d8 3d c2 40 0e 3d b6 1d 05 3e 3d c7 25 3d
       0.10572527 0.034729727 0.12999615 0.04047321
000120 90 87 aa 3d 7d 15 22 3e f8 c1 cb 3d 13 55 02 3e
       0.08326638 0.1582851 0.09949106 0.12727766
000130 b4 51 5f 3d 3f 5e d2 3d a9 d3 19 3d a8 71 cd 3d
       0.054521278 0.10271882 0.03755537 0.10031444
000140 04 6c 9e 3d 8e 2b 36 3c 5c 86 98 bd 4c e7 3d 3e
       0.07735446 0.011118783 -0.07447502 0.18545264
000150 d0 78 0b 3c b2 14 c8 3d cf 9f 63 3d dc 24 58 bd
       0.008512691 0.09769572 0.055572327 -0.052769527
000160 82 b1 c6 bd 08 29 b5 bd 3b 2e 34 3e ab 18 30 3e
       -0.09701826 -0.08845717 0.1759576 0.1719691
000170 2d e6 c7 3d 4a e2 99 3c 5e bf 41 3e e0 ed ed bb
       0.097606994 0.01878466 0.18920657 -0.007261023
000180 f4 2e 42 3d 20 d7 2c 3c f4 b8 a0 bd e0 92 c8 bc
       0.04740806 0.010549337 -0.07847777 -0.024484098
000190 da f9 d3 3d 61 67 26 3e 8b 8c 44 3e 55 c4 ab 3c
       0.1035039 0.16250373 0.19194238 0.020967642
0001a0 24 83 bf 3d e7 a0 f3 3c b9 9b 33 3e 7c c5 cf 3d
       0.09351185 0.02973981 0.17539872 0.10145089
0001b0 29 83 c6 3d 0e 8d 1d 3e a2 ab 60 bc 53 2e 34 3d
       0.096929856 0.1538584 -0.013712795 0.04398949
0001c0 db 3e c4 bc b0 56 ee 3d fb 05 44 3d 45 95 23 3e
       -0.023955753 0.11637628 0.047857266 0.1597491
0001d0 1e 25 b4 bd f0 91 6e 3d b8 7c 64 3d e8 9c cb 3d
       -0.08796142 0.058244646 0.055783004 0.09942037
0001e0 60 7c f0 bb 86 f1 a0 bd 96 01 fe 3d a4 46 42 3e
       -0.0073390454 -0.07858567 0.12402646 0.1897226
0001f0 a3 89 0a 3d 4b 8d 46 3e b3 0b 59 3c a8 24 1e 3e
       0.033822667 0.19389836 0.013247418 0.15443671
000200 04 2b af bd 4c 24 07 bd 8c d1 48 3d 04 9b a5 3d
       -0.085531265 -0.0329936 0.049027964 0.080862075
000210 00 e6 c2 39 fe 71 b9 bd e2 03 f8 bd a0 90 22 3d
       0.00037173927 -0.090549454 -0.121101156 0.039688706
000220 40 40 63 bc 00 39 65 ba b0 14 a1 bd f0 26 a2 bd
       -0.013870299 -0.00087441504 -0.07865274 -0.07917583
000230 72 18 eb bd f8 bc ee bc 2e 6e f5 bd 0c c0 32 3d
       -0.11479272 -0.029142842 -0.11983906 0.04364018
000240 2c 5e fb bd 54 46 cb bd c4 b9 a1 bd 36 eb e9 3d
       -0.12273821 -0.099255234 -0.0789676 0.11421816
000250 e0 b5 29 bd ee 35 9c bd 04 9a db bd fa b6 ee bd
       -0.041433215 -0.07627474 -0.107227355 -0.11655994
000260 88 65 98 bc 66 9c d7 3d de 54 b0 3d b8 6e 8c 3d
       -0.018603101 0.105278775 0.08609937 0.068570554
000270 94 9e 06 3d 2a ea d6 3d 60 e2 a0 bd f6 b2 e4 3d
       0.032866076 0.10493882 -0.078556776 0.111669466
000280 c2 14 b7 3d 00 b0 5d bb c8 97 39 3d c6 cf c9 bd
       0.08939506 -0.0033826828 0.045310766 -0.09854083
000290 fe 4b 86 3d 5a 5a fe bd 78 43 13 3d 34 ef 8d 3d
       0.06557463 -0.12419577 0.035953015 0.0693039
0002a0 34 2a 97 3d d0 e5 67 bc f8 29 ae bd cc f5 42 3d
       0.073810965 -0.014153913 -0.08504099 0.04759769
0002b0 e4 64 38 3d fe 39 a6 3d b8 72 1d 3d 18 e9 b2 bc
       0.04501809 0.0811653 0.038439482 -0.021839663
0002c0 04 60 57 3d f0 41 86 bc 8c 91 47 bd 84 aa ed 3d
       0.052581802 -0.016388863 -0.04872279 0.11604789
0002d0 36 66 96 3d c4 69 18 bd 44 67 6e 3d 30 9f fc 3d
       0.07343714 -0.03721024 0.05820395 0.1233505
0002e0 48 3d c7 3d d8 1c aa bc 80 8f 3a 3c 90 cc 4c 3d
       0.09728485 -0.020765707 0.011386752 0.049999774
0002f0 4a 52 ca bd 20 dd e9 bd a6 e7 cb bd 48 34 d9 3c
       -0.09878977 -0.11419129 -0.09956293 0.026514187
000300 00 ff e1 bd d2 95 1b 3e f6 73 7f 3c 20 60 02 3c
       -0.110349655 0.1519387 0.015591612 0.007957488
000310 74 b3 8d bd 7e 10 96 3d dc 30 fe 3d e8 da 29 3e
       -0.069189936 0.073273644 0.12411663 0.16587412
000320 b4 11 ad bd a1 9d d4 3d 29 fd 38 3e 78 39 22 3e
       -0.08450642 0.10381628 0.18065323 0.15842235
000330 b8 a2 bd 3d db 9d 0d bc 56 57 28 3e a3 8a 0d bc
       0.09259552 -0.008643593 0.16439566 -0.008639011
000340 c0 f1 84 3c 36 a9 38 3d 00 36 1a ba 26 32 49 3e
       0.016228557 0.045083247 -0.00058826804 0.19648036
000350 40 bc d5 3d 10 e9 4e bd fe 47 6d 3d bb c1 36 3e
       0.104362965 -0.050515234 0.057929985 0.1784734
000360 0c c9 27 bd 36 ec 8f 3d ee 7b 44 3e e7 d2 10 3e
       -0.040963218 0.070274755 0.191879 0.14142953
000370 9b 09 0a 3e 80 96 bb 3d 0f 5f 1b bd e4 57 4b bd
       0.13480227 0.09159565 -0.03793245 -0.049644366
000380 de cb 99 3d 44 10 97 bd 28 79 90 3d d8 c4 88 bc
       0.07509588 -0.07376149 0.07054359 -0.016695425
000390 e0 68 03 3c b0 25 5f 3d cb 86 22 3e 37 b8 11 3e
       0.00802061 0.0544793 0.15871732 0.14230429
0003a0 ac 44 a2 3d 52 8b 8a 3d f7 56 28 bd f2 8d 8b 3a
       0.07923254 0.067648545 -0.04109856 0.0010647161
0003b0 44 8f dc 3c a2 73 29 3e 2c 56 5a 3d 1a fa 3c 3e
       0.026923783 0.16548017 0.053304836 0.18454781
0003c0 10 95 d9 3d a6 58 48 bd 05 bc e7 3d 16 9d 1d 3e
       0.106241345 -0.048912667 0.11315159 0.15391955
0003d0 44 72 62 3d f0 50 2b 3c 5c 1b eb 3d 70 f6 23 3d
       0.055284753 0.010456309 0.11479828 0.040029943
0003e0 a0 84 2a 3c 18 0e 6b bd 0d e4 0a 3e 56 70 46 3e
       0.010407597 -0.057386488 0.13563557 0.1937879
0003f0 a2 c0 ab 3d 0c ed e6 3d c4 47 26 3e 50 8f 9c 3d
       0.08386351 0.11275682 0.16238314 0.07644522

shared_layers.2.bias f4 [32]
000000 88 99 11 3e c7 33 f6 3d c0 51 3a bd 8b 99 11 3d
       0.14218724 0.120215945 -0.04548812 0.03554682
000010 d8 67 fb bb ee 63 90 bd 54 b3 89 bd f6 21 bc 3d
       -0.0076722912 -0.0705031 -0.06723657 0.09186165
000020 1c a8 37 3b 2f ef fb 3d 61 24 ed 3d e0 cf 16 bd
       0.0028023785 0.1230148 0.11579204 -0.03681934
000030 95 04 d8 3d cc e1 22 3d 5b 8c d5 3c 59 10 6e 3d
       0.10547749 0.039766118 0.026067903 0.05812106
000040 a0 2d 1e bc e5 75 66 3d a4 a9 2b 3e 5a 3c c9 bb
       -0.009654433 0.056264777 0.16763932 -0.0061412277
000050 5e b0 13 3d 71 79 3f 3e f5 c2 72 3d aa 50 30 3e
       0.03605687 0.1869867 0.059267957 0.17218271
000060 34 40 c9 bd 6d 1e 87 3d dd 22 a8 3d 1f 46 4d 3c
       -0.09826699 0.065976 0.08209775 0.012528925
000070 e8 a2 c9 bd 54 18 33 3e fd 82 3c 3d 40 c3 60 3c
       -0.09845525 0.17489749 0.046023358 0.013718426

shared_layers.4.weight f4 [8, 32]
000000 b7 6e b3 3d fc c3 4e 3d 99 f1 31 3e f8 93 3c 3e
       0.087613516 0.050479874 0.17377318 0.1841582
000010 c2 88 47 3e b9 93 5a 3d 3e e3 e4 3c 21 c6 34 3e
       0.19485763 0.053363536 0.027940389 0.17653705
000020 93 83 f9 3d ef fe 07 3e 5b 62 3a 3e 48 f0 5b bd
       0.12183299 0.13280843 0.18201582 -0.053695947
000030 cb 20 f4 bd 72 2d d9 3c f9 39 1b 3e 1c 9d 23 be
       -0.11920317 0.026510928 0.15158834 -0.15977901
000040 41 e9 02 3e 7e 1d 31 bd a9 48 72 3d fa 83 12 3d
       0.12784292 -0.043241017 0.059151325 0.035770394
000050 29 d1 66 3e 40 09 3d 3e 34 51 de 3d 0a 0f f3 3d
       0.22540726 0.1846056 0.10855332 0.11868103
000060 50 53 23 3d 7c f0 ba bc 51 3a 14 be 2e a5 34 3e
       0.039874375 -0.02281975 -0.14475371 0.17641136
000070 5f 1f 03 be 69 53 94 3c 8a 88 a5 bd 60 1a 24 be
       -0.12804936 0.01810618 -0.080826834 -0.16025686
000080 b6 e3 99 bd 7a d8 73 be 39 4d 19 3c 59 70 2b be
       -0.075141355 -0.23813048 0.00935679 -0.16742076
000090 71 91 21 be 9c 5d ab 3c 67 04 bc bb a7 c5 86 bd
       -0.15778138 0.02091866 -0.0057378295 -0.06580668
0000a0 fd 59 90 3c 91 8a 6e be 98 e6 88 bd fa db 23 be
       0.017621035 -0.23295046 -0.06684607 -0.16001883
0000b0 e4 8c b2 3d e6 f7 52 bc f3 27 d5 3d 71 39 21 be
       0.08718279 -0.012876486 0.1040801 -0.15744568
0000c0 92 7f 23 be ba 15 1b be a6 ee 10 be 16 6f 1c be
       -0.15966633 -0.15145007 -0.14153537 -0.15276751
0000d0 62 87 e6 bc a2 e2 bc bd 8e 27 9f bd b5 77 6d be
       -0.028140727 -0.09222914 -0.07771216 -0.23190196
0000e0 bb 29 d0 bd b3 1e f1 bd 2d 24 1f 3e 40 e4 87 3d
       -0.101642095 -0.117734335 0.15541144 0.06635332
0000f0 b0 b7 0e be 41 3d 4b be d3 ea 97 3d 47 d3 12 3d
       -0.13937259 -0.19847585 0.07417836 0.03584602
000100 78 6b 84 be 60 b3 47 be eb 02 82 3d d0 81 60 bd
       -0.25863242 -0.1950202 0.06348213 -0.0548113
000110 36 04 94 3d 0d 95 da bd 76 5c 3c 3d 85 8a 17 3e
       0.07227366 -0.106729604 0.045986615 0.14798935
000120 2d 46 73 3d 92 5c 5c bb a5 5a f6 bd b6 4a 10 3e
       0.059393097 -0.0033624512 -0.12029008 0.14091
000130 4a 4d 33 3d 43 79 c3 3c d3 63 0d 3d 00 7e 79 3b
       0.04377488 0.023861533 0.034519028 0.0038069487
000140 9f da 01 be 55 65 70 3d 0e 4f e7 3c 2f 12 c1 bd
       -0.12681054 0.058690388 0.028235938 -0.09427296
000150 33 ba 39 3c 1e 61 65 3c c8 d2 36 bd 3d 8c 9a bd
       0.011335897 0.014000205 -0.04463461 -0.075462796
000160 3e cd 62 3b ff c6 6f 3d 95 db 26 be 5f 87 db 3c
       0.0034607197 0.058539387 -0.16294701 0.026797948
000170 77 fe 32 3d fd 56 0f be e0 73 a9 bd 2b cb ea 3d
       0.043699708 -0.13998027 -0.082740545 0.114645325
000180 07 d2 20 be 20 1b dc bd de 06 90 3d 70 ce 80 be
       -0.15705119 -0.10747361 0.0703256 -0.251575
000190 df 43 40 be f2 48 17 3b 36 7c 97 bc 7c 24 da bd
       -0.18775891 0.002308425 -0.018491846 -0.1065149
0001a0 cf db 9f 3c 15 3a e1 bd f5 d1 52 3b aa a0 fd ba
       0.019513993 -0.109974064 0.0032168601 -0.001935025
0001b0 b1 c8 19 be 62 9b 4e bd 06 0e 38 be dd a4 fe 3c
       -0.15017964 -0.050441153 -0.179741 0.031084472
0001c0 17 45 99 bd 7a f9 75 3d 9b 4e a3 3d 45 ab 82 bd
       -0.07483881 0.060052373 0.07973977 -0.06380323
0001d0 c2 94 8f bd 5e 17 70 bc f0 63 1a be e3 77 e2 bd
       -0.07010795 -0.014654009 -0.15077186 -0.11058023
0001e0 d2 50 08 3e b0 9f 1f 3e e5 cd bb bd a6 a1 ff bb
       0.1331208 0.1558826 -0.09170131 -0.0078012524
0001f0 b4 c7 93 bd 28 36 41 bd a1 a6 4f bd 0c 4e 24 3d
       -0.07215825 -0.047170788 -0.05069602 0.040113494
000200 cd d1 58 3d 95 11 af bd 28 93 0e 3e af c6 b5 3d
       0.052934457 -0.085482754 0.13923323 0.088757865
000210 0f bb 4a be bb d5 17 3e 58 8d ce bd 2f c2 14 3d
       -0.1979792 0.14827625 -0.10085553 0.036318
000220 9e be f7 bd 6c b1 4c be c0 a1 8a 3d 42 a9 79 bc
       -0.12096904 -0.19989556 0.067691326 -0.015238108
000230 58 4b fa bd 06 bf e7 3d 17 93 9c 3d ae b3 fd 3d
       -0.12221402 0.11315732 0.07645243 0.12387787
000240 cc 76 6b 3d 83 9d 9f 3d b0 2b f7 bd 56 e7 22 be
       0.05748634 0.07793715 -0.120688796 -0.1590856
000250 40 2c a0 bb 1e ba fd bd 99 6e 6e bd 10 0b ca 3c
       -0.0048880875 -0.12389015 -0.058210943 0.024663478
000260 4d 49 d8 bd 38 a7 18 3e 52 c8 ef bb 00 1e 6b be
       -0.10560856 0.14907539 -0.007317581 -0.22960663
000270 a1 f0 d4 3c d4 92 46 be b0 aa 06 be 51 80 8f 3c
       0.025993647 -0.19391948 -0.1315105 0.01751724
000280 07 ea 50 bd f7 f0 24 3c 82 83 ee bc 12 aa 56 be
       -0.051004436 0.010067216 -0.029115442 -0.20963314
000290 36 53 4b 3d ee f5 c6 bd cc a3 14 3e 66 27 e3 3d
       0.049639903 -0.09714876 0.14515609 0.11091499
0002a0 97 65 6c 3d c5 fd 91 3c 84 a8 ff bc ad a3 9f bc
       0.05771407 0.017821202 -0.031208284 -0.019487226
0002b0 93 66 36 be 1a 6a 7b bc 5e 98 96 bd 48 9a de bc
       -0.17812566 -0.015345121 -0.073532805 -0.027173176
0002c0 e1 0a 96 3c bd e2 1e bd 12 37 3f be b4 c7 7c 3a
       0.018315734 -0.038790453 -0.18673351 0.0009642795
0002d0 8d 7d 82 be 4b 10 33 bd 25 c8 eb bd c0 4c 83 3d
       -0.25486413 -0.04371671 -0.11512784 0.06411123
0002e0 37 ab 16 be 8b 84 28 3c 88 9a d6 3c 56 53 ce bd
       -0.14713751 0.010285507 0.026196733 -0.10074489
0002f0 34 68 88 3c 21 a1 75 be 6c 01 0e 3e 4d 9b 6f bd
       0.01665125 -0.23987247 0.1386773 -0.058497716
000300 6c 04 1b bc 32 ea 1e be a3 6e 14 3d b3 6e 4b 3c
       -0.0094615035 -0.15519026 0.036238324 0.0124165295
000310 f9 70 ec 3d ca eb 50 bd 65 51 08 3e 4d 6a 03 be
       0.11544985 -0.051006116 0.133123 -0.1283352
000320 ac ac 17 be 89 16 18 be ae 80 90 bd 3a 5c d6 bd
       -0.14811963 -0.14852346 -0.07055794 -0.104668096
000330 aa d9 09 bd bf c0 ce 3d ca 08 15 3d 5b b2 1b 3e
       -0.033654846 0.10095357 0.036385335 0.15204756
000340 af 16 fe 3d 08 4c 31 3d 46 4b 8f 3d dc 82 f5 bc
       0.1240667 0.0432854 0.06996779 -0.029969625
000350 3e 43 0c 3e 51 a0 a8 3c 50 8c 38 3d c5 f5 36 3d
       0.13697526 0.020584257 0.045055687 0.044667978
000360 0e 09 47 bd 2b 8a 39 be b1 b8 b2 3c d2 b2 37 be
       -0.04859262 -0.18119113 0.021816583 -0.17939308
000370 02 13 ed bd 23 62 31 be 4c 55 50 3d c8 62 8e bc
       -0.11575891 -0.17322592 0.050862595 -0.017381087
000380 9e 68 e1 bd d6 3f 6a be 67 f9 1b 3e a5 06 39 bd
       -0.11006282 -0.22875914 0.15231858 -0.045172352
000390 3a 2c 29 be 4f c1 e7 3d fb 67 95 3c 07 43 05 bd
       -0.16520777 0.113161676 0.018238058 -0.032534625
0003a0 d0 c0 40 be 6f cc f3 bd f2 31 83 be 0d f8 5d 3d
       -0.18823552 -0.11904227 -0.25624043 0.054191638
0003b0 8d 1a 8a 3d 41 1f 1e 3c 81 51 02 be c7 4f a6 bd
       0.067433454 0.009651006 -0.12726404 -0.08120685
0003c0 63 2e c9 bd d5 99 56 bb e1 5a 45 be 81 b4 88 be
       -0.09823301 -0.00327455 -0.19272949 -0.26700214
0003d0 e9 92 59 be 68 5b e5 3b 54 ca 6d be 14 39 62 be
       -0.21247448 0.006999422 -0.23221713 -0.22092086
0003e0 b3 90 62 bc d2 a2 90 bd 02 4b a0 bd fb 90 a3 bd
       -0.013828444 -0.070623055 -0.078268066 -0.07986637
0003f0 56 c1 7b bd f4 95 c1 bd e5 71 09 be f4 69 fd bc
       -0.061463676 -0.094524294 -0.13422354 -0.030934311

shared_layers.4.bias f4 [8]
000000 5a e3 9e 3d c6 2d ec bb 9c af a5 3d 3a 6c 62 bd
       0.077582076 -0.007207605 0.080901355 -0.055278994
000010 5a 84 d9 bd 57 29 20 bd 36 90 47 bd 9a bb 42 3d
       -0.10620947 -0.039101925 -0.048721515 0.047542192
