training/models/controller_controller_acc0.95_lat0.012_succ20_small5_large8_carb7_cap610_rate0.000269_best_model.pth (torch, 18433 bytes, 6 tensors)

shared_layers.0.weight f4 [64, 3]
00000000: 997d 073e 5aba 13bf c53d 053f b1ae 02bf
00000010: 3cd0 3fbe 1c97 94be 95de a8bd e49f 7cbc
00000020: eb4e 7d3e c966 93bd e561 bcbe 0f16 a5be
00000030: 246e dcbe 7604 103f 9ef8 0abf c5c4 253f
00000040: 0895 e13e 1a70 60be 6b3c 193e ecc9 0b3d
00000050: 6cfd f2be b1f1 dfbd 7514 eebe d526 cfbe
00000060: f978 123f e65f 0bbf 7417 003f 2f7d 113f
00000070: 9990 983e d520 8fbe 7b0a a73e 2885 b63e
00000080: dfb7 1d3e e257 34bd eb8b ddbe b8db 3ebe
00000090: 992a cbbe d4fc 02be 25e6 ad3e cf6b 89bd
000000a0: e712 d93e 5cbd dfbe 2c91 6b3d d2a4 6a3e
000000b0: 7eac 71bd 260e 0c3f 6132 87bb 0fa2 d73e
000000c0: 6e50 f8be 5677 ab3e 4fb3 edbd 58a7 1cbe
000000d0: ebda f53e 37cb ec3e ebce 2c3f fd6b b73e
000000e0: 9979 acbe 3bb4 ddbe b410 093f 2e3e 223e
000000f0: 6aba ccbd fd85 54be 67d0 d5be 64c7 a0be
00000100: 15a2 e2be e049 da3c 2dc8 243f 309a 2f3f
00000110: 57b4 113f 62a1 2cbe 257c a03e 2b15 923e
00000120: 98e3 193f 4f89 ab3e a1d8 83be ba4d 153f
00000130: 2431 e4be d6df ad3d 6e82 d73d 4a44 25be
00000140: c684 f33b 9152 ed3b ec66 f33e c46d 2fbd
00000150: 2ee6 b03d 9ba3 193d 0e48 703e b101 ad3c
00000160: ad29 ca3d 7972 f8be 853a a63e 49b3 1c3f
00000170: 8a87 17bd 8ce8 f93e 77f7 b2be 97dd 673e
00000180: 42f2 283f eeb4 cabd 23b7 753e f77f 11be
00000190: a6e8 81be 42c7 643e 108c 8bbe 681a d93d
000001a0: cec6 0dbf b0a2 dbbe a8fe f03e 5092 d43e
000001b0: 5dc7 08bf 937e 3a3e 9410 783e 2d30 0dbf
000001c0: fbd3 e8be 36ad 043f 3ada 0ebf 4071 7bbe
000001d0: 8271 073f d32c e0be 0e19 e9be 7c3e dc3e
000001e0: 4b67 eb3e b32e 053f c1dd 993e 07e4 8ebe
000001f0: 063d 1e3e 3c04 093f de09 2f3e c20b 05bf
00000200: eaa3 80bc 8c91 34bd 05a8 8bbd e07a 01bf
00000210: fbba c9be d278 a63e fd34 7dbe a43b e7be
00000220: c39e 963e def0 abbe b455 cc3d bc44 903d
00000230: 6677 c5be b179 343d 7085 ab3e 3f1d 8e3e
00000240: 483f 68be d1e2 e53e 51a0 f0be 23bc c33e
00000250: 2052 d93e e5a1 aebe 92ea f8be 7906 45be
00000260: 703a d3be 0b96 4e3e b119 7e3e 1881 ff3e
00000270: 505b ce3e 57dc 0bbe e996 85be 1553 973e
00000280: 6bb8 b83e a26c 0bbf 6a50 10bf 71da df3e
00000290: 4f2b ef3d 1227 203f c239 7dbd b42f b2be
000002a0: 96bc 05bf ca88 bfbe 4118 e93e 76af 753d
000002b0: 289e 0c3f ffc0 0c3f b73c e6be 9501 9a3e
000002c0: ff35 783e 282e bd3e 2220 7bbe f8f2 e6be
000002d0: 9282 dd3e 7b26 9bbc 8f39 173f fca7 0a3f
000002e0: d1f5 c63e 46e7 a9be 75c9 b4bb 3b14 a8be
000002f0: 7e2f cfbd a01f aebe 17ad 9bbe a83d 3c3e
0.13231505 -0.57706225 0.5204738 -0.5104781 -0.18731779 -0.29021537 -0.08245579 -0.01541898
0.24737136 -0.07197339 -0.36793438 -0.32243392 -0.4305278 0.56256807 -0.5428561 0.6475337
0.44059014 -0.21917763 0.14964454 0.034128115 -0.4745897 -0.10934771 -0.46499982 -0.40459314
0.5721584 -0.54443204 0.50035787 0.5683164 0.2979782 -0.27954736 0.32625183 0.35648465
0.15402173 -0.044029124 -0.4327081 -0.18638504 -0.39680937 -0.12791759 0.3396465 -0.06710016
0.42397234 -0.43699157 0.057511494 0.22914436 -0.059002392 0.5470909 -0.0041258787 0.42115828
-0.48498863 0.33489484 -0.11606466 -0.15298212 0.48018584 0.4624879 0.6750323 0.35824576
-0.33686522 -0.43301567 0.5354111 0.15844032 -0.09996493 -0.20754237 -0.4176056 -0.31402123
-0.44264284 0.026646554 0.64367944 0.68594646 0.569158 -0.16858438 0.31344715 0.28531775
0.60112906 0.33503196 -0.25751212 0.58321726 -0.4456874 0.08489959 0.10522924 -0.16139331
0.0074315993 0.0072425087 0.4753946 -0.04282929 0.08637653 0.037509542 0.23464987 0.02111897
0.0987123 -0.48524836 0.32466522 0.6121107 -0.036994494 0.48810232 -0.34954426 0.22643124
0.65994656 -0.09897791 0.23995642 -0.14208971 -0.2537281 0.22341636 -0.27255297 0.1060074
-0.55381477 -0.42897558 0.47069287 0.41517878 -0.53429204 0.18212347 0.24225074 -0.55151635
-0.45474228 0.518268 -0.5580174 -0.2455492 0.52907574 -0.43784198 -0.45526928 0.43016422
0.45977244 0.5202438 0.30051997 -0.27908346 0.15452966 0.53522086 0.17093608 -0.51971066
-0.01570316 -0.044084117 -0.068191566 -0.5057812 -0.39400467 0.32514054 -0.24727245 -0.4516269
0.29418 -0.33582205 0.09977284 0.0704436 -0.38567656 0.044061366 0.33500242 0.27756688
-0.2268039 0.4489961 -0.46997312 0.38229474 0.4244547 -0.3410789 -0.48616463 -0.1924075
-0.41255522 0.20174424 0.24814488 0.49903178 0.4030404 -0.13658272 -0.26091698 0.29555574
0.360782 -0.54462636 -0.563727 0.43721345 0.11678182 0.62559617 -0.06182266 -0.3480202
-0.52240884 -0.3740905 0.45526317 0.059981786 0.5492883 0.5498199 -0.44968197 0.30079332
0.24239348 0.36949277 -0.24523976 -0.45107245 0.4326368 -0.018939247 0.590722 0.54162574
0.38859418 -0.3318426 -0.0055171796 -0.32827935 -0.1011648 -0.34008503 -0.30405495 0.18382895

shared_layers.0.bias f4 [64]
00000000: 6c21 8bbe 51e8 f93e 4a29 95be 4030 2e3f
00000010: fe5d 00bf c69f 1d3f b62f 483e 937d 81bc
00000020: ef72 11bf 1f58 aa3e b8d2 3a3e 159f 2b3f
00000030: adb7 02bf 4c7f f93e 2d38 74be 1c94 8b3e
00000040: 4fe5 3d3e 8712 97be 849e af3d a225 993d
00000050: a722 cebe dec8 aabe 33bd c6be 2318 5dbe
00000060: 47a7 d8be 9595 843e 889f e63e 2d1c 0ebf
00000070: 7090 b03e a557 9dbe 0dab 7c3e e99b 673e
00000080: 205d 5d3e 1546 163f 18c8 d2bd d8eb 9fbe
00000090: 3e83 85be 1518 5e3d 258b 913e e790 ba3e
000000a0: 4e5b 163e d623 9ebd f171 12bf 05a8 a6bd
000000b0: 2bd2 c5be 7d9a 5c3e d0cb 96be a339 b23e
000000c0: 96eb 043f 4025 85bd ec21 02be e4a7 07bf
000000d0: 7af0 e6be 9cb6 8d3e 5a9f 9ebe d5c2 4dbe
000000e0: 29bf 0abf 787f 3a3e 7842 65bd adb6 023d
000000f0: 3c86 a53d 1a7a d53e 0558 fb3d c15b d53e
-0.27173936 0.48810056 -0.29133064 0.68042374 -0.5014342 0.6157192 0.1954945 -0.015806949
-0.56816 0.33270356 0.18244445 0.67039615 -0.51061517 0.48729932 -0.23849554 0.27261436
0.18544506 -0.29506323 0.08575156 0.07477881 -0.40260813 -0.33356375 -0.38816223 -0.21591239
-0.42315122 0.25895372 0.45043588 -0.5551174 0.34485197 -0.3073093 0.24674626 0.22618069
0.21617556 0.58700687 -0.10292071 -0.31234622 -0.26076692 0.054222185 0.2842647 0.36438677
0.14683267 -0.07721679 -0.5720511 -0.08137516 -0.38636908 0.21543308 -0.29452372 0.34809598
0.51921976 -0.065012455 -0.12708253 -0.52990556 -0.45105344 0.27678382 -0.3098095 -0.20093854
-0.5419794 0.18212688 -0.055971593 0.031912494 0.08082244 0.4169472 0.12272648 0.41671565

shared_layers.2.weight f4 [32, 64]
00000000: a275 dbbd fc80 b2bd 6892 d8bd c8ff 973d
00000010: 486a 963c 3b61 a9bd 1ef9 d6bd c82d 38bd
00000020: 7ad7 943d bf32 65bd dc14 d13d 9219 893d
00000030: 3684 d73d b393 f2bd 1a4c 80bd 59ba febd
00000040: c02e 21bc 00dc bfba 1126 4fbd bd27 a739
00000050: 3a6d c2bd ccc4 df3d f628 8cbc 78e4 f1bd
00000060: 471d 79bd 1298 e43d f4de 703d ce8b edbd
00000070: f05a 80bd f8ba 373d 7f6e 05be 58c7 8b3d
00000080: edb2 683d 4101 85bd 68e5 34bd 1ce6 ebbd
00000090: 48b9 c2bd e002 debb b006 3fbd 94c2 c9bd
000000a0: 0755 503a 942e 49bd c8f1 a3bd c8b5 f23d
000000b0: 308a ce3d 7666 a3bd 9a2f 9fbd 5336 483d
000000c0: 82bc 3d3d e7ef 78bd 4ade d23d c0ff 84bd
000000d0: eabb e53d 4b6f d23c 6079 9b3b c0df 09be
000000e0: dc0b 2f3d 61c0 c1bd 063d aabd 83a6 1a3d
000000f0: b89f 4dbd d687 b03d 9771 9abd 4067 56bc
00000100: 58dc 14bd f86f 93bd c468 7ebd 1ce6 fa3c
00000110: 487e c93c eb9b 393c 7a65 00be 70cb debc
00000120: bccd db3d 4ac4 05bd e6e7 b43d a9fb e3bb
00000130: cc87 bebd 64cb 5dbd 1a57 933d 5ab0 013d
00000140: b866 a63d d4e3 423d 02f7 c5bc 3dc7 bebd
00000150: f072 423c 0054 943b 77f7 043d 4ca4 0d3d
00000160: 3683 0cbe 69ec a53d 881e ac3d 88d8 f93d
00000170: db4f 5cbd dc85 623d c146 87bc e27a dd3c
00000180: 89b8 53bd 7f3b 163d 0011 4cbb 902e e73d
00000190: 5cc8 7fbd 58e3 cf3d e887 3d3d 3cd5 25bd
000001a0: abc5 ebbd 509f c63d b0b4 c1bd d47b 07bd
000001b0: 9283 bc3d 0846 d33d 8836 46bd 71da 47bb
000001c0: 3fd5 09be dece ab3d c441 92bd f463 3e3d
000001d0: 56b6 c9bd e739 9e3d a81a 163d 7ad1 92bc
000001e0: 90f7 9b3d a1af fdbc 6252 f23d 9798 f1bd
000001f0: 150d d5bb f9d6 813d 8085 9a3c 046f 01bd
00000200: 0052 7f3d 90c0 ee3d d0f0 6e3c ae1a ecbd
00000210: d4aa 2fbd 945e 5abd c046 43bd b244 cabd
00000220: ca88 e73d 804e f03c 5e89 b5bd 40bb 513d
00000230: e437 883d 344b ae3d 7876 6b3d 50a6 4dbc
00000240: 3835 c1bc c83e 9f3d 6090 d83b 7407 083d
00000250: 18fd a4bc b009 b4bc 908a d8bc f42f f0bd
00000260: 4ab2 adbd 0055 0aba da71 be3d 4070 90bb
00000270: f6dc c2bd bc99 64bd 1cc0 2abd f8c5 28bd
00000280: 3024 1abc e882 a9bd c889 5f3d 6050 5dbd
00000290: e067 73bc 7608 a83d 2408 79bd 80f8 c23c
000002a0: e0d5 ef3b 2c0a 95bd a8ff f8bc 4c1f a1bd
000002b0: 9839 b4bc 50a4 aebd 30c6 cdbc 94cf 253d
000002c0: b8ec f7bc 28cb c03c aceb d13d 6e19 dfbd
000002d0: b887 f63c b054 1ebd 9626 ac3d 80bf 88bd
000002e0: 40bc 883b 9cb2 94bd d0d7 e03d 1c12 b13d
000002f0: 007c 9d3a 80ac efbb 10ab 9c3d 18dd 88bc
00000300: f862 35bd 6eda dd3d 1ed7 aabd 0044 133a
00000310: 88d8 e83c cc3f 2cbd 388d 9ebd e647 a4bd
00000320: 16d9 d9bd be9d bcbd 86b6 eebd 10ec 50bc
00000330: e835 b73d e009 683d 44ab f8bd 584d eabd
00000340: 2036 b43b a45e 933d e4fa 333d b042 26bd
00000350: 24ff 463d 1469 053d e08c 1b3d f83f fabc
00000360: 7c87 053d b0bf 20bc 9653 c4bd e8ee e1bd
00000370: f03b 543d 345b c83d e8d8 e43c ce70 fd3d
00000380: eef8 fb3d 6886 9f3d ecc6 03bd 00c5 bfbc
00000390: 481e ce3c 2c8a 9e3d 30ad b33d 303d 89bd
000003a0: 5ec4 d73d e836 e63c 7694 d03d a8c1 ecbc
000003b0: f832 d23c d884 b83d 207c 343c 58fa 45bd
000003c0: 4414 92bd 30b4 8dbd 6088 863d ac4d 1fbd
000003d0: 60ff 0b3c 208c 01bd 26c5 f23d 58ac d23c
000003e0: c0a3 02bc c038 d1bc c8e1 95bd 12f8 cdbd
000003f0: 6289 a5bd 6064 c8bc 94be 5cbd c831 14bd
-0.10715796 -0.08716008 -0.105748 0.07421833 0.018361226 -0.08270498 -0.10496734 -0.044965535
0.072676614 -0.0559566 0.10209057 0.0669433 0.10523264 -0.11844578 -0.06264515 -0.12437887
-0.009837806 -0.0014637709 -0.050573412 0.0003188233 -0.094934896 0.10926208 -0.017109375 -0.11811155
-0.060818937 0.111618176 0.058806375 -0.11598931 -0.06267345 0.04485604 -0.13030432 0.06825131
0.056811262 -0.0649438 -0.04416409 -0.11518499 -0.09507996 -0.006775245 -0.046637237 -0.09851566
0.00079472404 -0.049116686 -0.080051005 0.11851078 0.10084951 -0.07978527 -0.07772751 0.048879933
0.046322353 -0.060775664 0.102963045 -0.06494093 0.112174824 0.025687834 0.0047446936 -0.1346426
0.04273592 -0.094605215 -0.083124205 0.037756454 -0.050201148 0.08619659 -0.07541197 -0.01308614
-0.03634295 -0.07199091 -0.06211163 0.030627303 0.024596348 0.011328678 -0.1253871 -0.027196616
0.107326 -0.0326579 0.088332936 -0.0069574905 -0.09303245 -0.054149047 0.07194348 0.031662323
0.08125061 0.047580555 -0.024165634 -0.093153454 0.011868224 0.004526615 0.032462563 0.034580514
-0.13721928 0.08101732 0.08404261 0.12199503 -0.053787094 0.05530344 -0.01651323 0.027036134
-0.05168966 0.036677834 -0.0031138062 0.11288178 -0.062446937 0.10150784 0.04627219 -0.04048656
-0.115123115 0.09698355 -0.094582915 -0.033077076 0.092047825 0.10316092 -0.04839185 -0.0030495191
-0.13460253 0.08389066 -0.0714145 0.04648204 -0.09849231 0.07725888 0.036646515 -0.017922152
0.07615578 -0.030967535 0.118321195 -0.11796682 -0.0065018036 0.06339831 0.018862486 -0.031600013
0.06233406 0.11657822 0.014583781 -0.11528526 -0.042887524 -0.053312853 -0.047674894 -0.09876384
0.11305387 0.029334307 -0.08864091 0.051203966 0.06651285 0.085104376 0.057486027 -0.012551859
-0.023584947 0.077756464 0.0066090077 0.033210233 -0.020140216 -0.021977276 -0.02643326 -0.11727896
-0.084812716 -0.0005276948 0.09299059 -0.0044079125 -0.09514801 -0.055810675 -0.041687116 -0.041204423
-0.009408042 -0.082769215 0.054574758 -0.05403173 -0.014856309 0.08204739 -0.06079878 0.023800135
0.007319197 -0.07277331 -0.030395344 -0.078672975 -0.02200012 -0.08527434 -0.025118917 0.040481165
-0.030264243 0.023534372 0.10250029 -0.10893522 0.030094013 -0.038654983 0.08405797 -0.06677151
0.004172832 -0.072606295 0.10978663 0.08646032 0.0012015104 -0.007314265 0.07649815 -0.016706988
-0.044283837 0.10832678 -0.083418116 0.0005617738 0.028423563 -0.04205303 -0.07741779 -0.08021526
-0.10637109 -0.092097744 -0.11655907 -0.012751594 0.08945829 0.056650043 -0.12142041 -0.114405334
0.0054996163 0.07195786 0.04394044 -0.040590942 0.048583165 0.032570913 0.037976146 -0.03054808
0.03259991 -0.009811327 -0.09586255 -0.11031896 0.051814973 0.097830206 0.02793546 0.123750314
0.12303339 0.07789308 -0.03217213 -0.023409367 0.025160924 0.07741198 0.08773267 -0.06701124
0.10535501 0.028102353 0.10184567 -0.028900936 0.02565907 0.09009713 0.011015922 -0.04833445
-0.071327716 -0.06919134 0.0656898 -0.038892433 0.008544773 -0.031627774 0.11854009 0.025716946
-0.007973611 -0.025539756 -0.07318455 -0.10057081 -0.08082844 -0.024461925 -0.053892687 -0.036180288

shared_layers.2.bias f4 [32]
00000000: bcf0 313d f778 b2bd fa3e abbd ea6d e73d
00000010: 60eb f43c 460c 4c3e 2c8f bbbd d3f4 663c
00000020: d2a8 9c3d 5a55 ae3c 089d 19bd 6aea ba3d
00000030: 5407 1d3d 9ab4 80bd 106a 1dbc a5cd f53d
00000040: c3b3 9b3d ee22 ea3d 708d 71bd 1be3 b93d
00000050: d7fd 333e 2ac2 9ebd e121 113e 1a41 953d
00000060: a3fb be3d 8087 ffbd ebb0 023e 24ca 1cbd
00000070: 7cfd cf3d 336d e83b 1851 1abd 44fb eebd
0.043442473 -0.087144785 -0.08361621 0.11300261 0.029897392 0.19926557 -0.09158167 0.014096457
0.076493874 0.021280933 -0.037503272 0.09126742 0.038337067 -0.06284447 -0.009607807 0.12002114
0.07602646 0.114324436 -0.058972776 0.0907652 0.17577301 -0.077518776 0.1417308 0.07287808
0.0932534 -0.124770164 0.12762801 -0.038278714 0.1015577 0.0070930957 -0.037674993 -0.11669019

shared_layers.4.weight f4 [8, 32]
00000000: 2a39 26be 772d cebd 04be 33be 6677 3c3c
00000010: d966 e2bd 5881 753e a5fd fabd 4a54 13be
00000020: 5591 fbbd 8fd7 423e cff8 53bd 7928 953d
00000030: 46a1 33bb ed61 c4bd 8410 09be 18b6 573e
00000040: 5015 223e a825 28bd 6c3e fdbc 7ce8 8a3e
00000050: 22d7 173e 7df9 993c b741 d03d 97fd e0bd
00000060: a85e 15be fd01 c73c 13c4 3f3e 2150 0c3e
00000070: 4ece 2c3e f476 40bd 4448 1a3e c943 9dbd
00000080: 9558 933c 3148 adbd bdf9 c43d 93ed 9cbd
00000090: b378 f53d ea58 8bbd 8674 1f3e e16e b1bd
000000a0: 7ad7 54bc d53d 69be 448d c4bd 05cb 87bc
000000b0: 3054 b53c b473 4a3d 281d 4c3c dd5a cabd
000000c0: 88db 16bd 893a 1cbd a0d6 fdbc 1c7f dc3a
000000d0: 8038 21be 4d8c d53d 6685 70bc c949 313d
000000e0: 8663 1c3e f516 d8bc 1546 76be c89b 6cbd
000000f0: 2901 c83d 4aa9 bbbd 6e7b 27be 2217 1c3e
00000100: 323e 663d 183f d13b 1313 debd e050 8f3d
00000110: a25a d43c 6a48 95be 4d55 cf3d 11b1 26be
00000120: 5fbb a0bd 2a56 3ebe a4d3 24be a9fc b1bc
00000130: a2cf ee3d e404 e73d f4a3 cb3d 899f 34be
00000140: 9327 47be 954f eebd d422 7c3c ba9f 1f3c
00000150: dc62 94be 9ad5 b33a 1b34 1fbe ace1 133e
00000160: eaee a43d 1bcc e53d 37dd b0bd d24f b83d
00000170: 1eb4 8abd f726 303d 0ec2 2cbe c925 213e
00000180: c929 1d3e 4c58 d6bd 0a15 2abe 7630 ce3d
00000190: 43e8 33be bf95 74bd 5f08 fdbc 3c89 123e
000001a0: 832c 64bc dbee aebd 24a4 333e 4c33 bd3c
000001b0: 000c a83d fc4f 273b 1401 3e3d 3c0d 8fbd
000001c0: 8a2a 82bd c932 81bd 1d34 303e 4058 e9bc
000001d0: 88f6 0ebe c2d8 983d d2bd a6bd 2690 1abe
000001e0: 8a85 c63c 999d babd 71bc 0abe 0c2e c43d
000001f0: 1285 d2bd 3af4 af3d 3792 d73d 5f99 0a3e
00000200: 513f b73d 6087 c93c 6e9e 86bd 75c8 323e
00000210: dfb7 a63d b513 4abe b9ca f33d 7c31 d9bd
00000220: 598f 153e a0c4 9dbd b4b2 97bc 5dfc 863d
00000230: 99f6 32bc c87d 823d a8d8 e4bd 4bd8 afbe
00000240: f4be c8bd 2361 2d3e 888b 9e3d 1b43 f1bd
00000250: d65e 91be dfcc 833d 3215 95be 74f0 2c3d
00000260: 5c82 82bd 815f f5bc be11 67be 05b9 e7bd
00000270: 28c8 cc3d ad75 85bd cb5b 13be 245e 23bd
00000280: ebd1 0a3e 9f24 ffbd 124b 663d 0c14 f1bd
00000290: b4c8 24be a2f9 3dbe a6cf d63d a826 fd3c
000002a0: 1870 4abe 81c2 193c 2ba1 aa3c 1360 073e
000002b0: 74f0 8abd d34d f8bd 27ab 443d 96bc 97be
000002c0: 8d19 00be 386d 0d3e 58d5 d33c 08e4 6ebe
000002d0: 5364 95be fcdd 17be 5cc9 1bbe 9796 92bd
000002e0: 4057 a33d c38f 0d3e 78e9 7abe d0d8 adbc
000002f0: bcc2 543d e304 033e bcbb fb3d 43bd e33d
00000300: 2d1d d43d 57e7 45bb c5df 6dbc c4fb 803a
00000310: bef7 8d3c 9888 34be e8dc 23be b3c9 0bbe
00000320: bdac 59bd 4b6c cf3c 4c26 cebd 4143 d7ba
00000330: 69ad 65bd 4451 513d 53fc 293d 127d 05bd
00000340: 4180 55be f68d d53a be8d 5dbc 1736 35be
00000350: 200d a7bc fb23 90bd d2bc 203d 389d 8d3d
00000360: 066b 123d 0cdb b0bd 39ea 853d 1ad9 2ebe
00000370: ca81 2d3e 0c19 d33c 61e4 133e f409 c63d
00000380: 0bad 4bbc 4dc5 9abd 66dc 993d 5a0d b83b
00000390: 384c 22be 0460 9bbe d494 1e3e 75af db3d
000003a0: a84d f2bc ac40 13be 7ba7 51bd 4e12 a13d
000003b0: 0186 133e c683 093c dccf 18be 77ed bfbe
000003c0: f1b6 79be 3f8b 0cbe baa0 f1bc 0235 d0bd
000003d0: 267d f0bc b4fe 8fbd 73a4 89be 6448 f63d
000003e0: 1b2a 1a3c 8a65 f83d ba80 acbe 4c09 cbbc
000003f0: 46ad ccbd ee35 b93d b0f6 98bd e5b2 6cbd
-0.16232744 -0.100672655 -0.17552954 0.011503076 -0.11054773 0.23975122 -0.1225541 -0.14387622
-0.12283579 0.19027542 -0.051750954 0.0728311 -0.002740936 -0.0958899 -0.13385206 0.21065557
0.15828443 -0.041051537 -0.030913554 0.27130497 0.1482816 0.018795723 0.10168784 -0.109858684
-0.1458689 0.02429294 0.1872714 0.13702442 0.16875574 -0.046988443 0.1506663 -0.076789446
0.017986575 -0.08461035 0.09617946 -0.07662501 0.11985912 -0.068040684 0.15571794 -0.086637266
-0.012990827 -0.22777493 -0.09597257 -0.0165763 0.02213487 0.04942675 0.012458123 -0.09880612
-0.036830455 -0.03814176 -0.03098613 0.001682255 -0.1574421 0.10427151 -0.014680242 0.043283258
0.1527234 -0.026378134 -0.24050172 -0.057765752 0.09765846 -0.09163149 -0.16355678 0.152432
0.056211658 0.006385695 -0.10843482 0.069978476 0.025922123 -0.2915681 0.10123692 -0.16278483
-0.07848238 -0.18587556 -0.1609636 -0.021726923 0.116606966 0.1128023 0.09943381 -0.17638983
-0.1944869 -0.11636273 0.015389163 0.009742672 -0.28981674 0.0013720274 -0.1554722 0.14441556
0.08053382 0.11220571 -0.086359434 0.089995995 -0.06772636 0.04300591 -0.16870901 0.1573707
0.15347971 -0.1046606 -0.16609588 0.10067837 -0.1756907 -0.05971312 -0.03088778 0.14310163
-0.013926628 -0.08541652 0.17543083 0.02309575 0.08205414 0.0025529852 0.046387747 -0.06984946
-0.0635577 -0.063085146 0.1720738 -0.028484464 -0.13961232 0.07463218 -0.08141674 -0.15094051
0.024233598 -0.091120906 -0.13548447 0.09579095 -0.102792874 0.085915044 0.10525935 0.13535069
0.089476235 0.024600685 -0.06573187 0.17459281 0.081405394 -0.1973408 0.11903901 -0.106051415
0.14605464 -0.07703519 -0.01851783 0.06591103 -0.010923051 0.06371647 -0.111741364 -0.34344706
-0.098020464 0.16931586 0.07741457 -0.117803775 -0.28392667 0.064355604 -0.29117733 0.0422215
-0.0637252 -0.029952766 -0.22565362 -0.113145865 0.09999114 -0.065165855 -0.14390485 -0.0398847
0.1355664 -0.12458157 0.056223936 -0.11771402 -0.16092187 -0.18552259 0.104888245 0.030902222
-0.19769323 0.009384752 0.020828804 0.13220243 -0.06784144 -0.12124219 0.048014786 -0.29636067
-0.12509747 0.13811195 0.025858566 -0.23329175 -0.29178104 -0.14830774 -0.15213531 -0.07157629
0.07975626 0.13824372 -0.24503124 -0.021221548 0.051943526 0.12794833 0.12291667 0.11120083
0.10357127 -0.0030197704 -0.014518683 0.0009840657 0.017330047 -0.17630231 -0.16002238 -0.13651161
-0.05314325 0.025320193 -0.10065898 -0.0016423241 -0.05607358 0.05110289 0.0415004 -0.03258998
-0.20849706 0.0016292918 -0.0135225635 -0.17696415 -0.020392 -0.07038113 0.039242573 0.06914753
0.035746597 -0.0863553 0.06538815 -0.17075005 0.16944042 0.02576878 0.14442588 0.09669867
-0.012431393 -0.075571634 0.07512741 0.005616826 -0.15849388 -0.30346692 0.15486461 0.10726825
-0.029578045 -0.14380139 -0.051185112 0.078648195 0.14406587 0.008393234 -0.14923042 -0.3748586
-0.24386193 -0.13724993 -0.029495586 -0.101663604 -0.02935655 -0.07031003 -0.26883277 0.12025526
0.009409453 0.12128742 -0.3369196 -0.024784707 -0.09993987 0.090434894 -0.07468927 -0.057787795

shared_layers.4.bias f4 [8]
00000000: d9ad 473e c101 d43c b87a 1abe 3d4e 4ebe
00000010: dd5b b2bd 1e2a 8cbd b4e0 d23c e114 8abe
0.19499911 0.025879743 -0.15085876 -0.20147033 -0.08708928 -0.06843971 0.025741912 -0.26969054
