training/models/controller_controller_acc0.95_lat0.012_succ5_small7_large10_carb15_cap105_rate0.001598_best_model.pth (torch, 18445 bytes, 6 tensors)

shared_layers.0.weight f4 [64, 3]
0	0xbc52425d	-0.012833205
1	0x3e2b3c8c	0.16722316
2	0x3e8999ed	0.2687525
3	0xbbb40541	-0.0054937904
4	0x3e3173de	0.17329356
5	0xbef14b11	-0.47127584
6	0x3f29b43b	0.66290635
7	0x3f1f8a0c	0.6232002
8	0x3e582cf4	0.21110898
9	0xbec1979a	-0.37810975
10	0xbf11d464	-0.5696471
11	0xbed0c6c2	-0.4077664
12	0xbe0f76b6	-0.14010128
13	0xbedf5d8e	-0.43626064
14	0xbe7dff30	-0.24804378
15	0x3e9a80f8	0.3017652
16	0xbed9f389	-0.42568615
17	0x3f070631	0.5274382
18	0xbee03151	-0.43787625
19	0x3ecc6a45	0.39924827
20	0xbe82f665	-0.2557861
21	0xbdde16a4	-0.10844162
22	0xbf0e9ec6	-0.5571102
23	0xbf021554	-0.50813794
24	0x3effc427	0.4995434
25	0x3e367f09	0.17821898
26	0x3e868406	0.262726
27	0x3f0eab0f	0.55729765
28	0x3eaf45ed	0.34233037
29	0x3f075112	0.5285808
30	0x3f12764c	0.57211757
31	0x3ef36d23	0.47544202
32	0x3e693f92	0.22778156
33	0xbe8a018f	-0.26954314
34	0x3edd2a75	0.43196455
35	0x3ec74ce9	0.38925865
36	0x3d0afac3	0.03393055
37	0xbd17dde8	-0.03707686
38	0xbe3a8cb0	-0.1821773
39	0x3e21fae0	0.15818357
40	0xbe861915	-0.2619101
41	0x3d6d93fb	0.058002453
42	0x3ea4aa11	0.32161
43	0xbf03538a	-0.51299345
44	0x3e36eaae	0.1786296
45	0xbe9053fb	-0.28189072
46	0x3ef6245e	0.4807462
47	0xbf05cd23	-0.5226614
48	0x3dd172e1	0.102269895
49	0x3f213967	0.62978214
50	0x3e26901f	0.16265915
51	0xbe896c8a	-0.2684062
52	0xbcbc051d	-0.022951657
53	0x3e6b025a	0.22950116
54	0x3e8a7857	0.27044937
55	0xbe590449	-0.21193041
56	0x3ea3603f	0.31909367
57	0x3ecd3f7b	0.40087494
58	0x3e953f05	0.29149643
59	0xbe857646	-0.26066798
60	0xbe0701f9	-0.13184346
61	0xbeaba003	-0.33520517
62	0x3f05258f	0.52010435
63	0x3e485603	0.19564061
64	0x3ee23fbe	0.44189256
65	0xbdae2de4	-0.08504847
66	0x3ccc6765	0.024951646
67	0xbd12496e	-0.03571456
68	0xbd0a7368	-0.033801466
69	0xbd3d4f12	-0.046217985
70	0xbe7d1836	-0.24716267
71	0xbcc94dff	-0.024573324
72	0x3e228372	0.15870455
73	0x3ddf1296	0.10892217
74	0x3ede269c	0.43388832
75	0x3c5fbad5	0.013655384
76	0x3f281e86	0.65671575
77	0x3f090f1f	0.535387
78	0xbf09cb44	-0.53825784
79	0x3edc5310	0.43032122
80	0x3d515c5d	0.051113475
81	0xbe65311d	-0.22382016
82	0x3e4a52c2	0.19758132
83	0xbe243259	-0.16034831
84	0xbefa9df5	-0.48948637
85	0xbed70f3f	-0.4200382
86	0x3eb6ce48	0.35704255
87	0xbf0b9cf1	-0.5453635
88	0xbeb842d8	-0.35988498
89	0xbe9632f3	-0.29335746
90	0xbec3ec28	-0.3826611
91	0x3ee81b3f	0.45333287
92	0xbcfe00f0	-0.031006306
93	0xbe7eefc8	-0.24896157
94	0xbea8993c	-0.3292941
95	0x3eee60d2	0.46558243
96	0x3e4bbc98	0.19896162
97	0xbdb5a713	-0.088697575
98	0xbe10229e	-0.14075705
99	0xbc710d5d	-0.014712659
100	0x3f067d50	0.5253496
101	0xbe7cb2f0	-0.24677634
102	0x3e3a127a	0.18171111
103	0x3dd96f09	0.106168814
104	0x3dd7a867	0.10530167
105	0x3e8a982b	0.2706922
106	0xbea3a6fa	-0.3196333
107	0x3d1af7d4	0.037834004
108	0x3f01c4ec	0.50691104
109	0x3f0d1554	0.5511067
110	0x3efae823	0.4900523
111	0xbe0aeee8	-0.13567698
112	0x3f002e84	0.5007098
113	0xbd870251	-0.06592239
114	0xbe27c96a	-0.16385427
115	0x3e0c827e	0.13721654
116	0x3e316a8f	0.17325805
117	0x3e01b490	0.12666535
118	0xbe133140	-0.14374256
119	0x3e4732ca	0.19452968
120	0xbef18808	-0.47174096
121	0x3ee86eb1	0.4539695
122	0x3f0e878a	0.55675566
123	0x3e908183	0.2822381
124	0xbe717278	-0.23578823
125	0x3ecb5d8a	0.39719802
126	0x3f24f5ad	0.6443737
127	0x3f02d202	0.51101696
128	0xbdff1e33	-0.12456932
129	0x3f00a64c	0.5025375
130	0x3ec21e1f	0.37913606
131	0x3f153ed2	0.5829898
132	0x3ed7cec8	0.4214995
133	0xbe9955ba	-0.29948217
134	0x3ea107bd	0.31451216
135	0x3f15b9c5	0.58486587
136	0xbda449e9	-0.0802191
137	0x3cf0ad26	0.029379439
138	0x3eaf91cc	0.34290922
139	0xbe2a87b1	-0.16653325
140	0xbf00866f	-0.5020513
141	0xbe1744ab	-0.14772289
142	0x3ef0251b	0.4690331
143	0x3ef678bc	0.48138988
144	0x3ea95802	0.33074957
145	0x3ebaf7fb	0.3651732
146	0x3e0af9ea	0.13571897
147	0xbedd4306	-0.43215197
148	0x3d87ed9f	0.066371195
149	0xbebee242	-0.37281996
150	0xbf0c380b	-0.54773015
151	0xbeaad488	-0.33365273
152	0xbd5e8341	-0.054324392
153	0xbed77570	-0.42081785
154	0x3d3f705f	0.046738025
155	0xbed36670	-0.4128909
156	0xbf097923	-0.53700465
157	0xbc9e9fa4	-0.019363232
158	0xbe384d7f	-0.17998312
159	0x3eda20ba	0.42603093
160	0x3e30fbaf	0.1728351
161	0x3ef694c2	0.48160368
162	0xbec89293	-0.39174327
163	0xbede9737	-0.43474743
164	0x3e0d0874	0.13772756
165	0xbebc9756	-0.3683421
166	0xbe43002d	-0.19043036
167	0x3ee9b29a	0.45644075
168	0xbd797955	-0.060906727
169	0x3e5dcd1e	0.21660277
170	0xbe966ef1	-0.29381517
171	0x3dbc66a5	0.091992654
172	0xbeb525f5	-0.3538052
173	0x3e5addcb	0.2137367
174	0x3f1ed890	0.620492
175	0xbdc99e8a	-0.09844692
176	0xbe167367	-0.1469246
177	0xbef1f917	-0.47260353
178	0xbe7de3d6	-0.24793944
179	0x3e51bd73	0.20482425
180	0xbece86cc	-0.40337217
181	0xbeda4032	-0.42627102
182	0xbf060f8e	-0.52367485
183	0x3ea23dd2	0.3168779
184	0x3dcd7c4c	0.10033473
185	0x3ef55bf1	0.47921708
186	0x3ec00867	0.3750641
187	0x3e480606	0.19533548
188	0x3f1e1e88	0.61765337
189	0xbf0043c2	-0.5010339
190	0xbed86cf7	-0.42270634
191	0xbea1d284	-0.31605923

shared_layers.0.bias f4 [64]
0	0xbea493bf	-0.3214397
1	0xbe472e54	-0.19451267
2	0xbedf9b00	-0.43672943
3	0xbec23ba9	-0.37936142
4	0xbe622722	-0.2208524
5	0xbef5df0a	-0.48021728
6	0x3ed2b994	0.4115721
7	0x3c9bb66d	0.019007886
8	0xbea04220	-0.3130045
9	0xbee2509d	-0.44202128
10	0xbec60397	-0.38674614
11	0xbdfcc6b7	-0.12342589
12	0x3f27a7b6	0.6549028
13	0x3ece9292	0.403462
14	0xbdf1559a	-0.11783905
15	0xbe6c8662	-0.23098138
16	0x3e962a2c	0.2932905
17	0xbdc82b0c	-0.097738355
18	0xbe5791aa	-0.2105166
19	0x3e85dd66	0.26145476
20	0xbf030d22	-0.51191914
21	0x3e38a079	0.18029965
22	0x3f266be4	0.6500838
23	0xbeffbf60	-0.49950695
24	0x3f2abae0	0.666914
25	0x3d940204	0.07226947
26	0xbe398798	-0.18118131
27	0xbed08c36	-0.40731972
28	0xbf04ed0d	-0.5192421
29	0xbd4c74a0	-0.04991591
30	0xbeb3f474	-0.3514744
31	0x3e3300ec	0.1748082
32	0xbed63b6c	-0.4184221
33	0xbd0fddb4	-0.035123542
34	0x3d9177cb	0.07102927
35	0x3e402cf1	0.18767144
36	0x3eeb8e75	0.46007124
37	0xbefca917	-0.49347755
38	0xbe1de737	-0.15420233
39	0x3dc6e058	0.09710759
40	0xbd87f7f1	-0.06639088
41	0xbf0e3bb8	-0.55559874
42	0x3eb2a36b	0.34890303
43	0xbe60f590	-0.21968675
44	0xbea5a24f	-0.32350394
45	0x3f1e2288	0.6177144
46	0x3d13420d	0.035951663
47	0xbebe4654	-0.3716303
48	0xbe435392	-0.19074848
49	0x3d909886	0.070603415
50	0x3f07f5c7	0.531094
51	0x3e91f0c0	0.2850399
52	0x3ea5c7b6	0.3237893
53	0x3d9eb873	0.07750025
54	0x3e65eea1	0.22454311
55	0xbf112013	-0.56689566
56	0xbeeb9537	-0.4601228
57	0x3ecf1f70	0.40453672
58	0x3f011d03	0.50434893
59	0x3d1f3e6a	0.038877882
60	0x3eb2a181	0.34888843
61	0x3e91eb43	0.28499803
62	0x3d00aabe	0.031412832
63	0x3e735367	0.23762284

shared_layers.2.weight f4 [32, 64]
0	0xbdd25b9a	-0.10271378
1	0xbc8789a8	-0.016545132
2	0x3e20e0ac	0.15710706
3	0xbcafa358	-0.021440193
4	0x3de2ca34	0.110737234
5	0xbdf93e00	-0.12170029
6	0x3e225eb7	0.15856443
7	0xbd816056	-0.06317203
8	0x3d94bbc6	0.072623774
9	0x3e49200c	0.19641131
10	0x3de66385	0.112494506
11	0x3d51180c	0.051048324
12	0x3e0e886a	0.13919225
13	0xba88ff58	-0.0010452075
14	0xbd6e8b04	-0.058238044
15	0xbd5d4c10	-0.054027617
16	0x3d6c2f1c	0.057662115
17	0x3de7217a	0.11285682
18	0x3cf47de8	0.029845193
19	0x3d505af9	0.05086801
20	0x3c780510	0.015137926
21	0x3e3c5189	0.18390478
22	0x3d9c66dc	0.07636806
23	0xbcf13868	-0.029445842
24	0x3da9cc35	0.082909025
25	0xbc08bdb2	-0.008346008
26	0xbd9ae644	-0.07563451
27	0x3d60b9c8	0.054864675
28	0x3dee7368	0.11643106
29	0xbd1e945c	-0.038715705
30	0xbdba5bcc	-0.0909954
31	0xbd537ec0	-0.05163455
32	0xbd92af6a	-0.07162364
33	0x3dc9d4d8	0.0985505
34	0x3e165cca	0.14683834
35	0x3da42eb2	0.08016719
36	0x3e3adf9b	0.18249361
37	0xbdb4f19c	-0.08835146
38	0xbc8a0860	-0.016849697
39	0x3e049bcf	0.12950061
40	0x3d867adc	0.06566402
41	0x3d8a845e	0.06763528
42	0x3e1c234a	0.15247837
43	0x3e355c66	0.17711028
44	0x3ca6f748	0.020381585
45	0x3b8c0919	0.0042735455
46	0x3df529ef	0.11970889
47	0xbd2e6c88	-0.042583972
48	0x3be6651f	0.0070310975
49	0x3db6b84c	0.089218706
50	0x3df147ce	0.11781274
51	0x3cafc4c8	0.021456137
52	0xbd533954	-0.051568344
53	0x3dcd005d	0.10009835
54	0xbd524de4	-0.051343814
55	0x3ca22990	0.01979521
56	0x3d895830	0.067062736
57	0x3e5a9b36	0.21348271
58	0x3d4fd4d1	0.050740067
59	0xbdcdabdc	-0.10042545
60	0xbd422408	-0.047397643
61	0x3ca4049f	0.020021735
62	0xbcb2e7bf	-0.02183902
63	0xbcd41dc0	-0.025893092
64	0x3d455228	0.048174053
65	0xbd141d14	-0.036160544
66	0x3d8f2ba0	0.06990743
67	0xbcce6350	-0.02519384
68	0xbdfd2a7e	-0.1236162
69	0xbd564dd0	-0.0523203
70	0x3d8326b7	0.06403869
71	0xbd0d199c	-0.03444825
72	0x3d316c3d	0.043316115
73	0x3dceda8f	0.101002805
74	0x3d95d334	0.073156744
75	0xbdc7f58c	-0.09763631
76	0xbe069f79	-0.13146771
77	0xbe08b0db	-0.13348715
78	0xbd85938c	-0.06522283
79	0xbda9486c	-0.082657665
80	0xbd1770a1	-0.036972646
81	0xbc9dc938	-0.019260988
82	0x3d86d29e	0.06583141
83	0xbd49efaf	-0.049300846
84	0x3bfa8a00	0.0076458454
85	0xbbca0461	-0.006165073
86	0xbdc81228	-0.09769088
87	0xbd0cca0c	-0.034372374
88	0xbdd8e791	-0.10591043
89	0x3dcb3b4a	0.09923418
90	0x3c98c878	0.018650278
91	0xbdb64a46	-0.08900885
92	0xbd245384	-0.04011871
93	0xbbf63de0	-0.0075147003
94	0x3d5e448c	0.05426459
95	0xbdcc5272	-0.09976663
96	0xbdb4d434	-0.08829537
97	0x3d22529c	0.039629564
98	0xbdcc6ca1	-0.09981657
99	0xbdfa52d8	-0.122228324
100	0xbdcf017e	-0.101077065
101	0xbd08a214	-0.033357695
102	0xbd95f07e	-0.07321261
103	0x3db4df30	0.08831632
104	0xbcfc0a28	-0.030766562
105	0x3d53fbc4	0.051753774
106	0x3d82788d	0.063706495
107	0x3dad5893	0.0846416
108	0xbcd83498	-0.026392266
109	0x3c95a6c8	0.018268004
110	0x3d64b7cd	0.05583935
111	0x3d9bf160	0.07614398
112	0x3daf5101	0.08560372
113	0xbdcc56c4	-0.09977487
114	0xbd80d188	-0.06289965
115	0x3d18929e	0.0372492
116	0x3da62502	0.081125274
117	0xbd139ce5	-0.0360383
118	0x3de2beda	0.11071558
119	0xbc34b780	-0.011030078
120	0xbc894318	-0.016755626
121	0xbcf48590	-0.029848844
122	0x3dbccdac	0.09218916
123	0xbd91563e	-0.070965275
124	0xbd3e86fc	-0.04651545
125	0x3d57e499	0.052708242
126	0xbd86cb9f	-0.065818064
127	0xbbe95740	-0.0071209967
128	0xbdc32222	-0.09527995
129	0x3dcac19a	0.09900208
130	0x3e4a6caf	0.19768022
131	0xbbad45a0	-0.005287841
132	0xbd6e6578	-0.058202237
133	0x3dddffc8	0.10839802
134	0x3bc23863	0.005927132
135	0xbdc1def6	-0.094663545
136	0x3e24a6d6	0.16079268
137	0x3db75ed3	0.08953633
138	0x3d8a13e4	0.06742075
139	0x3dae3b22	0.085073724
140	0x3e50306c	0.20330971
141	0x3d249fa7	0.04019132
142	0x3dcb08c0	0.09913778
143	0x3dff82f8	0.12476152
144	0x3e16ff53	0.14745836
145	0xbdd72262	-0.10504605
146	0x3dfa8af0	0.122335315
147	0x3e1b88c4	0.1518889
148	0x3d622564	0.05521144
149	0x3d33024c	0.043703362
150	0x3d902ea1	0.07040144
151	0x3da512ac	0.08060202
152	0xbc0ada95	-0.008474966
153	0x3dfc22c1	0.12311316
154	0x3c3d53d0	0.011555627
155	0xbd8fcc60	-0.07021403
156	0xbd4d1e98	-0.050078005
157	0xbd62c53c	-0.05536388
158	0x3d27dac8	0.04098013
159	0xbd781be8	-0.06057349
160	0x3daa5a80	0.08318043
161	0x3e3d4120	0.18481874
162	0x3e670a95	0.2256263
163	0x3df15365	0.11783484
164	0x3e49b678	0.19698513
165	0x3d6bb83c	0.057548746
166	0xbca65ca8	-0.020307854
167	0x3e3a5025	0.18194635
168	0x3d83771c	0.06419203
169	0x3d0ca78c	0.034339473
170	0x3e60115a	0.21881619
171	0x3e0ddee1	0.13854553
172	0xbdac28e4	-0.08406237
173	0x3e17a1af	0.14807771
174	0x3d18c6a1	0.037298802
175	0x3df5e99a	0.120074466
176	0x3e574187	0.2102109
177	0x3d0566fc	0.032568917
178	0xbdf97580	-0.121806145
179	0xbdd1e944	-0.1024957
180	0x3da06010	0.078308225
181	0x3b1ff8b8	0.0024409723
182	0xbd395a60	-0.045252204
183	0xbba919e0	-0.0051605552
184	0xbdd51f46	-0.104063556
185	0x3d324427	0.043522026
186	0x3dd365eb	0.10322174
187	0xbd4f310c	-0.050583884
188	0xbd0cf0e4	-0.03440942
189	0x3e4346ee	0.19070026
190	0x3d29707f	0.04136705
191	0x3bded900	0.0068007708
192	0x3d02e6ac	0.031958267
193	0xbd793b64	-0.060847655
194	0xbdefd99b	-0.11711427
195	0xbb80d420	-0.0039315373
196	0x3d39a43c	0.04532264
197	0x3dc89e30	0.09795797
198	0xbe20e92c	-0.15713948
199	0xbdc4d22e	-0.09610401
200	0xbcf03c8b	-0.029325744
201	0xbd8de9c5	-0.069293536
202	0xbd14a26d	-0.036287714
203	0xbdf3fbf4	-0.119132906
204	0x3ccb7f2d	0.024840916
205	0xbd49c41f	-0.0492593
206	0xbdb0edcc	-0.08639106
207	0xbdfea66c	-0.12434086
208	0x3d714ca7	0.058910992
209	0x3d567834	0.05236073
210	0xbd3891f4	-0.045061067
211	0x3d8d03e2	0.06885506
212	0xbcbdbf58	-0.023162529
213	0xbdda6393	-0.106635235
214	0xbdf8ffe3	-0.121581815
215	0x3d0c8fa0	0.03431666
216	0x3d9105cd	0.070811845
217	0x3cf3e788	0.029773489
218	0xbcb8f478	-0.02257751
219	0xbd45d1f8	-0.048295945
220	0x3def1c38	0.11675304
221	0xbd2c9cec	-0.04214184
222	0x3dfc7406	0.12326817
223	0x3d418350	0.04724437
224	0x3d3f30b8	0.04667732
225	0xbd652be4	-0.05595006
226	0xbd7d096c	-0.061776564
227	0xbc81a240	-0.015824437
228	0xbc84e48e	-0.016222265
229	0xbd513bbc	-0.051082358
230	0x3d544958	0.05182776
231	0x3daf0cf8	0.085473955
232	0xbd90a804	-0.070632964
233	0xbdc62ba4	-0.096762925
234	0x3c9cd726	0.01914556
235	0x3cd39936	0.025829893
236	0xbd5d4c0c	-0.054027602
237	0x3cdc1548	0.026865616
238	0x3d9d02c9	0.07666547
239	0xbc724120	-0.014786035
240	0xbdce88cf	-0.10084688
241	0xbd8fd24c	-0.07022533
242	0xbd8408ac	-0.064469665
243	0x3d0f3422	0.034961827
244	0x3cf3f4e8	0.029779866
245	0x3d1b7aad	0.03795879
246	0xbc91c138	-0.01779233
247	0x3d7c1458	0.06154284
248	0x3d962f3c	0.07333228
249	0xbcee6dec	-0.02910515
250	0xbe232878	-0.15933406
251	0xbd4b2f30	-0.04960555
252	0x3df92bb4	0.12166539
253	0xbd81c8ef	-0.06337153
254	0xbdcd1a62	-0.10014798
255	0xbdca7f70	-0.09887588

shared_layers.2.bias f4 [32]
0	0x3ccedc9a	0.025251675
1	0x3ce2c642	0.027682427
2	0x3d890853	0.06691041
3	0x3d86d45a	0.065834716
4	0xbd5aee1c	-0.053449735
5	0xbb9f76c5	-0.0048664534
6	0x3d5c2b51	0.053752247
7	0x3ddbbf47	0.10729843
8	0x3de38ce8	0.1111086
9	0x3d880f2f	0.06643521
10	0xbd8c3566	-0.068461224
11	0x3a936480	0.0011245161
12	0x3dc41d0f	0.09575855
13	0xbd0cf828	-0.034416348
14	0x3cc58087	0.024109138
15	0x3de9d0f4	0.11416808
16	0xbdf28622	-0.1184199
17	0x3de27b30	0.110586524
18	0x3e3466df	0.17617367
19	0x3d498b9c	0.049205408
20	0x3dd255fd	0.10270307
21	0xbd626668	-0.055273443
22	0xbc86f01d	-0.016471917
23	0x3d9e0249	0.077152796
24	0x3dc3d026	0.095611855
25	0x3d4f4c5f	0.050609943
26	0xbd18e880	-0.037331104
27	0x3d53d053	0.051712345
28	0x3e465af5	0.19370635
29	0x3dd1777a	0.102278665
30	0x3d8b905f	0.06814646
31	0xbd34c86c	-0.04413645

shared_layers.4.weight f4 [8, 32]
0	0x3e274a58	0.16336954
1	0x3d702120	0.05862534
2	0x3df2bb83	0.11852171
3	0xbd95df13	-0.07317939
4	0x3e1d5958	0.15366113
5	0xbcfc451d	-0.030794675
6	0xbd982a88	-0.07429987
7	0x3d5d19fa	0.05397985
8	0xbd809074	-0.06277552
9	0x3e0f9a38	0.14023674
10	0xbd7cad7d	-0.06168889
11	0xbd07bc4f	-0.03313857
12	0x3e37527c	0.17902559
13	0x3e19f5b6	0.15035138
14	0x3b5c7b1a	0.003364271
15	0x3e2d788f	0.1694052
16	0xbdbd5acc	-0.09245834
17	0x3e0ad0b5	0.13556178
18	0x3e0301d2	0.12793663
19	0xbde92e27	-0.11385756
20	0x3e09b9b3	0.13449745
21	0xbccfc36c	-0.02536174
22	0xbd59a430	-0.053135097
23	0x3e3faa52	0.18717316
24	0x3d2696c6	0.040671133
25	0xbd88caf4	-0.06679335
26	0xbdf91637	-0.1216244
27	0xbd80f658	-0.06296986
28	0x3e4dfbaa	0.20115533
29	0x3e28b6b7	0.1647595
30	0x3e80a520	0.2512598
31	0x3e10973d	0.14120193
32	0xbe0c04e2	-0.13673738
33	0x3dbecb6a	0.09316142
34	0xbde96b33	-0.113974
35	0x3d6e91eb	0.058244627
36	0x3e2669cf	0.162513
37	0xbda32d7a	-0.07967658
38	0x3dd8b7d5	0.10581938
39	0x3d801a76	0.06255047
40	0xbe6c59ab	-0.2308108
41	0x3c9b49af	0.018956034
42	0x3defa98e	0.11702262
43	0x3d280784	0.041022792
44	0xbc860ee6	-0.016364526
45	0x3e31dc6b	0.17369239
46	0xbe544553	-0.2072957
47	0xbd599b0b	-0.053126376
48	0xbd7fec23	-0.062481057
49	0xbe4b892b	-0.19876544
50	0xbde95bf2	-0.1139449
51	0x3e2e2d6f	0.17009519
52	0xbde56603	-0.11201098
53	0x3c627a9a	0.013823176
54	0xbd8d00e7	-0.06884938
55	0xbe021383	-0.12702756
56	0x3db0bb99	0.086295314
57	0xbbd4c24c	-0.0064928886
58	0xbdc49e8b	-0.09600552
59	0xbddeb3e5	-0.10874156
60	0x3cda04ef	0.02661368
61	0xbd8f3536	-0.06992571
62	0xbe4a7329	-0.19770493
63	0xbd95f123	-0.07321384
64	0xbcb60ede	-0.022223886
65	0x3d25bf31	0.040465537
66	0xbd3e9add	-0.046534408
67	0xbe4cc5e6	-0.19997367
68	0x3d449097	0.047989454
69	0xbd0e241c	-0.034702405
70	0xbd680053	-0.056640934
71	0xbd8d78da	-0.06907816
72	0xbe729bb0	-0.23692203
73	0xbe882109	-0.26587704
74	0x3d3ce949	0.046120916
75	0xbe10aa86	-0.1412755
76	0xbd9d3fa2	-0.076781526
77	0xbe21ad0b	-0.15788667
78	0xbe5cf9ac	-0.21579617
79	0xbc329bbc	-0.010901388
80	0x3dd0f4c2	0.10202934
81	0xbe462694	-0.19350654
82	0x3c8d5203	0.01725102
83	0xbc7db9f2	-0.015486227
84	0xbe71bf44	-0.23608118
85	0xbdc686ec	-0.09693703
86	0xbbbbd361	-0.0057319854
87	0xbde3b065	-0.11117629
88	0x3e073ee4	0.13207585
89	0x3e0ecc3d	0.13945098
90	0x3e314f8b	0.173155
91	0x3d96cdce	0.07363473
92	0xbbb3d775	-0.005488331
93	0xbe0bb413	-0.13642912
94	0xbd840680	-0.06446552
95	0x3c7a9c6a	0.015296081
96	0xbe8a42c1	-0.27004054
97	0x3dd9ceb8	0.106351316
98	0xbe7e2b12	-0.24821118
99	0xbda1a313	-0.07892432
100	0xbe0f7a82	-0.14011577
101	0x3e0ce7e1	0.1376033
102	0xbe3d75d8	-0.18501985
103	0x3e0a74b1	0.13521077
104	0xbd2526f2	-0.040320344
105	0xbe65d52f	-0.22444604
106	0x3db07034	0.08615151
107	0x3e2e0328	0.16993392
108	0xbc9cab14	-0.019124545
109	0xbcf1ec9c	-0.02953177
110	0xbd158d40	-0.03651166
111	0x3d2682a6	0.04065194
112	0xbe2d4aa4	-0.16923004
113	0x3cbd263b	0.023089519
114	0xbe81c5bc	-0.25346172
115	0xbe08ca9e	-0.13358542
116	0xbe1fc8ec	-0.1560399
117	0xbdc5f430	-0.09665716
118	0x3e07c8d0	0.13260198
119	0xbe8214c3	-0.25406465
120	0xbda55f41	-0.08074809
121	0x3dc7530e	0.09732638
122	0x3ce45473	0.0278723
123	0xbe378e37	-0.17925344
124	0xbe5e8b5b	-0.21732847
125	0xbd5e3ebd	-0.05425905
126	0xbe47c656	-0.19509253
127	0xbdd94e3c	-0.10610625
128	0xbe713a45	-0.23557384
129	0xbe0aadb8	-0.13542831
130	0x3c69226b	0.014229397
131	0xbd7872d9	-0.060656402
132	0xbe16bf8d	-0.14721508
133	0xbd615ead	-0.05502193
134	0x3d07dce8	0.033169657
135	0x3dfbb2f0	0.12289989
136	0xbe780500	-0.24220657
137	0xbe08b234	-0.13349229
138	0x3cb0007d	0.021484608
139	0xbe15c8e6	-0.14627418
140	0xbe1d10b0	-0.15338397
141	0xbc7cb0de	-0.015423028
142	0xbe062555	-0.13100179
143	0xbc5b0772	-0.013368474
144	0x3e189eff	0.14904402
145	0xbe43651e	-0.19081542
146	0x3c80b0e9	0.015709357
147	0x3d815419	0.063148685
148	0xbe69adc1	-0.22820188
149	0x3dc3beb9	0.09557862
150	0x3dc89567	0.09794121
151	0xbdad10a5	-0.0845044
152	0xbccec81e	-0.025241908
153	0x3dbbbc5e	0.091667876
154	0xbdcd0eb1	-0.10012568
155	0x3e1bfe98	0.15233839
156	0xbc6095a3	-0.013707551
157	0xbe22cec2	-0.15899184
158	0xbca4295b	-0.020039251
159	0x3da7c966	0.081927106
160	0xbe700f71	-0.2344339
161	0x3db1c8f8	0.0868091
162	0xbe169663	-0.14705805
163	0x3d28dc75	0.04122587
164	0x3b6df59a	0.003630972
165	0xbdde6bed	-0.10860429
166	0xbdb09efb	-0.08624073
167	0xbde3af25	-0.111173905
168	0xbe2c7fa9	-0.16845573
169	0xbd874daa	-0.0660661
170	0xbe2e6e3f	-0.17034243
171	0xbd19e67d	-0.037573326
172	0xbe1f42cd	-0.15552826
173	0xbd8b9d96	-0.068171665
174	0xbe6c35ac	-0.23067349
175	0xbe22687f	-0.15860175
176	0x3e0c6dfa	0.13713828
177	0xbdc32d0c	-0.095300764
178	0xbd78e856	-0.060768448
179	0xbd255dcc	-0.040372655
180	0xbe6dfb23	-0.23240332
181	0x3d43a7e3	0.04776753
182	0xbe068376	-0.13136086
183	0xbe84ef73	-0.25963935
184	0xbe028dc9	-0.12749399
185	0x3cab4ddb	0.020911148
186	0xbda03b19	-0.07823772
187	0xbe09ecba	-0.1346921
188	0xbd8e0bc8	-0.06935841
189	0x3d16acad	0.03678577
190	0xbe09615b	-0.13416044
191	0xbd2032a5	-0.0391108
192	0xbe02f4c6	-0.12788686
193	0x3d2a8041	0.04162622
194	0xbdc5ca50	-0.09657729
195	0x3d00b743	0.031424772
196	0x3e1281b2	0.14307287
197	0x3d34b312	0.044116087
198	0x3d669223	0.05629171
199	0xbc972413	-0.018449819
200	0xbe434bea	-0.19071928
201	0xbd8340e7	-0.064088635
202	0x3e0f66d4	0.1400407
203	0xbaae435e	-0.0013295223
204	0xbe248a83	-0.16068463
205	0xbe14cf44	-0.1453219
206	0xbdc71dd5	-0.09722487
207	0x3d352ff9	0.044235203
208	0x3e14b88d	0.14523526
209	0xbe6fd234	-0.2342003
210	0xbe83b819	-0.25726393
211	0x3d7d7f0e	0.061888747
212	0xbd534f14	-0.051589087
213	0x3d93e126	0.07220678
214	0x3da070bd	0.07834003
215	0x3d783429	0.06059662
216	0x3d47a635	0.04874249
217	0x3ca5cc49	0.020239012
218	0x3e014b75	0.12626441
219	0xbd186abf	-0.037211176
220	0x3d2f264a	0.042761125
221	0x3e15a422	0.14613393
222	0xbe5dd0f5	-0.21661742
223	0xbe0b5841	-0.13607885
224	0x3d019d44	0.03164412
225	0x3c4a925a	0.0123639945
226	0xbd45f13c	-0.048325762
227	0x3dd0da58	0.10197896
228	0x3e018963	0.12650065
229	0x3d897075	0.067109026
230	0xbdcb1a81	-0.099171646
231	0x3dd4fce6	0.10399799
232	0xbdb83ba0	-0.089957476
233	0xbe5769fa	-0.2103652
234	0x3a82585e	0.0009944548
235	0x3ddae370	0.106879115
236	0xbe59ab2a	-0.212567
237	0xbd4af651	-0.049551312
238	0xbe88f61c	-0.26750267
239	0x3e33d7b6	0.17562756
240	0x3d2e11a0	0.042497277
241	0xbe3ccf0b	-0.18438356
242	0x3d2cce67	0.042189028
243	0xbe112fde	-0.14178416
244	0xbe626a3d	-0.22110839
245	0xbdbbb837	-0.091659956
246	0xbdb4c3fb	-0.08826443
247	0xbe8e9373	-0.2784687
248	0x3e0f546a	0.13997045
249	0x3e1ff04a	0.15619007
250	0xbe0cd9d4	-0.1375497
251	0x3e19b146	0.1500903
252	0xbe258973	-0.16165714
253	0xbdfbeefd	-0.12301443
254	0x3c8b47c0	0.017001987
255	0xbe0f5105	-0.1399575

shared_layers.4.bias f4 [8]
0	0x3e33c963	0.17557292
1	0xbbe7e1c2	-0.007076473
2	0xbd33633f	-0.04379582
3	0xbe43e5bb	-0.19130604
4	0x3d83de5e	0.064388976
5	0x3c882c56	0.016622704
6	0xbdef1a5e	-0.11674951
7	0xbc3c970a	-0.01151062
