training/models/controller_controller_acc0.95_lat0.012_succ20_small5_large8_carb7_cap105_rate0.001598_best_model.pth (torch, 18433 bytes, 6 tensors)

shared_layers.0.weight f4 [64, 3]
0.5231463 -0.31646755 0.27389044 -0.092037536 -0.42971608 0.19279857 0.36289525 -0.48645025
-0.04630794 0.40021682 0.16163145 0.1536413 -0.09531494 0.47244242 0.24585368 -0.518392
0.293137 -0.5165352 -0.013827316 0.3998255 0.067415245 0.6517489 -0.4895694 0.109396316
0.2581682 0.13294476 0.2486486 0.3835699 -0.26139182 -0.06074385 -0.33986217 0.3855388
0.46519 0.63612336 -0.09714535 -0.32585976 0.37495026 0.21944223 -0.3687696 -0.032962468
-0.21599746 0.032457907 -0.43666306 -0.24332517 -0.47704223 -0.30203423 -0.3051415 0.07622914
-0.039057378 -0.14040832 0.16632491 -0.41860613 -0.19166826 0.22003077 0.537232 0.35002935
0.57260823 -0.13755979 0.5652405 -0.38017514 0.06749773 -0.24872921 -0.42104125 0.3724274
-0.14344947 0.43711928 -0.32370877 0.3723742 0.110020146 0.4532505 -0.43743536 -0.025179815
0.24950488 -0.18969138 0.21779339 0.4635963 0.39140782 -0.10898948 0.22356963 -0.13103221
0.42999476 0.14746287 0.63664347 -0.17205316 0.59463346 0.26831937 0.30614063 -0.35835052
-0.24968293 -0.20602174 -0.0010854471 0.29226273 0.2229522 0.6073139 0.65238667 -0.028648721
-0.29946628 -0.066843204 0.24462295 -0.29311666 -0.33243695 0.53648216 0.33929074 0.27163306
0.46382874 0.21973497 -0.024334004 0.5478326 -0.3916487 0.6336697 0.21700466 -0.5016477
-0.52809846 0.25323543 -0.20818232 -0.35780177 -0.4302768 -0.25320616 -0.55451334 0.050307874
-0.26187035 -0.15804844 -0.0752269 -0.0010180727 -0.40903896 -0.26187947 0.650249 0.62293154
0.6117929 0.30324197 0.15301694 0.12353484 0.19690438 -0.38788638 -0.35142827 -0.18215026
0.077506945 -0.20702256 -0.52003425 -0.06633947 0.33775 0.6206108 0.24362707 -0.116477415
-0.10086462 0.2430153 -0.4355285 0.01169703 -0.12887369 0.026596313 -0.3221924 -0.34076944
-0.21899687 -0.14247826 0.6298679 -0.28806928 -0.105602704 -0.51397103 -0.51541185 0.18888009
-0.424019 0.3034509 0.5122384 0.31744018 0.43806064 0.08107935 -0.2831766 -0.57156277
-0.007966465 -0.25951126 0.46393546 -0.11168023 0.24698158 0.06532913 0.5232835 -0.21767116
0.12600313 0.5811281 -0.30195248 -0.026947415 -0.526653 -0.32533318 0.4710289 0.50390667
0.37482357 -0.30345738 0.122369565 -0.3640754 -0.5161345 0.6422425 0.113194525 -0.15900756
00000000: eaec 053f 0908 a2be 5e3b 8c3e 2d7e bcbd
00000010: bf03 dcbe fd6c 453e 68cd b93e 0210 f9be
00000020: 65ad 3dbd 38e9 cc3e b782 253e 2554 1d3e
00000030: 7b34 c3bd f9e3 f13e 11c1 7b3e 57b5 04bf
00000040: 0e16 963e a73b 04bf f88b 62bc eeb5 cc3e
00000050: 0111 8a3d 04d9 263f d7a8 fabe 2d0b e03d
00000060: 9f2e 843e ac22 083e bd9d 7e3e 4663 c43e
00000070: 26d5 85be 8bce 78bd 6a02 aebe 5765 c53e
00000080: 622d ee3e fbd8 223f 24f4 c6bd 17d7 a6be
00000090: 7bf9 bf3e 77b5 603e 5ecf bcbe a703 07bd
000000a0: 702e 5dbe 95f2 043d 4d92 dfbe 3c2a 79be
000000b0: e13e f4be 3ba4 9abe 823b 9cbe 061e 9c3d
000000c0: a1fa 1fbd 33c7 0fbe 1451 2a3e 8b53 d6be
000000d0: af44 44be bf4f 613e 0988 093f 0c37 b33e
000000e0: 7496 123f 79dc 0cbe 9ab3 103f 51a6 c2be
000000f0: 403c 8a3d dfb2 7ebe b892 d7be ceae be3e
00000100: 6be4 12be 19ce df3e 28bd a5be d5a7 be3e
00000110: 3e52 e13d 7310 e83e 87f7 dfbe e645 cebc
00000120: 357e 7f3e 753e 42be 3b05 5f3e 7f5c ed3e
00000130: 9b66 c83e e035 dfbd 70ef 643e 4f2d 06be
00000140: 4628 dc3e 8200 173e 11fb 223f b42e 30be
00000150: e639 183f 2861 893e 77be 9c3e b879 b7be
00000160: e2ac 7fbe 5df7 52be 9045 8eba 76a3 953e
00000170: 954d 643e ec78 1b3f d002 273f b9b0 eabc
00000180: a553 99be 17e5 88bd 707e 7a3e 6313 96be
00000190: 2d35 aabe e556 093f 84b7 ad3e 7d13 8b3e
000001a0: f67a ed3e 3402 613e 1b58 c7bc c23e 0c3f
000001b0: 2e86 c8be 2d38 223f 7836 5e3e fc6b 00bf
000001c0: 7631 07bf 13a8 813e bf2d 55be cb31 b7be
000001d0: 3e4d dcbe 3da4 81be 96f4 0dbf a10f 4e3d
000001e0: df13 86be 73d7 21be 9010 9abd da70 85ba
000001f0: 8e6d d1be 1115 86be b876 263f 7178 1f3f
00000200: 769e 1c3f 8842 9b3e 79b0 1c3e d6ff fc3d
00000210: 4da1 493e 0b99 c6be 68ee b3be 9985 3abe
00000220: f6bb 9e3d b9fd 53be f720 05bf fddc 87bd
00000230: 91ed ac3e 59e0 1e3f 6079 793e b68b eebd
00000240: 1c92 cebd 01d9 783e 97fd debe e6a4 3f3c
00000250: 77f7 03be 83e0 d93c 67f6 a4be 5579 aebe
00000260: b740 60be d2e5 11be 063f 213f d17d 93be
00000270: 3b46 d8bd 9b93 03bf 08f2 03bf c869 413e
00000280: 0519 d9be eb5d 9b3e 0e22 033f 8587 a23e
00000290: 7c49 e03e ee0c a63d 86fc 90be f051 12bf
000002a0: c785 02bc a9de 84be f388 ed3e 9bb8 e4bd
000002b0: bde8 7c3e 47cb 853d e8f5 053f 30e5 5ebe
000002c0: f706 013e d0c4 143f 8499 9abe d3c0 dcbc
000002d0: bbd2 06bf 1292 a6be b32a f13e 0700 013f
000002e0: e0e8 bf3e c45e 9bbe e59c fa3d 1768 babe
000002f0: 6421 04bf 016a 243f 88d2 e73d e1d2 22be

shared_layers.0.bias f4 [64]
-0.46171218 -0.012306346 -0.2360709 0.08237553 -0.27120686 0.1887338 0.40386382 0.034990903
0.22801414 0.24284267 -0.25075412 0.3713653 0.18893887 -0.53387517 0.2954024 -0.2520676
-0.5335549 -0.35791615 0.16172655 0.1714904 -0.31264645 0.5899296 0.60531276 -0.57010436
-0.26048997 0.7119769 -0.27230883 0.59386176 -0.36022955 -0.014503738 -0.44693673 -0.3332954
-0.23423119 -0.29702938 0.21991543 0.2553727 0.682991 -0.32093862 -0.068534106 -0.3820604
-0.555171 0.68377507 0.50221425 -0.50281656 0.54744834 0.608881 0.13842201 -0.24677853
0.48417577 0.6259413 -0.38905007 0.62788296 0.085146524 0.5358949 -0.2157778 -0.15137462
0.56128085 0.31022045 0.5201249 0.29897085 -0.34658498 0.43429828 0.027461449 -0.033576403
00000000: 8a65 ecbe 8ea0 49bc 92bc 71be 80b4 a83d
00000010: a0db 8abe 6f43 413e 3dc7 ce3e 9f52 0f3d
00000020: 8a7c 693e c0ab 783e d862 80be 9823 be3e
00000030: 3179 413e 0bac 08bf fc3e 973e 010f 81be
00000040: 0e97 08bf c940 b7be a59b 253e 2e9b 2f3e
00000050: 3213 a0be a005 173f c7f5 1a3f 5cf2 11bf
00000060: f15e 85be 1e44 363f 106c 8bbe 5307 183f
00000070: 0270 b8be 16a1 6dbc e4d4 e4be b2a5 aabe
00000080: 4dda 6fbe 3c14 98be 8331 613e 36c0 823e
00000090: 80d8 2e3f 1152 a4be 9c5b 8cbd 6c9d c3be
000000a0: b01f 0ebf e20b 2f3f 1d91 003f 96b8 00bf
000000b0: 9325 0c3f a0df 1b3f 80be 0d3e 83b3 7cbe
000000c0: e3e5 f73e b03d 203f 9231 c7be f0bc 203f
000000d0: 4d61 ae3d 6830 093f dbf4 5cbe f301 1bbe
000000e0: 1ab0 0f3f 37d5 9e3e e826 053f b512 993e
000000f0: 9673 b1be 585c de3e d5f6 e03c 6987 09bd

shared_layers.2.weight f4 [32, 64]
-0.052813172 0.028677985 -0.046227053 0.04047909 -0.10444102 -0.111517765 0.057543337 0.18435897
0.12262009 0.060209 -0.12003362 0.17474857 0.056551628 0.062331975 0.09009054 0.055481598
0.070410326 0.019017711 0.19455466 0.09120406 -0.071187004 0.07957117 0.17638932 -0.04708852
-0.0002465546 0.23360237 -0.12479417 0.11757259 0.09300935 0.08010809 0.08964461 0.076801226
-0.090184316 -0.111455426 0.17063943 0.11548239 0.16765894 0.06810933 0.0015529543 0.09557837
-0.033653975 0.10790313 0.2036594 0.06299102 0.09932141 0.16981196 -0.053429827 0.22493058
0.13917257 0.23811121 -0.013203412 0.08763333 -0.02578938 -0.007667724 0.03669756 0.079227775
0.19093747 0.1472158 0.22279148 0.10894905 0.113465115 0.15827557 -0.00808315 0.04593677
0.12050474 0.013662964 -0.04783611 0.22146952 0.0037430227 0.041072533 0.24414729 0.09560193
0.19764341 0.1807229 0.04128778 0.074778505 0.1721002 -0.04616812 -0.019741327 -0.06522639
0.035982326 0.009675562 0.21829608 0.20502774 -0.04712057 0.1747543 0.15860966 0.11809766
0.010040939 0.14633644 0.018846542 0.1982085 0.2615051 0.040787324 0.053382635 0.16119954
-0.10885045 0.0107990205 0.08412506 0.055804078 0.14880878 0.11541286 -0.07276817 0.064922035
-0.061426908 0.19047418 0.21419896 9.2834234e-05 0.22688691 0.13639276 -0.041587785 0.2358292
0.025746666 0.18144058 0.0071074218 0.22897263 -0.11766419 0.10209801 0.06644712 -0.027367294
0.18197407 0.19802034 0.12480111 0.2469609 0.087311655 0.025415454 -0.086832374 0.2595336
-0.075814456 -0.07583377 -0.07372548 -0.02786152 0.03699048 0.038201734 -0.12218462 -0.029477596
-0.046880692 0.036169514 0.05168146 0.0321175 -0.05667144 -0.0031304657 -0.02179189 0.03749673
0.087196246 0.03716126 0.04679492 0.08612214 -0.11165324 -0.09706955 0.026299194 -0.112074
0.116742656 0.015419722 -0.08227253 0.04667346 0.056405485 -0.095767066 -0.09382804 -0.0008575618
0.029608294 0.10311186 0.07622649 -0.11565173 -0.08265555 0.011836737 -0.09926495 0.040303588
0.037069976 0.047920436 -0.075219125 0.11219977 0.01731439 -0.028147593 0.044995576 -0.08094971
0.019065544 0.07429682 -0.07220851 -0.07880513 0.027448311 0.04722254 -0.009688109 0.01674813
0.047748312 -0.040590927 -0.025826111 -0.08943008 -0.033238024 0.0891567 0.034591317 -0.11172712
-0.020784602 0.10879484 -0.028569669 0.1302344 -0.03485945 -0.08663034 0.21764246 0.10048637
0.017850352 0.0774401 -0.047418192 0.079239115 0.24813347 -0.09888668 0.0255875 -0.045886517
-0.031648755 0.09173909 0.25019455 0.20275837 0.005508736 0.120050184 0.1716828 0.035886228
0.11914563 0.23078471 0.09497957 0.23112692 0.15667227 -0.12497887 0.012320951 0.23340781
-0.06525953 0.062776 0.12783678 0.26176882 0.2379296 0.06545234 0.08419724 0.09322524
0.009918213 0.06295534 0.14750388 -0.096263796 0.12208543 0.039844535 0.1109622 0.021625074
0.14446607 0.11545034 0.004183024 0.1502298 -0.11573149 0.2099202 0.07937448 -0.0068939924
0.07515282 0.10293109 0.19951889 0.2557103 -0.051080063 0.21113472 0.028979123 0.09658723
00000000: a052 58bd 18ee ea3c 9458 3dbd 67cd 253d
00000010: 2ce5 d5bd 6d63 e4bd 90b2 6b3d 99c8 3c3e
00000020: 3e20 fb3d b69d 763d 30d4 f5bd 4af1 323e
00000030: aea2 673d d04f 7f3d 6481 b83d ac40 633d
00000040: 4a33 903d 08cb 9b3c 5639 473e 32c9 ba3d
00000050: 7eca 91bd 36f6 a23d 679f 343e e4df 40bd
00000060: 0044 81b9 7635 6f3e 1694 ffbd e6c9 f03d
00000070: b07b be3d b60f a43d 9897 b73d f649 9d3d
00000080: 8eb2 b8bd be42 e4bd 1abc 2e3e 0882 ec3d
00000090: c9ae 2b3e e87c 8b3d 808c cb3a 98be c33d
000000a0: c0d8 09bd 51fc dc3d 178c 503e 7001 813d
000000b0: 0669 cb3d 30e3 2d3e 3cd9 5abd 3454 663e
000000c0: 4183 0e3e 6dd3 733e 2053 58bc 1a79 b33d
000000d0: 4044 d3bc 8841 fbbb 2e50 163d 2c42 a23d
000000e0: 1d85 433e bdbf 163e 7323 643e ae20 df3d
000000f0: 6660 e83d fe12 223e 306f 04bc 3228 3c3d
00000100: 30cb f63d a0da 5f3c ccef 43bd e8c8 623e
00000110: 804d 753b ac3b 283d bf01 7a3e f2ca c33d
00000120: 0963 4a3e 6d0f 393e 601d 293d 7925 993d
00000130: 093b 303e c81a 3dbd 90b8 a1bc 6a95 85bd
00000140: 3462 133d 4086 1e3c 0289 5f3e cbf2 513e
00000150: 8001 41bd cbf2 323e 926a 223e 30dd f13d
00000160: c082 243c 38d9 153e 1064 9a3c 2bf7 4a3e
00000170: ffe3 853e 9c10 273d c0a7 5a3d 7e11 253e
00000180: fcec debd 60ee 303c c249 ac3d d192 643d
00000190: 5461 183e 945d ec3d 7a07 95bd d8f5 843d
000001a0: c89a 7bbd aa0b 433e f956 5b3e 00b0 c238
000001b0: 0b55 683e 8baa 0b3e f457 2abd 367d 713e
000001c0: acea d23c 8fcb 393e 60e5 e83b cd77 6a3e
000001d0: ecf9 f0bd c318 d13d 6d15 883d 6031 e0bc
000001e0: 6957 3a3e d8c5 4a3e b997 ff3d 51e3 7c3e
000001f0: 74d0 b23d 1234 d03c 2cd5 b1bd 97e1 843e
00000200: 9c44 9bbd bc4e 9bbd 62fd 96bd d83d e4bc
00000210: 5483 173d 6c79 1c3d ee3b fabd 007b f1bc
00000220: f805 40bd 7c26 143d f0af 533d a48d 033d
00000230: 5020 68bd 8028 4dbb e884 b2bc 2c96 193d
00000240: f293 b23d 6836 183d 08ac 3f3d ce60 b03d
00000250: 74aa e4bd 66cc c6bd 6871 d73c 0e87 e5bd
00000260: c616 ef3d 00a3 7c3c 807e a8bd ac2c 3f3d
00000270: 7009 673d 8621 c4bd ea28 c0bd 00ce 60ba
00000280: 188d f23c 502c d33d a21c 9c3d d0da ecbd
00000290: 5047 a9bd e0ee 413c 6c4b cbbd 6015 253d
000002a0: b0d6 173d 3848 443d 7c0c 9abd fec8 e53d
000002b0: e8d6 8d3c c895 e6bc 484d 383d f6c8 a5bd
000002c0: 582f 9c3c ee28 983d 0ee2 93bd 9664 a1bd
000002d0: 48db e03c 6c6c 413d e0ba 1ebc 6033 893c
000002e0: bc93 433d ac42 26bd 4891 d3bc 1e27 b7bd
000002f0: 9824 08bd ca97 b63d a0af 0d3d 30d1 e4bd
00000300: 7844 aabc d4cf de3d f00a eabc 2b5c 053e
00000310: c8c8 0ebd 3f6b b1bd aadd 5e3e cccb cd3d
00000320: e73a 923c ea98 9e3d 9439 42bd 1e48 a23d
00000330: b316 7e3e 1a85 cabd e09c d13c 80f3 3bbd
00000340: 20a2 01bd b4e1 bb3d 8019 803e e49f 4f3e
00000350: a082 b43b dfdc f53d 9ecd 2f3e 70fd 123d
00000360: a002 f43d d452 6c3e a684 c23d 89ac 6c3e
00000370: b26e 203e ecf4 ffbd d0dd 493c 7502 6f3e
00000380: caa6 85bd b490 803d a5e7 023e 9006 863e
00000390: d1a3 733e e00b 863d 9a6f ac3d e0ec be3d
000003a0: 0080 223c bbee 803d 420b 173e f425 c5bd
000003b0: ed07 fa3d 0634 233d 2640 e33d 1127 b13c
000003c0: eaee 133e 3a71 ec3d c011 893b d7d5 193e
000003d0: a204 edbd 52f5 563e 168f a23d 00e7 e1bb
000003e0: b9e9 993d 89cd d23d ae4e 4c3e 76ec 823e
000003f0: 5439 51bd b333 583e a065 ed3c 87cf c53d

shared_layers.2.bias f4 [32]
0.21298964 0.046219442 -0.019209474 0.032930013 0.11648588 -0.023102239 -0.06849602 -0.026173994
0.08639316 0.09388013 0.029113457 0.086947344 0.061637685 -0.124929145 -0.07043375 -0.06176555
-0.10656273 -0.09419379 0.04766658 0.02976224 -0.094749495 -0.023432255 -0.054693505 0.08013158
-0.011877537 -0.008063109 -0.115263775 0.20961106 -0.06458691 0.22413993 -0.0561596 0.17358972
00000000: f519 5a3e 9950 3d3d 305d 9dbc 9fe1 063d
00000010: 2690 ee3d e840 bdbc a447 8cbd d86a d6bc
00000020: e6ee b03d 3a44 c03d 587f ee3c 7311 b23d
00000030: cc77 7c3d dada ffbd 923f 90bd e0fd 7cbd
00000040: 903d dabd ace8 c0bd 083e 433d f1cf f33c
00000050: 060c c2bd 00f5 bfbc 4c06 60bd 071c a43d
00000060: 009a 42bc 211b 04bc 6a0f ecbd 48a4 563e
00000070: 2446 84bd f084 653e 9c07 66bd 81c1 313e

shared_layers.4.weight f4 [8, 32]
0.14762577 0.018143365 0.07497005 0.06494407 -0.053632665 -0.06422168 -0.10209587 0.10825418
0.23630713 -0.15813316 -0.12960318 -0.13263993 -0.15332094 -0.038352303 0.17403573 0.15293244
0.09722724 0.0904963 -0.12215313 -0.1407973 -0.08007859 0.06632091 0.1076354 0.018345129
-0.06556945 -0.08620753 0.05430872 0.2047571 -0.107897766 0.16403396 0.10396624 0.18174195
-0.27080452 -0.12894794 -0.16112277 -0.2113405 -0.16927205 0.16481808 -0.15768273 -0.04162884
-0.20854644 -0.1251683 -0.038245503 -0.0701945 -0.08404941 0.11772483 -0.13653052 -0.14357603
0.10379559 -0.059932712 -0.106288135 -0.138193 -0.14017402 0.014877647 -0.03801357 -0.09695567
-0.09871607 -0.10650763 0.097035006 -0.04930063 -0.12697694 -0.12963685 -0.05049576 -0.2699013
-0.07921205 -0.037239328 -0.16409057 -0.20990823 0.12866168 0.15519485 -0.124722406 0.004126029
-0.26878083 0.11966257 -0.054884195 0.12965357 -0.14983469 0.07353211 -0.12477918 0.027256956
-0.0008124648 0.061081067 -0.06978245 0.109659985 0.15607114 -0.03994895 -0.15112275 0.04356537
-0.10632988 0.13123335 0.12223034 -0.14903522 -0.050941624 -0.0020193874 -0.11440247 -0.09311128
0.046989582 -0.14680228 0.094602965 -0.25722215 -0.12478577 0.05559812 0.09480082 -0.106405996
-0.08040398 0.06256325 -0.1058803 -0.13026503 0.16343859 0.0042379918 0.17220373 0.057713218
-0.14078932 0.07506585 0.05238495 -0.009257346 -0.04451352 0.034222018 -0.09647532 -0.05285278
0.15414046 -0.15472725 0.1361611 -0.09599494 0.09496156 -0.20687017 0.096777804 -0.17683366
-0.04189011 -0.25090608 0.17174554 -0.02295111 -0.019270804 0.122659296 0.02178345 0.13076544
-0.1513286 -0.051031847 0.04712652 -0.17185546 0.07760925 0.023248559 -0.060233597 -0.011450877
0.1605402 0.10785671 0.13684194 0.012192456 0.079742216 -0.065519996 0.16626443 0.11239647
0.03129791 -0.08739452 0.020409 -0.21311983 0.04870849 -0.05461904 -0.0021894656 -0.14114915
0.04208788 -0.32335967 -0.02152861 -0.11270798 0.044587888 0.106107704 -0.15604447 0.003729406
-0.10661203 -0.15932117 -0.045252375 -0.13337888 0.05238373 0.13485381 0.052597094 0.08238758
0.136779 -0.120319195 0.12542509 -0.023949964 -0.11944674 -0.029970644 -0.17068596 0.0825641
-0.17652184 -0.013801163 -0.105388194 -0.05395018 -0.008927345 -0.21732439 -0.14354557 -0.11874866
-0.14423566 -0.009383839 -0.06461995 -0.044990383 -0.013863068 -0.13458402 -0.15984368 -0.087638445
-0.14478196 0.043105647 0.07391743 0.09240179 -0.05108141 -0.046142854 -0.060843464 -0.102112666
-0.12074754 -0.0393935 0.12459152 -0.11415442 0.12771736 0.0025333206 -0.08252374 -0.1335952
0.08806803 0.119601026 -0.08796007 -0.105437934 0.14237554 -0.010096609 -0.0022457105 -0.05921197
-0.24324489 -0.3169848 -0.08805534 -0.22998522 0.12778005 -0.108417876 -0.14331374 -0.039377674
-0.16783512 -0.16331191 0.15074079 -0.10060981 0.061350998 0.09327681 -0.12487437 0.02903667
0.058796916 0.1622134 -0.058266226 0.12048109 0.072042175 0.087239146 -0.055817854 0.017197497
-0.12600143 0.14809664 -0.027208656 -0.17778619 -0.14322126 -0.2893119 0.020751443 -0.168376
00000000: 362b 173e 65a1 943c e689 993d 6601 853d
00000010: edad 5bbd a886 83bd a417 d1bd 5eb4 dd3d
00000020: 7ffa 713e a9ed 21be b2b6 04be c3d2 07be
00000030: 2a00 1dbe 4e17 1dbd 6c36 323e 529a 1c3e
00000040: 131f c73d 2056 b93d 6c2b fabd 2b2d 10be
00000050: 3e00 a4bd 42d3 873d f36f dc3d 8648 963c
00000060: 4749 86bd 938d b0bd d272 5e3d d8ab 513e
00000070: 81f9 dcbd 85f8 273e 41ec d43d 901a 3a3e
00000080: e4a6 8abe ee0a 04be 5efd 24be a569 58be
00000090: a755 2dbe 12c6 283e 9577 21be 0183 2abd
000000a0: 338d 55be 1e2c 00be 51a7 1cbd 22c2 8fbd
000000b0: 1922 acbd b719 f13d a8ce 0bbe 9805 13be
000000c0: c892 d43d 017c 75bd 98ad d9bd 7782 0dbe
000000d0: c789 0fbe 60c1 733c 1eb4 1bbd b290 c6bd
000000e0: a72b cabd ac20 dabd 4aba c63d 75ef 49bd
000000f0: 3e06 02be 86bf 04be a4d4 4ebd 8130 8abe
00000100: ed39 a2bd 4488 18bd 5c07 28be 2ff2 56be
00000110: e3bf 033e 66eb 1e3e 766e ffbd a433 873b
00000120: a49d 89be a611 f53d 40ce 60bd e8c3 043e
00000130: 446e 19be 0198 963d 3a8c ffbd fb49 df3c
00000140: 97fb 54ba 2430 7a3d 1aea 8ebd 6a95 e03d
00000150: 1dd1 1f3e 83a1 23bd ecbf 1abe 9a71 323d
00000160: 7bc3 d9bd 0962 063e e753 fa3d b09c 18be
00000170: 2aa8 50bd b357 04bb d84b eabd 20b1 bebd
00000180: 2678 403d 5653 16be 33bf c13d 9fb2 83be
00000190: af8f ffbd dbba 633d ef26 c23d 63eb d9bd
000001a0: d8aa a4bd 2921 803d c5d7 d8bd 3264 05be
000001b0: 725c 273e dade 8a3b 2d56 303e b264 6c3d
000001c0: 132b 10be 20bc 993d 9a91 563d 20ac 17bc
000001d0: cf53 36bd 632c 0c3d da94 c5bd 287c 58bd
000001e0: ffd6 1d3e d270 1ebe d16d 0b3e ff98 c4bd
000001f0: 357b c23d c6d5 53be 7133 c63d e213 35be
00000200: f794 2bbd c376 80be 10de 2f3e f703 bcbc
00000210: cedd 9dbc cc34 fb3d 3573 b23c 60e7 053e
00000220: e2f5 1abe c506 51bd bd07 413d e1fa 2fbe
00000230: 99f1 9e3d c373 be3c 81b7 76bd 769c 3bbc
00000240: a664 243e fbe3 dc3d 4b20 0c3e dec2 473c
00000250: e34f a33d 592f 86bd 3941 2a3e 1f30 e63d
00000260: 3d32 003d e6fb b2bd c630 a73c 163c 5abe
00000270: 8e82 473d 37b8 5fbd 237d 0fbb 6789 10be
00000280: 5764 2c3d 668f a5be c45c b0bc 71d3 e6bd
00000290: caa1 363d ff4e d93d 1fca 1fbe 0d69 743b
000002a0: 6857 dabd 1725 23be 8e5a 39bd 7994 08be
000002b0: 5290 563d 1e17 0a3e 0d70 573d d2ba a83d
000002c0: cb0f 0c3e e969 f6bd 6f6f 003e b732 c4bc
000002d0: 7ea0 f4bd ff84 f5bc 4dc8 2ebe 5e17 a93d
000002e0: 24c2 34be 461e 62bc c4d5 d7bd ddfa 5cbd
000002f0: 0044 12bc 498a 5ebe 9cfd 12be 7f32 f3bd
00000300: 83b2 13be acbe 19bc 7757 84bd d647 38bd
00000310: ec21 63bc 65d0 09be 10ae 23be c97b b3bd
00000320: b941 14be 8c8f 303d 0662 973d 263d bd3d
00000330: be3a 51bd 4a00 3dbd ff36 79bd 7220 d1bd
00000340: 7c4a f7bd 145b 21bd d729 ff3d cbc9 e9bd
00000350: 57c8 023e 1106 263b 3502 a9bd 2ecd 08be
00000360: 035d b43d 62f1 f43d 6924 b4bd d8ef d7bd
00000370: e5ca 113e 3f6c 25bc c52c 13bb 4088 72bd
00000380: 3015 79be d54b a2be 5c56 b4bd 3f81 6bbe
00000390: c6d8 023e 310a debd d6c0 12be 7c4a 21bd
000003a0: f8dc 2bbe 3d3b 27be cb5b 1a3e 840c cebd
000003b0: 2f4b 7b3d ea07 bf3d 22be ffbd 50de ed3c
000003c0: 09d5 703d 451b 263e 91a8 6ebd cabe f63d
000003d0: d98a 933d 70aa b23d 43a1 64bd c4e1 8c3c
000003e0: 8506 01be a5a6 173e b0e4 debc 950d 36be
000003f0: 98a8 12be b020 94be eefe a93c c26a 2cbe

shared_layers.4.bias f4 [8]
-0.042558383 -0.108078465 -0.08152978 -0.014734429 -0.11747946 -0.08377742 -0.14611922 0.018185033
00000000: b351 2ebd 3e58 ddbd 16f9 a6bd ad68 71bc
00000010: 1299 f0bd 7f93 abbd 47a0 15be c7f8 943c
