training/models/controller_controller_acc0.819_lat0.006_succ20_small5_large8_carb7_cap105_rate0.001598_best_model.pth (torch, 18445 bytes, 6 tensors)

shared_layers.0.weight f4 [64, 3]
000000 94 d5 21 bc 78 e8 09 3f ef 16 ae 3e b4 fd 24 3e
       -0.009877581 0.53870344 0.34001872 0.16112405
000010 80 df a8 3e fd 66 97 be fc 28 f0 be 73 50 e0 be
       0.32983017 -0.2957076 -0.4690627 -0.43811378
000020 5f 7f 01 bf 17 33 bd 3e ad f3 ff 3e 94 99 19 3c
       -0.5058498 0.3695304 0.49990597 0.009374995
000030 e7 50 c8 be a8 58 97 be c4 1f b2 bd 86 51 43 be
       -0.39124224 -0.29559827 -0.08697465 -0.19074067
000040 0e 29 ef 3d 32 55 57 be 24 7d ee be bd 8c f3 bd
       0.116777524 -0.21028593 -0.4657985 -0.11892078
000050 81 df 86 be 79 d3 1a be ce 2b 16 3e 08 41 21 3e
       -0.26342395 -0.15119733 0.14665148 0.15747464
000060 49 73 1c 3f 55 a0 97 bd 7e 20 ab be 8c 7d cb 3e
       0.6111341 -0.07403628 -0.33423227 0.39744222
000070 c8 8b be 3e 7a 4a ca 3d f6 87 da 3e f3 32 a6 3e
       0.3721602 0.098774865 0.42681855 0.32460746
000080 e3 10 a8 be 94 cb e4 3e 53 e7 97 3e 58 fa 6c 3e
       -0.32825384 0.44686568 0.29668674 0.23142374
000090 3a f7 5d be ff 45 a4 be 4f d7 58 be 6f 84 8e be
       -0.2167634 -0.32084653 -0.21175884 -0.27835414
0000a0 52 06 81 bd af 7e 05 bf 9f f5 d6 3e ae 05 88 3e
       -0.06300034 -0.5214643 0.4198427 0.26566833
0000b0 8f 29 d3 bc 9b b5 61 3e 71 76 ea 3d 6f ec d9 3e
       -0.025776653 0.22041933 0.11448372 0.42563197
0000c0 42 13 1a 3f 39 f2 0e be d6 66 a9 3e 32 8f 99 bd
       0.60185635 -0.13959588 0.3308627 -0.074980155
0000d0 a6 34 0a be 10 c5 0a 3f f9 a0 9c 3e ec a2 cb 3d
       -0.13496646 0.54206944 0.30591562 0.09943184
0000e0 9d 11 fc 3e 00 43 f0 3c 27 22 15 3c 96 d9 5f 3e
       0.49232188 0.029328823 0.009102381 0.21860346
0000f0 d7 02 79 bc a5 69 9e 3e eb 69 68 3d bb 1f c5 3d
       -0.015198431 0.30939975 0.056741636 0.09625193
000100 0c 70 c6 be a4 2b 5e bc 5f 27 de be e9 1a 13 bf
       -0.3875736 -0.013560209 -0.43389413 -0.57462937
000110 41 0d e7 3e 1e 34 ca 3e d4 66 02 3f 79 86 18 3f
       0.451273 0.39492887 0.50938153 0.5958019
000120 88 b9 10 bf 0c 7a bf 3e 8e 73 5c be b6 c2 61 be
       -0.565331 0.37397802 -0.21528456 -0.22046933
000130 4c e5 31 be 7e b0 b8 be 03 d8 97 3e 64 1c 71 be
       -0.17372626 -0.36072153 0.2965699 -0.23545986
000140 f3 13 8a 3e 7b 94 14 3f 7b 15 89 3e 11 43 b7 be
       0.26968345 0.58039063 0.267742 -0.35793355
000150 5a 3c ca be dc e3 6c be 49 6b ee 3e 8f a3 31 3c
       -0.3949917 -0.23133796 0.46566227 0.010842218
000160 df 36 60 be 00 22 ab be 92 58 20 3f e0 7f 04 3f
       -0.21895932 -0.33424377 0.6263515 0.5175762
000170 98 ff c6 be d7 0c 78 be ce 2c 14 3f c2 28 02 3e
       -0.38866878 -0.24223648 0.57880867 0.1271086
000180 91 b5 98 be 58 ae c0 3e 8b 36 b2 bd 03 d4 c6 be
       -0.29826024 0.37633014 -0.087018095 -0.38833627
000190 43 1d 96 bd 41 92 9c bc 63 28 1b bf 46 f2 7f be
       -0.073298 -0.019112708 -0.606085 -0.24994764
0001a0 0c 18 1b 3e 8f 7b 04 be ea b4 51 3c e6 1e ce be
       0.15145892 -0.12937759 0.012799481 -0.4025795
0001b0 3c ca 11 3f e7 dd f3 3c b7 1f db bd 44 ee 0e 3f
       0.5694921 0.029768897 -0.106994085 0.55832314
0001c0 1f 14 e2 3d 61 f7 9c be 11 5c b8 be 25 28 bc be
       0.11038994 -0.30657485 -0.3600774 -0.36749378
0001d0 a9 b7 3f be dd 05 31 be 28 5b 3b 3e 72 72 91 3e
       -0.18722405 -0.17287393 0.18296492 0.28407627
0001e0 2f 3f fe 3e eb 97 90 be 4d 2c f4 be 92 8e b5 bd
       0.4965758 -0.28240904 -0.4769005 -0.08865084
0001f0 35 61 a0 3e bc 2d eb 3e b8 4d 10 bf 88 ac 9d be
       0.31324163 0.4593333 -0.5636859 -0.30795693
000200 4e b8 38 3d ad 41 39 3d 86 b0 96 3d 79 9a af 3e
       0.04509764 0.04522865 0.07357888 0.3429754
000210 5c 06 0b bf d2 73 fa be 44 2e 08 3f 45 94 ab be
       -0.5430658 -0.4891649 0.53195596 -0.33511558
000220 ff e1 3a 3e d7 77 0f 3e fc b0 fe 3e 95 37 0a 3f
       0.18250273 0.14010559 0.49744403 0.5399106
000230 60 d9 00 3f ac 0d 0f 3f ca 54 77 3e 82 48 f5 be
       0.5033169 0.55880237 0.24153438 -0.47906882
000240 43 20 f6 be 87 fc 8a 3e d8 cf de 3e a8 73 1e 3e
       -0.4807149 0.27145788 0.43517947 0.15473807
000250 3b 38 0e be 38 a1 59 3d 21 8d 0e 3f 62 0f 0b be
       -0.13888638 0.053132266 0.55684096 -0.13580087
000260 41 ef ae bd b6 10 0e 3f 2b c4 69 3d 23 b2 ef 3e
       -0.08541728 0.5549425 0.057071846 0.46815595
000270 55 8a 56 be 14 87 a0 3e da f6 d3 3e 69 04 c3 3e
       -0.20951207 0.31353056 0.4139927 0.38089302
000280 2f 3b 07 3f f0 dc 80 3e 44 e8 1b 3f c5 f8 18 3f
       0.5282468 0.25168562 0.60901284 0.5975459
000290 7a af e0 be 8a f7 29 3f 2a bc f6 be fb 56 9a 3b
       -0.43883878 0.6639334 -0.48190433 0.004710076
0002a0 2c b3 e9 3e 34 e5 4e be 27 ec c3 3d eb 5f 29 be
       0.4564451 -0.20204622 0.09566527 -0.16540496
0002b0 47 5b 1c 3f 68 32 52 be 31 c4 b2 be 3b 11 49 be
       0.6107678 -0.20527041 -0.34915307 -0.19635479
0002c0 df 18 0d 3e 0c 0c 26 3f 66 26 70 be cc 6d b6 be
       0.13779019 0.6486213 -0.23452148 -0.35630643
0002d0 de e0 96 3e 1c a5 df bd a3 7a c6 bd 69 df 70 be
       0.29468435 -0.10920164 -0.0969136 -0.23522724
0002e0 7c 6e 9e 3e af 45 5d 3e 44 ea 09 be 38 c6 df 3e
       0.30943668 0.21608613 -0.13468271 0.43705916
0002f0 eb 9d e7 be 98 ca 49 be 51 2e aa be 27 38 85 3d
       -0.4523767 -0.1970619 -0.33238462 0.06504851

shared_layers.0.bias f4 [64]
000000 bd 37 b2 3e 5f 51 7b be cb eb 16 be d4 d4 1b 3f
       0.3480815 -0.2454276 -0.14738385 0.60871625
000010 aa 00 2f 3f d8 c9 05 3f e8 f5 f1 be d3 fc 97 bd
       0.6836039 0.52261114 -0.47257924 -0.07421269
000020 d0 de 23 3f cf fe fd 3e eb 70 85 be 3a 13 c5 3e
       0.6401186 0.49608466 -0.26062712 0.3849123
000030 75 d6 c6 be 68 bf 00 3f d3 90 03 3f 7b 95 27 3f
       -0.38835493 0.5029206 0.5139286 0.65462464
000040 73 9d eb 3d b9 4f d1 3e 85 fd 9c 3e 1e dc 83 be
       0.115046404 0.40881136 0.3066217 -0.25753874
000050 84 8c 8d 3e d8 05 61 be 27 a2 fa be c3 3e c8 bd
       0.27646267 -0.21974885 -0.48951837 -0.09777596
000060 7f 9c 87 be a9 cf 0f be e6 ec b0 3e a7 05 8f 3d
       -0.26486585 -0.1404406 0.3455574 0.069835
000070 02 1d 91 be b9 94 dc 3e 61 24 21 3f 91 a0 10 3f
       -0.28342444 0.43082216 0.62946135 0.56495005
000080 17 91 c0 be ea 21 dd bc 32 7b 08 3f 67 db 0c bf
       -0.37610695 -0.02699371 0.5331298 -0.5502228
000090 34 49 17 be 1c b2 3b bd 6b b6 a7 3e 9d 21 62 be
       -0.14774019 -0.045824155 0.3275636 -0.22083135
0000a0 0e f4 50 3d 6d 9e 60 be 66 55 ec bd 39 d2 52 3e
       0.051014 -0.21935435 -0.11539726 0.20588006
0000b0 4b 30 b7 3e 86 08 0c 3f fe 77 80 bc ac 2b c8 3d
       0.35779032 0.54700506 -0.015682217 0.09773955
0000c0 c3 7f 09 bf 9f ae d8 be d0 84 0d bf 01 e8 19 3d
       -0.53710574 -0.42320725 -0.5528078 0.03757477
0000d0 23 1b 96 3e 73 f8 7c be fc 53 11 3c c6 cc 41 3e
       0.2931758 -0.24704151 0.008870121 0.18925771
0000e0 4c 06 1a 3e f1 98 b6 3d c1 ce 0a be a5 8a 28 3e
       0.15041465 0.0891589 -0.13555433 0.16459139
0000f0 87 29 0a 3e 24 53 0e 3f 3e f3 77 be da bb c4 bc
       0.13492404 0.5559561 -0.24213883 -0.024015356

shared_layers.2.weight f4 [32, 64]
000000 4c 55 40 3d 36 a6 e2 bd 16 5b e4 bd f4 a7 3c 3d
       0.046956345 -0.110668585 -0.11150186 0.04605861
000010 38 ee 40 bd 58 d4 c5 bd 98 3d 6c 3d 58 4c 0b bd
       -0.047102183 -0.09659642 0.057675928 -0.034008354
000020 ba eb f0 bd be af c6 bd d2 58 ad 3d dc 73 89 3d
       -0.11763711 -0.09701489 0.08464207 0.067115515
000030 20 5c e7 bd b6 9c d7 3d 64 d9 85 3d 34 fc 95 3d
       -0.11296868 0.10527937 0.065356046 0.073234946
000040 ac df e6 3d e4 83 2e 3d 5c 69 69 3d d0 6f 88 bd
       0.11273131 0.04260625 0.056985244 -0.066619515
000050 d8 08 f2 3d e8 c5 b4 bd 20 96 a8 3d 8c f1 6f bd
       0.11818093 -0.0882681 0.08231759 -0.058579966
000060 20 4b 83 3c 44 bb 32 bd bc 32 65 3d a8 f1 f8 bc
       0.016027033 -0.04363562 0.055956587 -0.030388668
000070 10 47 d8 bd 00 e9 17 3d 62 65 d8 bd b0 87 c2 bd
       -0.10560429 0.03708744 -0.10566212 -0.094985366
000080 f8 e0 f2 3d 78 0b 10 bd 3c 1b a2 bd b6 0b b9 3d
       0.11859316 -0.035167187 -0.07915351 0.09035437
000090 04 06 15 bd b4 6d 00 3d f2 b3 90 bd f0 68 92 3c
       -0.03638269 0.03135462 -0.07065572 0.017872304
0000a0 30 48 52 bc 88 58 33 bd 10 71 f2 3d e8 d1 d4 bc
       -0.012834594 -0.0437856 0.11837971 -0.025978997
0000b0 ec 45 e1 3d a2 37 f0 bd 80 8b 4f 3c 42 e2 c0 bd
       0.10999665 -0.11729361 0.012667537 -0.09418155
0000c0 24 2d d6 3d 16 98 99 3d 20 63 93 3b 10 f9 e8 3d
       0.10457829 0.07499711 0.0044979006 0.1137563
0000d0 a0 7f 2b 3c a4 6a 57 3d 40 82 37 bc e0 a0 01 bd
       0.01046744 0.052591935 -0.011200488 -0.031647563
0000e0 00 c5 e2 ba dc e2 8b 3d f2 0b d8 bd 8c bc 85 3d
       -0.0017301142 0.06830379 -0.105491534 0.06530103
0000f0 58 4a ea 3c 8c 0e ee bd 64 3d 42 3d ba 31 ee bd
       0.028599903 -0.11623868 0.047421828 -0.11630578
000100 cd 9f f9 3d a4 b6 29 3e 14 f2 93 bd 3f a4 3e 3e
       0.12188683 0.16573578 -0.07223907 0.18617342
000110 61 7f 61 3e f6 ea 65 3e 0c 28 30 bd e4 92 fd 3d
       0.22021247 0.22452912 -0.04300694 0.12381533
000120 79 ec 4f 3e bb 7a d7 3d bf 48 12 3e 07 2a 39 3e
       0.20305051 0.10521456 0.14285563 0.18082438
000130 2a 4a a9 bd b4 cc 16 3e ed c0 fa 3d 64 5a bc 3d
       -0.08266099 0.14726526 0.12243829 0.09196928
000140 79 2c 5a 3d e3 7d d2 3c b1 2b 61 3d 40 95 c3 bc
       0.05326507 0.025694793 0.054973308 -0.023874879
000150 13 73 2d 3e 40 44 30 3d 8a d1 b8 3d df db 13 3e
       0.16938429 0.04303384 0.090243414 0.14439343
000160 c4 12 ff 3d a0 26 48 bd b2 e8 58 3e cc e8 e9 3d
       0.12454751 -0.04886496 0.21182516 0.114213556
000170 00 61 72 3a 4b 28 00 3d c0 1f a7 3d 75 80 0c 3e
       0.00092460215 0.031288426 0.08160353 0.13720877
000180 74 5d e6 bd 42 b7 8e 3d ae c6 73 bd 56 ea e7 3d
       -0.112482935 0.069685474 -0.059515648 0.11323993
000190 09 f7 4b 3d 14 f4 47 3d ba 4c 9e 3d 68 4f c7 bd
       0.049796138 0.048816755 0.07729478 -0.097319424
0001a0 cd 24 0f 3e d0 61 04 bd 70 21 da 3c 27 2c 1e 3e
       0.13978882 -0.032319844 0.026627272 0.1544653
0001b0 40 8d c8 bc 76 e9 3b 3e f0 51 76 3b b8 aa e7 3d
       -0.024481416 0.18350777 0.003758546 0.11311859
0001c0 48 3d 9d 3c 14 f9 08 bd fe d6 f9 bd d3 8e 4e 3e
       0.01919426 -0.033440664 -0.1219921 0.2017167
0001d0 5a 49 c2 3c 16 09 88 3d 77 5a bd 3c 4c 94 0d 3e
       0.023716617 0.06642358 0.023114426 0.13826102
0001e0 51 f5 42 3d 3f a0 3d 3e 50 c4 bd bd 2e 38 0b 3d
       0.047597233 0.1851816 -0.09265959 0.033989124
0001f0 a4 4c 64 3e dc de 16 3e d8 b9 c9 3d 58 b5 5b 3d
       0.22294861 0.14733452 0.098499 0.05363974
000200 47 04 50 3e 0f 01 2d 3e 90 a9 ff 3d de f8 60 3c
       0.20314132 0.16894935 0.12483513 0.01373121
000210 38 17 8a 3e 11 59 63 3e 20 e3 c0 bc 60 06 dc 3b
       0.2697084 0.22201945 -0.023545802 0.006714627
000220 42 12 81 3d 8d 0f e1 3d 94 3a cd 3d 23 86 9b 3d
       0.063023105 0.10989294 0.100209385 0.07593944
000230 58 33 cd bc 9e 20 82 3e 2e a1 fb 3c 48 33 11 3e
       -0.025048897 0.2541551 0.030716505 0.14179718
000240 8a e8 b7 3d 25 ea 23 3e 76 3d 12 3e cc 01 e7 3d
       0.089799 0.16007288 0.14281258 0.112796396
000250 25 d6 2c 3e 02 67 e3 bd b0 f9 9b 3c 7d 9d 0d 3e
       0.16878565 -0.111036316 0.019039959 0.13829608
000260 50 f0 35 3d 68 b5 f3 bc 8d 91 8a 3d b3 4b 48 3e
       0.044418633 -0.029749587 0.06766043 0.19560127
000270 dc 03 fa bd 89 66 09 3e 21 e3 30 3e e6 49 60 3e
       -0.12207767 0.1341802 0.17274143 0.2190319
000280 e8 c6 93 3d 10 62 7e bd ec 90 57 3d 9e 45 8a 3d
       0.07215673 -0.06210524 0.052628443 0.0675156
000290 8c 6b ae 3c df 13 61 3e f2 b2 ac bd b0 23 7a 3c
       0.021291517 0.21980236 -0.084325686 0.015267298
0002a0 8b 6e a8 3d 48 a1 89 bc 18 48 a7 bd 08 50 1e 3e
       0.082242094 -0.016800538 -0.08168048 0.15460217
0002b0 00 20 4c ba 16 04 73 3e 91 5c 01 3e 16 d9 60 3e
       -0.0007786751 0.23732027 0.12632968 0.21957812
0002c0 02 79 e6 bd ba ac c8 bd be 03 ef bd 4e cb 00 3e
       -0.11253549 -0.0979857 -0.11670636 0.12577555
0002d0 5b ea 6a 3e ea e7 00 3e d5 e8 04 3e 10 2a 7a 3d
       0.22940962 0.12588468 0.12979443 0.06107527
0002e0 93 12 5f 3e 72 73 2c 3e 2c ad 58 bd b8 6e 46 3e
       0.21784429 0.16840914 -0.052899525 0.19378173
0002f0 bc e9 56 3e 0f 66 40 3d da 5b de 3d 5e 9e 84 bd
       0.209876 0.04697233 0.10857363 -0.06475519
000300 cd 06 e3 bd 31 ec 1f bc 28 73 9f bc d5 10 ca bd
       -0.110852815 -0.009760902 -0.01946409 -0.09866492
000310 05 3f ac bc ae 2a 65 bd 90 c3 9b 3c a0 b4 f6 bc
       -0.021026144 -0.055948906 0.01901415 -0.030115426
000320 7f 30 62 3d 2b 4b c0 3d 8f da 99 bd c2 53 94 3d
       0.05522203 0.09389337 -0.0751239 0.07242538
000330 74 fe 1c bd 2a 8e 13 3d 98 2f 7a bd 9b 7b 09 bc
       -0.038328603 0.03602425 -0.061080545 -0.008391286
000340 bf 14 c8 bd c2 56 ee bd b0 94 6d bd 00 32 b0 bc
       -0.09769582 -0.116376415 -0.058003128 -0.021508217
000350 7d 9b db bd 92 30 ee 3d 94 68 da 3d 09 69 36 3d
       -0.107230164 0.11630358 0.10664478 0.044533763
000360 6a e8 cf bd 24 57 44 bd f3 e3 0b bd f4 21 c6 3b
       -0.10151751 -0.047934666 -0.034152936 0.006046528
000370 08 1e 8d bc 8e 86 c2 3c 17 d9 9a 3c c4 ee a6 bd
       -0.017226234 0.023745801 0.018902345 -0.0815101
000380 4c 5b b0 bd fc 3b 27 3d f1 38 eb 3c 92 b6 98 bd
       -0.086111635 0.04082869 0.028713675 -0.074566975
000390 5b 6f c1 bd 26 7a 56 3d 5c 4e 0a 3d f8 21 fe bc
       -0.094450675 0.052362584 0.033766136 -0.031022057
0003a0 5a 17 8b bd 22 14 b6 3d 70 c5 e8 bc 92 e1 4e bd
       -0.06791563 0.08890559 -0.028414458 -0.05050809
0003b0 70 3c 9e bc a8 33 eb bd 11 ce e8 bd 0f 4f 1a 3d
       -0.019315928 -0.11484462 -0.11367429 0.037673052
0003c0 44 25 a2 bd be 1e a2 3d 38 b7 b6 3d 7e 89 ca 3d
       -0.07917264 0.0791602 0.08921665 0.09889506
0003d0 cc 0c 3b bd 71 23 bc 3d 74 3f 9b bd 1c 0c a1 3d
       -0.0456665 0.091864474 -0.07580462 0.07863638
0003e0 ad cb 12 3d f3 d2 d0 3c 58 ac 97 3c 4b 83 56 3c
       0.03583877 0.025491213 0.018514797 0.013092826
0003f0 72 86 44 bd 52 68 5d bd 00 29 ed ba 80 11 e8 bb
       -0.04797978 -0.054054566 -0.0018093884 -0.0070821643

shared_layers.2.bias f4 [32]
000000 78 a9 39 bd 8f 6b 28 3e a1 e3 0c 3e 32 3f bb 3c
       -0.045327634 0.1644728 0.13758709 0.022857282
000010 13 88 5e 3e b0 de 36 3c 6f ef d6 bd d8 82 89 3d
       0.21731596 0.011161491 -0.10494887 0.067144096
000020 27 98 5d 3b 16 b5 b9 bd d4 30 86 3d 1c 1f b2 bd
       0.0033812614 -0.090677425 0.06552282 -0.0869734
000030 c5 c2 a3 3d fd 9b 2e 3e 90 20 54 3d c4 0d d7 3d
       0.07996134 0.17051692 0.051788867 0.105006725
000040 22 f6 9f 3d f8 51 54 3d b9 8d 5e 3d 31 f1 2e 3d
       0.07810618 0.051835984 0.054334376 0.042710487
000050 60 be da bd b9 64 6c 3c 48 1b 88 bc a7 33 1d 3e
       -0.106808424 0.014428311 -0.016614571 0.15351735
000060 05 98 95 3b 04 44 43 3d e8 5d 25 3d 00 86 5f 3b
       0.0045652413 0.047672287 0.04037276 0.003410697
000070 20 09 d6 3b 87 ef 86 bd 67 9f 4b 3e 6b 54 80 3c
       0.0065318495 -0.06588655 0.19885026 0.015665254

shared_layers.4.weight f4 [8, 32]
000000 85 93 0d be 93 2d 81 be 48 be 1c 3d 86 44 0d 3e
       -0.13825805 -0.25230083 0.038267404 0.13795671
000010 87 78 22 be ac 55 a6 bd 02 26 ae bd 2f c2 22 3e
       -0.1586629 -0.08121809 -0.08503343 0.15894388
000020 78 b7 d6 bd 83 be ac 3d 02 32 07 bd 73 42 05 3e
       -0.10484213 0.08434775 -0.033006676 0.1301363
000030 ba ca a7 bd d9 ba c5 bc 63 5f 0e 3e 86 18 1e be
       -0.08192964 -0.024136947 0.13903575 -0.15439042
000040 bd 55 10 be 20 dd 31 be f5 1d 8d 3d 72 39 ce 3d
       -0.14095207 -0.17369509 0.068904795 0.100695506
000050 18 da 68 bd a1 5c 52 be a4 c3 08 3e f0 3c 81 be
       -0.056848615 -0.20543148 0.13355881 -0.25241804
000060 fe 0c d4 bd 8a 6f 02 3e cf b5 60 be 58 3a e2 bb
       -0.103540406 0.12737861 -0.21944354 -0.006903928
000070 da d8 ce bd d1 2d 51 bd 3c b0 dd bb ad 5e 3f be
       -0.10099955 -0.051069085 -0.0067653935 -0.1868846
000080 2a b5 7a 3c a6 0b a1 3d 0a 1a cf bc 3e 7c c7 bd
       0.015301982 0.0786355 -0.025280971 -0.09740494
000090 ed d4 9e bd 0b ba 27 be c7 61 d1 bd 15 df 0b 3d
       -0.07755456 -0.16379564 -0.10223728 0.034148294
0000a0 98 df db bd b7 fb 2d 3e 85 b5 58 3e 06 96 bc bc
       -0.107360065 0.16990553 0.21162994 -0.023020755
0000b0 b9 fb 23 3e 99 b6 21 3e d3 08 15 be 72 f7 c3 3d
       0.16013993 0.15792312 -0.14554147 0.09568681
0000c0 71 00 a4 bd 2a d6 8b bb 49 da e2 3d e9 fb 1c 3e
       -0.08007897 -0.0042674737 0.11076791 0.15330471
0000d0 e7 90 cc bd 94 92 85 3e e1 32 24 3e 2b 39 83 3e
       -0.099885754 0.26088393 0.16035034 0.25629553
0000e0 2c 4d 1d be 92 f9 12 3e 50 58 54 3e cf 84 20 be
       -0.1536147 0.14353016 0.20736814 -0.15675662
0000f0 48 5e 82 bd e0 0a e2 bd 16 35 83 3e a6 8c c6 3d
       -0.06365639 -0.110372305 0.2562644 0.09694795
000100 59 c9 c2 3d 1e 17 cc b9 eb fa ff bc ee f0 a6 bb
       0.0951106 -0.00038927136 -0.031247577 -0.005094639
000110 a4 a9 3e be 53 67 2b be 72 b4 fb 3d f7 93 88 bd
       -0.186194 -0.16738634 0.122902766 -0.06668847
000120 f1 7b 8c 3d 68 1c f0 bd a7 d9 4e bc 62 23 73 3d
       0.068595774 -0.11724168 -0.012625135 0.059359916
000130 c8 73 a8 bd 5b ac af bd 16 9a 17 bc ec 37 55 be
       -0.082252085 -0.08577796 -0.009253046 -0.20822114
000140 8c ff b0 bd f6 a3 bb bd 2b bf c6 3c a2 eb 14 3d
       -0.08642492 -0.091621324 0.024261078 0.03635753
000150 72 2a 5b 3d 5f 18 65 3d b5 ec eb bd 78 ec d7 3c
       0.053507276 0.055931445 -0.11519758 0.026357874
000160 c1 3d 27 3d 35 52 77 3d b1 cc 61 bd 67 75 24 bd
       0.040830377 0.060381133 -0.05512685 -0.040151026
000170 6f 2a 2c be e3 95 2a 3e c7 0f 4b be 3a ba 24 bd
       -0.16813062 0.1665874 -0.19830237 -0.040216662
000180 1b d3 37 bc 09 df 5a be 1d 39 87 be 62 0c 2e be
       -0.011219765 -0.21374144 -0.2641076 -0.16996911
000190 1b 71 42 bd ed 6c 9a bb 22 5b b8 3d 0a ed 38 3c
       -0.047471147 -0.004712692 0.09001757 0.011286983
0001a0 73 98 cb 3d e8 f6 04 bd e9 52 b5 bc cb 06 9e bd
       0.09941187 -0.03246203 -0.022134261 -0.077161394
0001b0 44 71 34 3d c4 8c cd bc 3d f2 0c 3e 66 9a 6f be
       0.04405333 -0.025091536 0.13764282 -0.23398742
0001c0 fb 29 22 be 13 02 64 bd bc 38 0e be f9 85 ec 3d
       -0.15836327 -0.05566604 -0.1388883 0.11548991
0001d0 67 58 20 be 64 67 30 3c 05 e8 a6 bd 34 b6 1f bd
       -0.15658723 0.010766838 -0.08149723 -0.03899212
0001e0 17 d4 8b bc 48 a6 97 bb ef b8 d2 bd 36 b6 18 3e
       -0.017068906 -0.0046279766 -0.102891795 0.14913258
0001f0 3b 97 a0 3c 2f bc fd 3c 1f 34 5d be c1 a7 dc bd
       0.019603362 0.030973522 -0.21601914 -0.10774184
000200 a5 45 f1 bc 10 c7 02 be 8b 5a b0 3c 6a 75 35 3d
       -0.029452154 -0.12771249 0.02152755 0.044301428
000210 d5 05 99 be 5c 96 27 be 4e d1 cf 3c b7 23 0e 3e
       -0.29887262 -0.16365951 0.025368359 0.13880812
000220 2b 2d 42 bc e8 ac 57 3d 69 fb 9e bd 3e 5a 2d 3e
       -0.011851589 0.05265513 -0.077627964 0.16928956
000230 4d 3f 98 bc 96 94 78 be f2 20 e1 bd 94 f1 6d be
       -0.018584872 -0.24275431 -0.10992612 -0.23236686
000240 1f af 15 3e c3 f9 1d be 7b 6c 63 be e9 65 c5 3d
       0.14617585 -0.15427308 -0.22209351 0.096385784
000250 d2 ba 48 3d 72 33 64 be 0e c6 1c bd 62 cd 38 be
       0.04900629 -0.2228525 -0.038274817 -0.18047097
000260 e8 45 d0 3d cd d6 a9 bc 78 79 47 bd 48 81 1d be
       0.101695836 -0.020732308 -0.048699826 -0.15381348
000270 cc 02 e7 3d d2 a3 59 3c e8 c5 db 3c 0c 63 78 be
       0.1127983 0.013283687 0.026827767 -0.24256533
000280 cc 1a 2c 3e bc 8c 42 3d e3 b2 0e be ed f1 19 be
       0.16807097 0.047497496 -0.13935427 -0.15033694
000290 19 25 8d be 4c 46 0a bc 19 8b cc bc 5c e6 5b bd
       -0.27567366 -0.008439612 -0.02496867 -0.053686485
0002a0 40 54 d0 3d b7 99 ee bd 47 37 3a bd 89 48 82 3d
       0.101723194 -0.116504125 -0.045462873 0.06361491
0002b0 4c 87 65 be 01 99 4d be a6 ca 25 3d 84 67 1f be
       -0.22414893 -0.20077898 0.040476464 -0.15566832
0002c0 c2 32 20 be 79 80 25 be 68 b5 86 be 69 fa 72 bd
       -0.15644363 -0.1616229 -0.26310277 -0.05932084
0002d0 53 7e 60 bd d0 e7 bf bd c8 6e 85 3d 91 d4 5c be
       -0.054807972 -0.093703866 0.065152705 -0.21565463
0002e0 c6 92 7e 3d 41 43 ce bd ab 5c 5f 3d 58 b4 0b be
       0.062151693 -0.100714214 0.054531734 -0.13643014
0002f0 67 18 cf 3d 0f 97 b7 3d 71 94 2b bd 30 1f de bc
       0.10112076 0.08964359 -0.04188961 -0.02711448
000300 59 67 8f 3c 28 b2 1b bd 6c 32 52 bd 6e 63 1e 3d
       0.017505335 -0.0380117 -0.051317617 0.038669042
000310 f7 72 15 be 8a 70 c8 3d 6e 67 31 be 81 c8 c1 3d
       -0.14594637 0.0978709 -0.17324612 0.09462071
000320 d4 9c ba 3d a6 cc 1c be 7e 83 ff bd 21 63 56 3d
       0.09111944 -0.15312442 -0.12476252 0.05234063
000330 6c 4c 14 be c0 f8 9b bc b2 7a 16 3e d7 28 b2 3c
       -0.14482278 -0.019039512 0.14695242 0.02174799
000340 cf be c6 bb 50 e8 a3 3d fa 35 52 be a3 25 10 3e
       -0.0060652266 0.080032945 -0.20528403 0.14076857
000350 0b 6f 21 3e f1 64 bb bd 49 d5 1f 3e 89 6e de 3d
       0.15765016 -0.091501124 0.15608706 0.10860927
000360 0f fa a5 bc 5b 5b a3 3c ed e0 4a 3d cd 87 1f be
       -0.020260839 0.019941023 0.049530912 -0.15579148
000370 87 06 30 3e 18 c6 08 be a2 d4 2e 3d 22 53 0b 3d
       0.1718999 -0.13356817 0.04268325 0.03401483
000380 a4 d2 21 3e ca 56 8d be 47 ae 95 be 34 4a f5 3d
       0.1580301 -0.27605277 -0.29234526 0.11977044
000390 a0 75 a5 be ba e3 12 3e ad 16 c8 bd 80 aa 04 3e
       -0.32316303 0.14344683 -0.0976995 0.12955666
0003a0 ba 01 ab 3d f2 62 e4 3b a2 1f 08 be 41 d2 3d bd
       0.08349939 0.006969803 -0.13293317 -0.046343092
0003b0 b3 2d 64 bd f4 a0 23 bc 83 62 99 3d 25 ed 29 be
       -0.055707645 -0.009987105 0.07489493 -0.1659437
0003c0 2a c7 0a 3c cf 3a 51 bc a2 93 1c bb 34 d3 f2 3d
       0.008470336 -0.012770369 -0.0023891707 0.1185669
0003d0 bd be 13 3e fe 61 1f be 1e cb f4 bc 90 99 74 bc
       0.1442823 -0.15564725 -0.02988201 -0.01492919
0003e0 e4 91 11 3e 85 c9 2f 3e f4 ec 66 be 52 37 a2 3b
       0.14215809 0.17166717 -0.22551328 0.0049504424
0003f0 f4 92 af 3d 4a 80 73 3d 1b 92 33 be d2 c1 e2 bd
       0.08572951 0.059448518 -0.17536204 -0.110721245

shared_layers.4.bias f4 [8]
000000 d7 b0 a3 ba 2e f8 9a 3d 6e f9 b6 bd ef 9f 65 be
       -0.0012488615 0.07566868 -0.08934294 -0.22424291
000010 50 48 20 3d 11 f2 49 be ec af eb 3c 85 24 60 3d
       0.039131463 -0.19721247 0.02877041 0.054722328
