training/models/controller_controller_acc0.819_lat0.006_succ5_small7_large10_carb15_cap105_rate0.001598_best_model.pth (torch, 18457 bytes, 6 tensors)

shared_layers.0.weight f4 [64, 3]
000000 84 de 08 3f 93 d7 24 3f 46 78 39 3e 5e 06 05 3c
       0.5346453 0.6439144 0.18112287 0.008119194
000010 c7 a5 4a 3e 52 68 77 be 0d 98 51 3e 9f 74 b0 3e
       0.19789802 -0.24160889 0.20468159 0.34463975
000020 4b 80 ae 3e 77 bb 37 bc b7 62 35 3f 3c bb 96 be
       0.34082255 -0.011214129 0.7085375 -0.29439723
000030 7e 41 fe be 6c 6b bb 3e 2b d3 d9 3e f5 96 fb 3e
       -0.49659342 0.36605394 0.4254392 0.4913861
000040 d0 c3 95 be 78 37 79 be 31 93 ab be f0 a4 f9 be
       -0.29250956 -0.24337566 -0.33510736 -0.4875865
000050 96 dc 00 3f f9 c3 df 3d 84 bb 8e be 47 8e 93 be
       0.5033659 0.10926051 -0.27877438 -0.28819486
000060 e8 fb e7 bd bb 71 9a be 00 ec 8b be 56 3b 01 3e
       -0.11327344 -0.30164894 -0.2732849 0.12620291
000070 6d 5b 1e 3f 0c c7 08 3f 0b 7e 7d 3e ef fb d7 3d
       0.61858255 0.5342872 0.24755113 0.105460994
000080 f4 dd 62 be 1c d2 ab 3d 6f 66 f6 3d 8c ea 87 be
       -0.22154981 0.083896846 0.120312564 -0.26546133
000090 4b 6e 11 bf 58 78 e5 bd 56 c4 82 be 0b 80 12 3e
       -0.5680892 -0.112045944 -0.25540417 0.14306657
0000a0 fe 7b a2 bd bb cd 12 3f 4c 5a 12 bf a7 52 ff be
       -0.07933806 0.5734517 -0.5716903 -0.49867746
0000b0 66 22 06 bf 1b 0f dc be f3 66 fe 3d 4a 2d aa 3e
       -0.5239624 -0.42980275 0.1242198 0.33237678
0000c0 57 6d b7 3d 3e 94 ee be 43 5f 7e 3d 9a 82 90 be
       0.08956402 -0.46597475 0.062102567 -0.2822464
0000d0 60 54 8c be cf 0b e1 be 43 a3 11 3f c4 f9 16 3f
       -0.27408123 -0.43954322 0.5688974 0.5897486
0000e0 25 e8 b1 3e 7f 55 91 3e a8 dc fe bd 10 86 ff 3e
       0.34747425 0.2838554 -0.124444306 0.4990697
0000f0 8c ee f1 be 1b 76 09 bf 3f 0d f7 be a3 c7 e5 be
       -0.4725231 -0.5369584 -0.48252293 -0.44878873
000100 ef 45 32 3e b9 26 9c 3c 82 16 d6 bd 28 15 40 3f
       0.1740949 0.019061433 -0.10453512 0.7503228
000110 53 21 11 3f dd 6b 14 3e 9b 47 02 be 2c f4 e3 3d
       0.56691474 0.14494272 -0.12722628 0.111305565
000120 ad a4 d0 3e 26 05 87 be 02 b5 c7 be fd 31 3f 3e
       0.40750638 -0.26371115 -0.39005286 0.18671413
000130 24 5e 11 be 46 75 97 3e 5c 57 05 3f f8 06 7e be
       -0.14196068 0.2958166 0.52086425 -0.24807346
000140 09 f9 e5 3e bb 04 33 3f 4c 0b e3 bd 8f 38 06 bb
       0.4491656 0.69929093 -0.11086139 -0.002048049
000150 d6 c7 a3 3e 1c 0c 03 bf 8b a1 5b 3e ed 28 df 3e
       0.319884 -0.5119035 0.21448343 0.4358591
000160 7a 92 f1 be 33 55 f8 3e 3f 0c fd 3c 3f ee 80 bd
       -0.47182065 0.48502502 0.030889628 -0.06295442
000170 de f2 08 be 48 6f 00 bf 75 1b a2 be 78 29 d3 be
       -0.13373896 -0.501698 -0.31661573 -0.41242576
000180 8b 45 f1 3d 54 7e 0f bf 12 8d 7c 3e 19 a9 54 bd
       0.117808424 -0.56052136 0.24663189 -0.051919077
000190 77 47 04 bf ab 97 e0 be af 00 78 3e 07 58 1b 3f
       -0.51671547 -0.43865713 0.24219011 0.60681194
0001a0 fd 33 56 3e 55 72 92 3e f9 0a 49 3b f6 27 ea be
       0.2091827 0.28602853 0.0030676706 -0.45733613
0001b0 aa 7b e1 bd 37 b0 5b be ad 68 1c 3f 2c 3f 95 3e
       -0.11009915 -0.2145394 0.6109722 0.2914976
0001c0 86 7c 1a 3f 1c 23 bb 3e cf 7a 80 be 93 c3 14 3f
       0.6034626 0.36550224 -0.25093696 0.5811092
0001d0 85 95 dd be 76 67 09 3f b4 de a1 3d f0 ce da bd
       -0.43278137 0.53673494 0.079038054 -0.106840014
0001e0 14 a4 ca 3e b6 b9 7b be f7 78 01 3e d2 1f cd be
       0.39578307 -0.24582562 0.126438 -0.4006334
0001f0 9d 06 a4 be f9 2c 9c be 20 ac e9 3c a1 6b ee 3d
       -0.32036296 -0.3050306 0.028524458 0.11641622
000200 c5 06 86 3e d4 9c a0 be 63 36 57 be 02 96 07 bf
       0.2617704 -0.3136965 -0.2101684 -0.5296327
000210 6c e4 ba be 1b a8 33 3f 92 d6 f0 be 12 6f 2a 3f
       -0.36502397 0.70178384 -0.47038704 0.6657573
000220 28 a2 91 3e 9b 2c 46 bd db 44 13 3f e1 e3 13 3f
       0.28444028 -0.048382383 0.5752694 0.5776959
000230 0f 2b 00 3e 21 10 fa be 86 2c 5c 3e 54 a5 a2 be
       0.12516426 -0.4884043 0.2150136 -0.3176676
000240 85 5e c3 3e 3b a2 a0 be 01 54 ec be f9 43 a5 be
       0.3815805 -0.31373772 -0.4615784 -0.32278422
000250 2a 21 37 be 17 a9 93 3e ea 05 2d be ea 77 ed be
       -0.17883745 0.28839943 -0.16896787 -0.4638055
000260 0d cd 4b 3d 44 71 09 3f e7 3c 08 3f c9 49 8a 3d
       0.0497561 0.53688455 0.5321793 0.06752355
000270 80 3c 9d bd 89 28 dc be a8 66 10 be 52 ab 11 3e
       -0.07677555 -0.42999676 -0.1410166 0.1422551
000280 98 52 2b 3f d0 be 06 3f c0 9a 91 3e 9d 36 cd 3d
       0.66922903 0.52634907 0.28438377 0.10020182
000290 99 bb 88 bd c1 6a 83 be ae 1d 22 3f e0 8e dd be
       -0.066764064 -0.25667384 0.6332654 -0.43273067
0002a0 0c 59 29 3e 11 18 87 3e bb 62 d7 3e 44 51 b7 bd
       0.16537875 0.2638555 0.42067513 -0.08951047
0002b0 ce 51 7f be 04 88 2a be a7 5c 7b 3e dc e5 70 3e
       -0.2493355 -0.16653448 0.24547063 0.23525184
0002c0 83 14 d7 3e aa 97 17 be c0 a4 fb bd f2 e5 c4 bd
       0.42007837 -0.14803949 -0.12287283 -0.09614171
0002d0 2d 2d af be d7 0e 15 3d 23 f5 7e 3d 94 bb 59 be
       -0.34214154 0.036391106 0.0622455 -0.21262962
0002e0 b5 0d 46 be eb c3 93 3e 1e 20 3b 3e a0 17 be 3e
       -0.19341166 0.2886041 0.1827397 0.371274
0002f0 03 e2 c2 be d0 1b c7 3e ca e4 d6 3e 63 40 fe be
       -0.38063058 0.38888407 0.41971427 -0.49658498

shared_layers.0.bias f4 [64]
000000 1b 40 0f 3f 5b c7 ad 3e 5d 09 08 3f 88 66 99 3e
       0.5595719 0.3394116 0.5313929 0.29961038
000010 49 5f cf bd da fe 14 3f 3a c5 70 3e 3d 50 90 be
       -0.10125596 0.5820137 0.23512736 -0.28186217
000020 ba 51 28 be 19 5f 2b 3f ef b8 b1 be a5 92 a9 3e
       -0.16437426 0.6694198 -0.34711406 0.33119693
000030 b3 e7 f3 be 60 5e 06 bf 0c ba 5d 3e 00 2e a5 3d
       -0.4763771 -0.52487755 0.21653003 0.080654144
000040 a1 33 bd be 40 01 f8 be 23 a9 ed 3e be 50 c1 be
       -0.36953452 -0.48438454 0.46418104 -0.37756914
000050 ee 5a df bd 28 85 d0 3d 47 65 20 3e bd c3 c4 3e
       -0.10906015 0.101816475 0.15663634 0.38430586
000060 8c 7e fa be 13 8e 01 bf 70 29 31 3f bf 46 a7 bd
       -0.48924673 -0.50607413 0.69203854 -0.081677906
000070 f9 1f 07 bf 6b 67 7d be 1c 2a 01 3f cf 6d d0 be
       -0.5278316 -0.24746482 0.5045488 -0.40708777
000080 c2 c2 a6 be 86 e8 12 bd 19 27 42 3b 53 5c d0 3e
       -0.32570463 -0.035866283 0.0029625355 0.40695438
000090 1b e1 08 3f 25 61 9e 3e 4f a6 c0 3e ec 78 b0 3e
       0.53468484 0.3093349 0.37626883 0.34467256
0000a0 fa 21 9f 3e 4c 23 85 3b 0e bb 41 be 43 2e 0e bf
       0.3108061 0.0040630456 -0.18919012 -0.5553934
0000b0 94 af d1 3e 18 64 af be 07 d1 94 3e 2b e7 0d bd
       0.40954268 -0.34256053 0.29065725 -0.034644287
0000c0 a6 3b 16 3f 15 d6 cc be be 1f ea 3d 0b 14 ad be
       0.58684766 -0.40007082 0.114318356 -0.33804354
0000d0 7e 27 ed be 65 d1 a8 3e 11 2a b7 be 1e c3 87 3e
       -0.46319193 0.32972255 -0.35774282 0.2651605
0000e0 a6 a6 06 3f cc 38 b3 3d 9e 88 06 3f eb 36 1e 3f
       0.52598035 0.087510675 0.5255221 0.6180255
0000f0 52 bb 1f 3f 86 53 05 be e5 cf af 3e e3 09 42 be
       0.62395203 -0.13020143 0.34338298 -0.18949084

shared_layers.2.weight f4 [32, 64]
000000 aa fb e9 3c 20 80 73 bd dd 7f 6b 3d 4c c2 17 be
       0.028562386 -0.05944836 0.057494987 -0.14820212
000010 3c ac 25 3d 07 8f 13 3d 80 54 22 3d 48 43 01 3d
       0.04044746 0.036025073 0.039631367 0.031558305
000020 80 c1 d4 bd 5c 23 1b 3d f4 2d 87 bd 60 92 ee bd
       -0.1038847 0.03787552 -0.06600562 -0.116490126
000030 f8 6c d9 bd ce 81 9f bd 5e f2 c3 bd 2c 2c b1 bd
       -0.10616487 -0.0778843 -0.09567712 -0.08651003
000040 60 99 b9 bb a8 39 89 3c aa f2 86 bd 18 e6 41 3d
       -0.0056640357 0.016751125 -0.06589253 0.047338575
000050 68 6b cc 3c 40 2a 4c bc 86 d5 8c 3d f8 56 da bd
       0.024953559 -0.012461245 0.06876664 -0.10661119
000060 30 73 fb bd 68 39 d2 bd 49 a7 04 bd 88 26 2c bd
       -0.1227783 -0.102648556 -0.032386098 -0.042028934
000070 80 06 97 3d 08 02 94 3c 33 5c b7 bc cc bb f4 bd
       0.07374287 0.018067375 -0.022382831 -0.11949882
000080 14 d2 66 bd 22 0f 94 3d 99 6a c0 3d 6f f1 d7 3c
       -0.05635269 0.07229449 0.09395332 0.026360242
000090 c4 24 ee bd 51 93 99 3d ee 4a b8 3d 20 4b af 3d
       -0.11628106 0.074988015 0.08998667 0.08559251
0000a0 fa b9 bc bd 0c 31 d9 bd c0 e5 a4 3b c0 ff fe 3b
       -0.0921516 -0.10605058 0.005032271 0.0077819526
0000b0 ec 17 f1 3c d8 01 c1 3c a7 ca 7f 39 40 8c af bd
       0.029430352 0.02356045 0.00024394189 -0.085716724
0000c0 a3 e1 7c 3a da ee d9 3d e0 b0 12 bd 26 02 15 be
       0.00096466596 0.106412604 -0.035813212 -0.14551601
0000d0 b0 95 89 3d a5 eb c9 bd e4 70 a0 bc c4 b3 3e bc
       0.06718004 -0.09859399 -0.01958508 -0.011639539
0000e0 b1 10 90 3c fa c6 80 bd 69 f3 a5 3d 63 66 06 bd
       0.017586084 -0.06287952 0.081030674 -0.032812487
0000f0 dc a4 f2 bc 38 30 e2 3c 4f 3d ef 3c 4e aa 2b 3d
       -0.029619627 0.027610883 0.029204039 0.041910462
000100 90 93 5c bd c4 0e 8e 3d 60 d7 c7 bc 40 ab 20 3c
       -0.053851664 0.0693641 -0.024394691 0.009806454
000110 b4 a2 99 bd f0 7d 67 3c fc ee a1 3d 60 db 3c 3c
       -0.07501736 0.014129147 0.07906911 0.011526912
000120 6c f2 cc bd 58 9e 2f bd 00 10 ff 3b ee 87 97 bd
       -0.10007176 -0.042875618 0.00778389 -0.073989734
000130 54 78 51 3d 58 a4 7e bd 00 16 82 3a 70 b6 20 3d
       0.051140144 -0.06216845 0.0009924769 0.039236486
000140 90 28 9b 3c 78 9d c6 bd ee 6d d9 3d 60 ce b0 3c
       0.01894024 -0.096980035 0.106166705 0.021582782
000150 3a 5f cd 3d 00 95 ba 3d c2 e3 f9 3d d0 36 c1 bc
       0.10027929 0.09110451 0.122016445 -0.023585707
000160 48 f8 2c bd e8 73 50 3d 58 82 c9 bd 1e 5e ae bd
       -0.042228967 0.050891787 -0.09839314 -0.08514045
000170 e2 4b 94 bd dc 21 44 bd 6c be 9b bd b8 59 94 bd
       -0.07241036 -0.047883853 -0.076046795 -0.07243675
000180 70 5d 3b 3c 40 91 ef bc e0 ae 8d bc 92 f9 f5 bd
       0.011435851 -0.029244065 -0.017295301 -0.120104924
000190 96 cd 96 3d a6 63 e2 bd fa a2 af bd ec e7 83 bd
       0.07363431 -0.11054163 -0.08576007 -0.0644072
0001a0 28 5d ce bd 42 af b8 bd 2a ca bb bd b6 24 83 3d
       -0.10076362 -0.09017803 -0.09169419 0.064034864
0001b0 aa ae a9 bd e0 c2 d0 bd ea e6 bc 3d b8 91 af bc
       -0.08285268 -0.101934195 0.09223731 -0.021431789
0001c0 08 a9 0a 3d e4 10 24 3d a2 b0 8c 3d d8 00 ea 3d
       0.033852607 0.04005517 0.068696275 0.11425942
0001d0 56 9e f9 3d 06 7b eb bd f4 ed dd 3d 10 38 30 bc
       0.12188403 -0.11498074 0.108364016 -0.010755554
0001e0 80 1c 06 bc 24 6d 89 3d e0 c4 ed 3d 58 a9 d2 bd
       -0.008185506 0.0671027 0.116098166 -0.10286206
0001f0 38 a4 c9 bc a6 24 f4 3d 78 3d 20 bd f0 d0 99 3d
       -0.024614438 0.11921053 -0.03912112 0.07510555
000200 d4 5e 72 bd 20 5a 45 bd 12 7d b2 bd 60 81 3d bd
       -0.059172466 -0.048181653 -0.087152615 -0.04626596
000210 d8 75 99 bc 5c 9e 7c 3d 88 9e 9c bc a4 e4 81 bd
       -0.01873295 0.06167446 -0.019118562 -0.06342438
000220 6c 37 6d bd 10 b0 43 3d 60 9b 3f bd 44 5c ae bd
       -0.057914183 0.04777533 -0.046779037 -0.08513692
000230 5c 3a 0b bd b0 5d de 3d 18 85 ff bd 28 d9 08 3d
       -0.033991203 0.10857713 -0.124765575 0.03341022
000240 38 48 bf 3c 28 7f f3 3c 40 f1 02 3c f8 b4 a4 bd
       0.023349866 0.029723719 0.007992089 -0.080423295
000250 30 1e ef bc 96 ee 9a 3d 18 71 41 bd f0 ff 4d 3d
       -0.0291892 0.07565038 -0.047226995 0.05029291
000260 98 5b cf 3d 90 6c fd 3c 10 90 9e bd 30 fa 3d 3c
       0.10124892 0.030935556 -0.077423215 0.011595294
000270 3a 50 da 3d 5c aa 11 bd ca 04 80 3d a0 12 a5 3b
       0.10659833 -0.035562858 0.062509134 0.0050376207
000280 fc 00 12 3d 30 c3 63 bd 3c 81 aa bd 34 9a 59 bd
       0.03564547 -0.055606067 -0.08325431 -0.053125575
000290 20 e4 04 3d f4 d4 03 3d b4 59 f9 bd ba 1f 86 bd
       0.03244412 0.03218551 -0.12175313 -0.0654902
0002a0 50 25 aa 3d 52 e1 ff 3d 02 cb c2 bd 20 22 0b bc
       0.08307898 0.12494148 -0.09511377 -0.008492023
0002b0 60 e3 b4 bd 1a 8d 92 3d 90 24 3a bc 32 a5 98 bd
       -0.08832431 0.07155819 -0.011361256 -0.074533835
0002c0 c8 c2 7d 3d 40 40 fe 3b 56 71 c1 bd b8 b8 e0 3c
       0.061953336 0.007759124 -0.09445445 0.02743183
0002d0 20 72 97 bc 86 86 e3 bd 4c da 2d 3d 90 e1 da bc
       -0.018487036 -0.11109643 0.042444512 -0.026718885
0002e0 80 97 4f 3c 9c cd 53 3d c0 76 d2 bb 40 8c 08 bc
       0.012670398 0.051709756 -0.0064228475 -0.008334219
0002f0 f4 a8 6a 3d a4 12 ac 3d f4 67 b0 bd 78 e2 e5 bc
       0.057290033 0.08401993 -0.086135775 -0.02806209
000300 b0 cf 1a bd 74 64 e5 bd a4 3e 36 bd b8 35 0a bd
       -0.037795722 -0.112008005 -0.044493333 -0.033742636
000310 08 c4 c7 bd ce 66 94 3d d0 a1 c8 bc 2c 99 a8 bd
       -0.09754187 0.07246171 -0.02449122 -0.0823234
000320 22 98 a5 bd 7c 76 71 bd 14 7f 66 3d b0 06 5f 3c
       -0.08085658 -0.058950886 0.056273535 0.013612434
000330 b0 1a 4d 3d dc 17 ca bd 2c 93 0d 3d 6a 6d 98 bd
       0.05007428 -0.09867832 0.034564182 -0.07442744
000340 90 df 9d 3c e0 7e ee bc ac 71 99 3d 50 d8 7c 3d
       0.019271642 -0.029113233 0.07492384 0.06172973
000350 3a 73 bc bd 4a 7f 83 bd 48 9e b0 bd 7e 18 f2 bd
       -0.09201665 -0.06420763 -0.0862394 -0.11821078
000360 82 b8 ef bd 34 51 f5 3d 00 5b 06 3a 1e f4 9b bd
       -0.11705114 0.11978379 0.00051252544 -0.07614921
000370 80 6e 9c 3d 84 aa b3 bd 26 6b de bd fc 90 d8 3d
       0.07638264 -0.08772758 -0.10860281 0.105745286
000380 d0 6a c9 3c d0 95 70 bc 18 27 25 3d 0c 73 8d 3d
       0.024587065 -0.014684156 0.040320486 0.06906709
000390 50 02 39 3c 48 a9 31 bd 20 b1 17 3c a4 a8 26 3d
       0.011292055 -0.04337433 0.0092585385 0.040688172
0003a0 0c 7c fa 3d 7a 89 8d 3d a4 40 92 3d e0 f8 57 3d
       0.12230691 0.06910987 0.071412355 0.05272758
0003b0 4c b5 95 bd 9c 27 81 3d 0a e9 c2 bd a6 34 d1 bd
       -0.0730997 0.06306383 -0.09517105 -0.1021512
0003c0 94 0e d7 bd 96 7c 8c bd 1a a6 ac bd 14 e0 70 bd
       -0.105008274 -0.068597004 -0.08430119 -0.058807448
0003d0 00 4d 3f bc 60 4f 30 3c 30 96 19 3d 74 d2 e3 bd
       -0.011676073 0.010761112 0.037496746 -0.11124125
0003e0 d0 8a 33 bc a4 7f a5 bd a0 a6 3f bc 58 28 83 3d
       -0.010958388 -0.08080986 -0.011697441 0.06404179
0003f0 88 1d f5 bc 9e 9b c0 bd 7e 1b 8a bd da d6 9b 3d
       -0.029921308 -0.094046816 -0.06743525 0.07609339

shared_layers.2.bias f4 [32]
000000 c6 2f 1b be 00 4a cc 3d 90 6a 6d bd 0a ba a1 bd
       -0.15154943 0.09975052 -0.057962954 -0.07896812
000010 e9 60 66 3e 16 4d cb bd 48 f4 f8 bc 9a 24 27 3d
       0.22497906 -0.09926812 -0.03038992 0.04080639
000020 b0 2b 8d bd 42 35 4a 3e e0 72 c2 3b 7a e4 8b bd
       -0.06893098 0.19746879 0.0059341043 -0.06830688
000030 ac 3a 8b 3d f3 7a 0b 3d 9e 37 bf bd f8 0c 3d 3d
       0.067983 0.0340528 -0.0933678 0.046154946
000040 f4 50 0c bd 63 13 7c 3e d9 a5 49 bd b0 6a 6d 3c
       -0.03425689 0.2461677 -0.04923043 0.014490768
000050 00 16 29 3d 73 9e cc 3d 25 d8 80 3d 9a e8 bd bd
       0.041280746 0.09991159 0.06291226 -0.09272881
000060 2d ec ce bd 1e 9c 80 3d 0f 74 76 3e 7a 72 82 bd
       -0.10103641 0.06279777 0.2406771 -0.06369491
000070 75 cd 09 be 67 24 6e 3e 28 e5 64 3d 00 3a c8 3d
       -0.13457282 0.23256074 0.055882603 0.097766876

shared_layers.4.weight f4 [8, 32]
000000 1b f3 26 be c8 bc de bc 8b c1 1d bd 08 71 9b 3d
       -0.16303675 -0.027189627 -0.038514655 0.075899184
000010 73 cf d4 bd a3 d3 b9 3d 11 25 1e 3d fe 1c ac 3d
       -0.1039113 0.090735696 0.038609568 0.08403967
000020 07 29 f5 3d 65 17 6c be d3 e8 6a 3d d2 8f c4 3d
       0.11970716 -0.230558 0.057350945 0.09597744
000030 7d 04 32 3e 67 fa 85 3c ef 17 ed bd 96 83 ac be
       0.17384525 0.016354753 -0.115768306 -0.33694142
000040 7a 52 11 be b7 80 78 bc c5 90 2b 3e 86 cb 2e be
       -0.14191619 -0.015167407 0.16754444 -0.17069826
000050 1d d0 09 be dc 6c 2f be 0a 45 06 3d fe e3 10 3e
       -0.13458295 -0.1713137 0.032780685 0.14149472
000060 40 69 e2 3d 53 cd 21 be ab 30 87 be 8d 2c bd 3c
       0.11055231 -0.15800981 -0.26404318 0.023092533
000070 e6 3b ea bd 3f fd b6 3c 9a 7d ed bd b5 09 66 3d
       -0.11437206 0.022337554 -0.11596222 0.0561616
000080 c8 ef 59 bd da c9 4b 3d 9a 64 0c 3e 7b a3 f1 3d
       -0.05320719 0.049753048 0.13710251 0.117987595
000090 cc 4b 72 3d f1 17 e1 bd 71 26 95 bd 21 94 b4 bd
       0.059154317 -0.109908946 -0.07282723 -0.08817316
0000a0 32 e3 10 3c 9b c2 28 3e 07 a3 a9 bd 74 90 1a 3e
       0.00884323 0.16480486 -0.08283048 0.15094167
0000b0 db c4 ef bd c5 9b 6c 3e 0e ef 1e 3d 2b cc 64 3e
       -0.11707469 0.23106296 0.0388022 0.22343509
0000c0 b2 ed 94 bc cb 30 86 3d 2d a5 f8 bd 5e 46 1e 3e
       -0.018179748 0.06552275 -0.1214088 0.1545653
0000d0 69 31 3d 3d 4c 32 96 bc 06 16 13 be 26 90 05 bb
       0.0461897 -0.01833453 -0.1436387 -0.0020380109
0000e0 b8 57 0e be 05 ed 00 3e dc 2a 22 3e 8b 48 a2 3d
       -0.1390065 0.12590416 0.15836662 0.07923993
0000f0 c9 01 1f be 6b 79 64 3e 2f 15 43 bd c1 3a 1c 3c
       -0.15528025 0.22311942 -0.047627624 0.009535492
000100 82 9d 09 be b2 2a 45 bb cf 5c a0 bc 5a e3 ef bd
       -0.1343899 -0.0030085263 -0.019575505 -0.11713286
000110 2c e0 da bd 14 18 41 be 6b a9 12 3e 29 e3 47 be
       -0.10687289 -0.18856841 0.1432244 -0.19520248
000120 fc c9 32 3e a7 93 9a be 16 8d 02 be ca cf 2d 3d
       0.17459863 -0.30190775 -0.12749133 0.04243449
000130 7d 74 7e bd bf 58 9b bd f1 60 24 be 72 c1 af bd
       -0.06212281 -0.07585286 -0.16052605 -0.08581819
000140 cd a0 28 3e 94 02 48 3b 71 fa 1d be 67 05 20 be
       0.1646759 0.0030519115 -0.15427567 -0.15627061
000150 76 f0 a0 bd 59 60 8b bd 44 44 d7 bd 4d 69 2f 3e
       -0.07858364 -0.06805486 -0.105110675 0.17130013
000160 5b 79 3e bd 29 59 2a 3e 10 97 ca bd 7b 8d 19 ba
       -0.046502452 0.16635574 -0.09892094 -0.0005857569
000170 ae 4c d3 3d fe 80 9f be 51 71 82 3d 3f 39 d6 bd
       0.1031736 -0.311531 0.0636927 -0.104601376
000180 2d 8f 01 3e 6f df 1c 3e 56 5f dd bd f9 af 82 3d
       0.12652273 0.15319608 -0.108091995 0.0638122
000190 35 0a 82 be 8e e5 5e bd b8 7c bf 3d 18 8d f6 bb
       -0.25398412 -0.05441814 0.0934996 -0.007524144
0001a0 6b 5e 12 be 92 a1 30 be 4a a4 07 3d e5 46 13 3e
       -0.1429383 -0.17249134 0.033115663 0.14382513
0001b0 ab c5 e1 bc 2d 45 43 be 88 ce b7 3d 12 b2 4f bd
       -0.027560076 -0.19069357 0.089749396 -0.05070693
0001c0 12 75 db bd 05 60 03 bd c4 79 16 be 27 cc 17 be
       -0.10715689 -0.032073993 -0.14694887 -0.14823972
0001d0 e6 36 c0 bc 21 96 b8 3c 20 e2 c5 bd 73 f2 f4 bd
       -0.023463678 0.022532525 -0.096622705 -0.11960306
0001e0 6b 48 30 be f3 6e e5 bd c2 2b 56 be 96 27 d7 3d
       -0.17215125 -0.112028025 -0.2091513 0.10505597
0001f0 84 72 33 bd 2f f4 70 be 23 0a c3 bd cb cc 07 bd
       -0.043810382 -0.23530649 -0.09523418 -0.03315429
000200 fe 08 00 3e f0 60 18 be 2a 0b c7 bd 6f c4 19 3d
       0.1250343 -0.14880729 -0.09718926 0.03754085
000210 47 0b 49 be f8 7f b2 3d 8a 7f 8e bd 27 8f aa 3d
       -0.19633208 0.08715814 -0.0695792 0.083280854
000220 46 a1 2f bd b0 8a 04 be f1 18 a3 bd aa 06 af bd
       -0.04287841 -0.1294353 -0.079637416 -0.08546193
000230 34 af a1 39 ee 42 16 be fc 97 db bd 94 44 2c be
       0.0003083885 -0.14673969 -0.10722348 -0.16823035
000240 d8 6e 1b 3c 00 61 f7 bd 8c 02 dd 3d c7 d1 dd 3d
       0.009486876 -0.12079048 0.107915014 0.108310275
000250 45 26 46 bd 43 6c 0f bd c4 e8 cf bc 58 63 d3 bd
       -0.04837634 -0.035015356 -0.025379546 -0.10321683
000260 fe 85 d1 3d 13 bb 0e be 05 2b 96 be a8 06 49 3d
       0.10230635 -0.1393855 -0.29329696 0.049078614
000270 8f 9b 16 bd 06 ae 8e be f5 0a ee bd 7b d2 96 bd
       -0.036769446 -0.27867144 -0.11623184 -0.07364365
000280 7e c7 77 bd c5 83 6b 3d 61 ea 17 be 4e ce a9 3d
       -0.060492985 0.057498712 -0.14835502 0.082913026
000290 9c f6 5c bd 6d 1a f5 bd 0b 30 f3 3d c7 0d d7 3d
       -0.053946123 -0.11967931 0.11874398 0.10500675
0002a0 89 5d 22 be dc 8d f2 bd 23 a1 9b 3d 90 f2 de 3d
       -0.15855993 -0.11843464 0.07599094 0.10886109
0002b0 5b 0f d9 3d 1c 64 45 be 57 ca 04 be 5b dd 56 be
       0.10598632 -0.1927647 -0.12967812 -0.20982878
0002c0 4d f2 34 bd 54 4f 92 be 35 f5 5c 3d a0 8d de 3c
       -0.04417639 -0.28576148 0.053944785 0.027167141
0002d0 28 f1 0b be 54 d6 60 bd 19 a0 44 be 4c 15 b8 bd
       -0.13666213 -0.0548919 -0.19201697 -0.08988437
0002e0 8d 16 68 3d eb 2d df bd 09 d4 cb bd 89 fc 2b 3c
       0.05666213 -0.1089743 -0.09952552 0.010497221
0002f0 e2 70 da 3d b1 ba 62 be 0d 82 05 3d 24 68 ec bd
       0.10666062 -0.2214153 0.03259473 -0.11543301
000300 1a fe 4f bd 9b 77 0f 3e d2 ac 4e bd 73 b8 2e be
       -0.05077944 0.1401047 -0.050457783 -0.1706255
000310 ea bc c8 bd 45 6b 08 3e 42 31 aa bd 81 bc bc bd
       -0.098016575 0.1332217 -0.083101764 -0.09215642
000320 38 36 7e bd f9 03 76 be 8e 94 0d 3e e5 9c 2e 3e
       -0.062063426 -0.24024953 0.138262 0.17052038
000330 6c 3f 30 bd 54 22 11 be d1 65 bf 3c fc 16 57 bd
       -0.043029234 -0.14173251 0.02336398 -0.052512154
000340 16 d7 06 be f7 1b 31 be 7e e0 f6 3d 1b 05 56 3b
       -0.13167986 -0.17295824 0.12054537 0.0032656852
000350 bf fd f1 bd 37 0b 0b 3d 94 5c 1c bb e6 67 1b 3e
       -0.11815976 0.033946242 -0.0023858892 0.15176353
000360 c1 2a 24 3e f2 9e 16 be fa e3 9e 3d 98 a6 73 bb
       0.16031934 -0.1470907 0.07758327 -0.0037178155
000370 dc 9f a2 3d 69 e0 71 3b 65 80 bb bc f1 d9 f0 bc
       0.07940647 0.003690744 -0.022888372 -0.029400798
000380 6a 5c 42 3d 5b 6b ee 3d 3f 0e cb 3b bc 77 99 bc
       0.047451414 0.1164157 0.0061967666 -0.018733852
000390 8c 7c aa be 0c b1 4b 3d 00 45 9b 3d 7e 9c 29 be
       -0.33298147 0.049729392 0.0758152 -0.16563603
0003a0 48 be 00 3e ad ce ba bd 22 cf 23 be fb a5 f6 3d
       0.12572587 -0.091214515 -0.15996984 0.12043377
0003b0 34 0d 2a 3d d5 6d 6a be 10 9d 7d bd 1f 4f f3 bc
       0.041516498 -0.2289346 -0.061917365 -0.029700814
0003c0 8a b6 13 be a4 58 ac be 2a 26 10 3d eb 74 1c 3e
       -0.14425102 -0.33661377 0.035192646 0.15278976
0003d0 7c 32 f1 3d ad 2b 05 3e cc e6 c0 bd aa 69 02 3e
       0.11777207 0.13004942 -0.09419021 0.1273562
0003e0 08 35 c1 3d 76 0c 0a be b3 4e ef bd 1c c3 fa 3d
       0.09433943 -0.13481316 -0.116849326 0.122442454
0003f0 4e 44 89 3d 76 a3 80 be fd 19 52 3d 6d 48 28 be
       0.06702481 -0.2512471 0.051294316 -0.16433878

shared_layers.4.bias f4 [8]
000000 ff 71 7f bd 17 c6 9b bd 8c 93 af bd cb 58 9d bd
       -0.062364575 -0.07606142 -0.08573064 -0.076829515
000010 2a c4 7f 3c 1d b0 ed bd ce 3b dd bd 72 b6 b6 bd
       0.015610734 -0.116058566 -0.108024225 -0.089215174
