training/models/controller_controller_acc0.819_lat0.006_succ5_small7_large10_carb15_cap610_rate0.000269_best_model.pth (torch, 18457 bytes, 6 tensors)

shared_layers.0.weight f4 [64, 3]
0	0x3e653554	0.22383624
1	0x3be2d4c9	0.0069223386
2	0x3f124e04	0.5715029
3	0xbe99e0c3	-0.30054292
4	0xbd5a6d18	-0.053326696
5	0x3f0d6898	0.5523772
6	0x3dec1ae8	0.115285695
7	0xbf015f16	-0.50535715
8	0xbe077cf3	-0.13231258
9	0x3f1b9715	0.6077741
10	0x3f1cfef4	0.6132653
11	0x3e8e8adf	0.27840325
12	0x3e7c9572	0.24666384
13	0x3f0b36ee	0.5438069
14	0x3d02ec69	0.03196374
15	0xbe785e5d	-0.24254747
16	0x3e20a6fb	0.15688698
17	0x3f16ac3c	0.5885656
18	0x3e2257d6	0.15853819
19	0x3e1b7b8e	0.15183851
20	0xbf0da6d4	-0.55332685
21	0x3e60d599	0.21956481
22	0xbea83406	-0.3285219
23	0x3f026d26	0.509478
24	0x3d8f85a2	0.0700791
25	0x3ccb0f76	0.024787646
26	0xbf02d0f1	-0.5110007
27	0xbd0cbfff	-0.03436279
28	0xbe06ee73	-0.13176899
29	0xbd4247e9	-0.04743186
30	0xbeac432b	-0.33644995
31	0xbed012f3	-0.40639457
32	0x3efe9806	0.4972536
33	0x3ed88e60	0.42296124
34	0x3e2fb600	0.17159271
35	0xbdd2b53c	-0.10288474
36	0xbe05fcbf	-0.13084696
37	0x3e7e4ae2	0.24833253
38	0xbd122880	-0.035683155
39	0xbe3755fc	-0.17903894
40	0xbeb8c3fb	-0.3608702
41	0xbed062dd	-0.40700427
42	0xbde7de4d	-0.113216974
43	0x3f1d4427	0.6143212
44	0xbeca4e31	-0.3951278
45	0x3f223022	0.63354695
46	0xbe6597d1	-0.22421195
47	0x3d4601e4	0.048341647
48	0x3eeef993	0.46674785
49	0xbe98a492	-0.29813057
50	0x3f0a3161	0.53981596
51	0x3f0d325a	0.55154955
52	0x3f14e492	0.5816127
53	0xbeb866be	-0.36015886
54	0x3e52f19f	0.20599984
55	0x3d7cffe8	0.06176749
56	0x3f1caf62	0.6120511
57	0x3eba3c0d	0.3637394
58	0x3d45bb78	0.048274487
59	0xbe4396d9	-0.19100513
60	0xbe883768	-0.26604772
61	0x3e58d7b0	0.21176028
62	0x3d9a23c3	0.07526352
63	0xbe13e290	-0.14441895
64	0x3f20c609	0.6280218
65	0x3e13edf3	0.14446239
66	0x3f0ee1f1	0.5581351
67	0xbe1caaed	-0.15299578
68	0x3eabc5af	0.33549258
69	0xbea9f473	-0.33194312
70	0x3f091119	0.53541714
71	0xbf138b2e	-0.57634246
72	0x3cc9a215	0.02461342
73	0x3e9004a7	0.2812855
74	0x3da8cd81	0.08242322
75	0xbe3b1e03	-0.18273167
76	0x3f130978	0.57436323
77	0x3ebd8dbd	0.370222
78	0xbef1f8e8	-0.47260213
79	0x3f08daee	0.5345906
80	0xbe8c006d	-0.27344075
81	0x3e1518e1	0.14560272
82	0xbf12e633	-0.57382506
83	0xbe5859ae	-0.2112796
84	0xbe83ce3a	-0.25743276
85	0xbee5a698	-0.44853663
86	0xbdee3ccb	-0.11632689
87	0xbe478484	-0.19484144
88	0xbef942b8	-0.48683715
89	0x3e8f13a2	0.27944666
90	0x3e82225e	0.25416845
91	0xbea1b1b6	-0.31580895
92	0x3e0fd42b	0.1404578
93	0x3f1a4db4	0.60274816
94	0xbe8f8c44	-0.28036702
95	0x3f141955	0.57851154
96	0xbeb258a5	-0.34833255
97	0xbdd493b9	-0.10379738
98	0x3d3ccbf0	0.046092927
99	0x3efd69e5	0.49494854
100	0xbe471da8	-0.19444907
101	0xbe61d785	-0.2205487
102	0xbe2810af	-0.16412614
103	0x3ee0712d	0.43836346
104	0xbee290ae	-0.44251007
105	0x3ea82b2e	0.32845443
106	0x3ebcec85	0.368992
107	0xbe235789	-0.15951361
108	0x3ec75d3d	0.38938323
109	0x3f266ec5	0.6501277
110	0xbdbbafe3	-0.09164407
111	0xbea4ffbd	-0.32226363
112	0xbcaa37f2	-0.02077863
113	0xbdb6d498	-0.08927268
114	0x3d4f0978	0.05054614
115	0x3f2130e0	0.629652
116	0x3e794569	0.24342884
117	0x3e732375	0.23743995
118	0x3f235b0d	0.6381081
119	0xbe83cb29	-0.25740936
120	0xbf0bf8ae	-0.5467633
121	0xbe601061	-0.21881248
122	0x3ed974ba	0.42471868
123	0x3e778e55	0.24175389
124	0xbb9a8776	-0.0047158552
125	0xbd6d3e5c	-0.0579208
126	0x3f164284	0.58695245
127	0x3e8aec0a	0.2713321
128	0x3f1f0179	0.6211162
129	0xbe849328	-0.2589352
130	0xbd4899b8	-0.048974723
131	0xbe1c1088	-0.15240681
132	0x3e8868ec	0.2664255
133	0xbdd68675	-0.104748644
134	0x3edb1ca3	0.42795286
135	0x3eb2fe09	0.34959438
136	0xbe85a164	-0.26099694
137	0x3d56942a	0.052387394
138	0xbedf061d	-0.43559352
139	0x3ed3fab2	0.41402203
140	0x3d512de3	0.05106915
141	0x3ee29828	0.4425671
142	0x3e8bb5b8	0.27287078
143	0x3b5528c4	0.003252552
144	0x3e9106ec	0.28325593
145	0x3f15dca1	0.5853978
146	0x3e982958	0.29719043
147	0x3e912bd0	0.2835374
148	0x3dd10ea9	0.10207874
149	0xbed9a6e6	-0.42510146
150	0xbe00d818	-0.12582433
151	0xbe901d9c	-0.2814759
152	0xbba3f719	-0.0050038216
153	0x3f031c77	0.5121531
154	0x3efb57cc	0.4909042
155	0xbe66e635	-0.22548755
156	0x3d3f97e3	0.04677571
157	0x3ea9d028	0.33166623
158	0xbefa334b	-0.48867258
159	0x3e02ea05	0.12784584
160	0x3ed0f950	0.4081521
161	0xbef052a1	-0.4693804
162	0x3edf722c	0.43641794
163	0xbeb4cd46	-0.3531286
164	0x3ec2386a	0.37933666
165	0xbed4f85c	-0.41595733
166	0x3e5cbe24	0.21556908
167	0xbea122ad	-0.31471768
168	0xbef5a536	-0.47977608
169	0x3efcad76	0.4935109
170	0x3dbf3bcc	0.09337577
171	0x3ef2a1f9	0.473892
172	0x3dec9c81	0.11553288
173	0x3d09f435	0.03368016
174	0x3d173d03	0.03692342
175	0x3d9f6513	0.0778295
176	0xbe35f1bd	-0.17767997
177	0xbe0df2bf	-0.13862132
178	0xbe2442b3	-0.16041069
179	0x3eec77be	0.46185106
180	0x3ebffac7	0.37496015
181	0xbd58dff3	-0.05294795
182	0xbddcd324	-0.107824594
183	0xbeb3566a	-0.35026866
184	0xbed9a196	-0.42506093
185	0xbe3043bb	-0.17213337
186	0xbee53a9f	-0.44771287
187	0x3f28f5c3	0.66
188	0x3ec37aa2	0.381795
189	0x3f1be913	0.6090252
190	0x3f14f639	0.58188206
191	0xbe843c5e	-0.25827307

shared_layers.0.bias f4 [64]
0	0x3f116a89	0.56803185
1	0x3e7a67fa	0.24453726
2	0x3cb0371e	0.021510657
3	0x3eaca743	0.3372136
4	0x3ec5de5c	0.3864621
5	0x3ecc21d6	0.39869565
6	0xbe8a1a2e	-0.269731
7	0x3f05b4d7	0.52229065
8	0xbea78e9e	-0.32725996
9	0xbeec6fb5	-0.46178976
10	0x3e9f1969	0.31074074
11	0x3efceab1	0.49397805
12	0x3ee43d7c	0.4457816
13	0x3f18b017	0.5964369
14	0x3e852355	0.2600352
15	0x3e98b49b	0.2982529
16	0xbec735b1	-0.3890815
17	0x3ec5b3a0	0.38613605
18	0x3f09f5f7	0.5389094
19	0xbe188c75	-0.1489733
20	0xbeacbf88	-0.33739877
21	0x3ec56e51	0.38560727
22	0x3ed28850	0.41119623
23	0xbe916793	-0.28399333
24	0x3d5f79ba	0.054559447
25	0xbe99905b	-0.29992947
26	0x3da6ab06	0.08138089
27	0xbec774c2	-0.38956267
28	0x3e1df434	0.15425187
29	0xbf0718a9	-0.52772003
30	0x3e01cffe	0.12676999
31	0x3efd8f7d	0.49523535
32	0x3efbedd1	0.49204877
33	0x3e5a50b3	0.21319847
34	0xbe87c711	-0.26519063
35	0xbe1b73ea	-0.15180936
36	0x3efa27c5	0.48858467
37	0xbed6ad04	-0.41928875
38	0x3d19ac83	0.037518036
39	0xbee38cfd	-0.44443503
40	0x3e471262	0.19440606
41	0xbec670ea	-0.38758022
42	0x3b289dca	0.0025728815
43	0xbda3e2ff	-0.080022804
44	0xbef4cbfb	-0.47811875
45	0x3bb1a886	0.005421701
46	0xbf100e66	-0.5627197
47	0x3f104c9e	0.5636691
48	0x3e01e106	0.12683496
49	0x3ea6e346	0.3259527
50	0xbe93a298	-0.28834987
51	0x3d2a87b7	0.041633334
52	0x3cb2ce0b	0.021826765
53	0x3e8c698c	0.27424276
54	0xbcf4d183	-0.02988506
55	0x3e6029d2	0.21890953
56	0x3f004c50	0.50116444
57	0x3f0e7cc0	0.55659103
58	0x3f159504	0.58430505
59	0x3f1d4276	0.61429536
60	0xbf082e4a	-0.5319563
61	0xbe734b77	-0.23759256
62	0x3f1c0a0d	0.60952836
63	0x3e915139	0.2838228

shared_layers.2.weight f4 [32, 64]
0	0x3cc9afd8	0.024619982
1	0xbd777f30	-0.06042403
2	0x3d9cea44	0.0766187
3	0xbdabbdf4	-0.0838584
4	0x3dbc8094	0.09204212
5	0xbd8accbe	-0.06777333
6	0xbb10a000	-0.0022068024
7	0xbdcae0d0	-0.09906161
8	0xbcff1bd0	-0.031141192
9	0xbd035ff4	-0.03207393
10	0xbdf295c4	-0.11844972
11	0x3dbedc74	0.09319392
12	0xbdbae2ca	-0.09125288
13	0xbc49b7c0	-0.012311876
14	0xbdaa9634	-0.0832943
15	0xbd5c13d8	-0.053729862
16	0x3dbd202c	0.09234652
17	0xbdbc1c18	-0.09185046
18	0xbdf2e9c6	-0.11860995
19	0xbdef1606	-0.116741225
20	0x3d8d08d6	0.06886451
21	0x3b96f220	0.0046065003
22	0x3df42ee2	0.11923005
23	0x3dc4f706	0.096174285
24	0xbbd82500	-0.0065962076
25	0x3dcd44d6	0.10022895
26	0x3dbc29b2	0.0918764
27	0xbda27968	-0.07933313
28	0xbcc04d80	-0.023474455
29	0x3c388750	0.01126273
30	0x3dd6581a	0.10466023
31	0xbcf0a548	-0.029375687
32	0x3d3f84d4	0.046757534
33	0xbdfb52a4	-0.12271622
34	0x3b8ebb80	0.004355848
35	0x3de08502	0.10962869
36	0x3df81a28	0.12114364
37	0xbde2e5c2	-0.11078979
38	0xbd259e88	-0.04043439
39	0xbd824834	-0.06361428
40	0x3d1d874c	0.038459107
41	0xbaf7f600	-0.0018917918
42	0x3d56c6b0	0.052435577
43	0x3d889edc	0.06670925
44	0x3da8a61e	0.08234809
45	0xbdcb6e46	-0.09933142
46	0xbde5d546	-0.11222319
47	0xbc6ea240	-0.014565051
48	0xbd44c894	-0.04804285
49	0xbc911d20	-0.017714083
50	0x3d4d6088	0.050140887
51	0x3dc50d34	0.09621659
52	0x3db358d6	0.087571785
53	0x3da7208e	0.08160506
54	0x3dd6a242	0.10480167
55	0x3b1ae000	0.002363205
56	0x3d786074	0.06063886
57	0xbdda74da	-0.10666819
58	0x3ccda990	0.025105268
59	0x3d96cfba	0.073638394
60	0xbc8ba6b8	-0.017047271
61	0x3dceb562	0.1009319
62	0xbdb3ab0e	-0.087728605
63	0xbdfd81f8	-0.12378305
64	0x3d9dbf05	0.0770245
65	0xbdb500b2	-0.08838023
66	0x3dd24ece	0.10268937
67	0x3d550902	0.052010544
68	0xbdde22fe	-0.10846518
69	0x3af5da8b	0.0018757147
70	0x3c2309f0	0.0099511
71	0xbd154d91	-0.036450926
72	0xbdc843e0	-0.09778571
73	0xbd578680	-0.052618504
74	0x3dfec3a0	0.12439656
75	0xbdba1677	-0.09086316
76	0xbd090f20	-0.03346169
77	0xbcc06af8	-0.023488507
78	0x3d6de09c	0.058075532
79	0xbc40422a	-0.011734525
80	0x3df70fe2	0.12063576
81	0xbdd007d7	-0.10157745
82	0x3ddfac88	0.109215796
83	0x3db0ba9a	0.086293414
84	0xbdd91b50	-0.106009126
85	0xbd1295aa	-0.035787262
86	0xbd5d8dbf	-0.054090258
87	0x3d6a4214	0.057191923
88	0x3dcc7d66	0.09984855
89	0x3d313a94	0.043268755
90	0x3d4e2cd6	0.050335728
91	0x3d896588	0.06708819
92	0xbb8600c0	-0.004089445
93	0xbcaaec00	-0.020864487
94	0xbd8c2c7a	-0.06844421
95	0xbd3d5a07	-0.046228435
96	0xbdace31a	-0.08441754
97	0xbda59faf	-0.08087098
98	0xbc44c4e0	-0.012009829
99	0xbda64dea	-0.0812033
100	0x3de48b9f	0.11159443
101	0x3d606b14	0.054789618
102	0x3dd4be54	0.10387865
103	0xbdc684f7	-0.0969333
104	0x3dc760f4	0.09735289
105	0xbc0d4230	-0.008621737
106	0x3d56a23b	0.05240081
107	0x3d8f0d44	0.06984952
108	0xbd2ec7f0	-0.042671144
109	0xbd904344	-0.0704408
110	0xbd6d5e08	-0.057951003
111	0xbcf063c7	-0.029344453
112	0x3cd98ed5	0.026557365
113	0xbdf55e14	-0.119808346
114	0xbb715c80	-0.0036828816
115	0x3cf2eac5	0.029652962
116	0x3dca86ea	0.09889014
117	0xbc008b23	-0.007845673
118	0xbdccbc30	-0.099968314
119	0x3dd56de2	0.10421349
120	0x3dd5b898	0.10435599
121	0x3db1e52d	0.0868629
122	0xbb66a39e	-0.0035192738
123	0xbd34dd3f	-0.04415631
124	0xbd7b1108	-0.06129554
125	0x3d225a94	0.039637163
126	0x3d0c374e	0.03423243
127	0x3bf561eb	0.0074884794
128	0x3c16ee07	0.009212024
129	0x3dfccba6	0.1234353
130	0xbdcd7b3a	-0.10033269
131	0x3c6fee58	0.014644228
132	0x3e3b6f51	0.18304183
133	0x3dd5c100	0.104372025
134	0x3d1b91c0	0.037980795
135	0x3a3b52cc	0.00071458216
136	0xbd49cf58	-0.049270004
137	0x3daad514	0.08341423
138	0x3dc6bcd6	0.09703986
139	0x3dc08084	0.093995124
140	0xbc884ee7	-0.016639186
141	0x3d2fa280	0.04287958
142	0x3ddd28cc	0.10798797
143	0x3d81c450	0.06336272
144	0xbdbd6e94	-0.09249607
145	0x3e0924e7	0.13392983
146	0x3e070137	0.13184057
147	0xbce17a1f	-0.027524052
148	0x3dbcdf62	0.092222944
149	0x3ce9c865	0.028537938
150	0x3d8c166a	0.06840213
151	0xbd85cd42	-0.065332904
152	0x3e2acd6d	0.16679926
153	0x3d6421fc	0.055696473
154	0x3cf5e9c1	0.03001869
155	0xbdf98d4c	-0.12185153
156	0xbd485970	-0.04891342
157	0x3daf3d2a	0.08556588
158	0x3e18ed2e	0.14934227
159	0x3de8add7	0.11361282
160	0xbcf3a54c	-0.029741906
161	0x3e1133d5	0.14179929
162	0x3da194f2	0.07889737
163	0xbc13d12c	-0.009022038
164	0xbb47df64	-0.0030498141
165	0xbd85f842	-0.06541492
166	0x3df82ea1	0.12118269
167	0xbbc6f54e	-0.006071723
168	0x3c289fb0	0.010291979
169	0xbde7dbba	-0.113212064
170	0x3e35c8a4	0.1775232
171	0x3d31abcc	0.04337673
172	0x3d6c8174	0.057740644
173	0x3dd77788	0.10520846
174	0x3da9fcb2	0.08300151
175	0x3d2107bb	0.039314013
176	0x3e355674	0.1770876
177	0x3d6f4996	0.058419786
178	0xbd886ec8	-0.06661755
179	0xbce054c5	-0.027384171
180	0x3ca496dc	0.020091467
181	0x3dd0e4ba	0.10199876
182	0x3e3fb3fc	0.18721002
183	0x379fa000	1.9028783e-05
184	0x3d9b99b7	0.07597678
185	0x3e3aa00c	0.18225116
186	0x3e39bd29	0.18138565
187	0x3c67efcf	0.014156296
188	0x3d4bf738	0.049796313
189	0x3db2346c	0.08701405
190	0x3db26a11	0.08711637
191	0x3dc170ad	0.09445319
192	0xbc972611	-0.018450769
193	0x3dc183ca	0.09448965
194	0xbd837cc4	-0.064202815
195	0xbbfcbaf4	-0.0077127162
196	0xbcccdca5	-0.025007555
197	0x3dc3ae7c	0.09554765
198	0xbd9b0ce4	-0.07570818
199	0x3d34e925	0.044167656
200	0xbb8b51c0	-0.0042516887
201	0xbd1bf570	-0.038075864
202	0x3d8166a2	0.06318404
203	0x3dcb9d2b	0.09942087
204	0xbdedcf0c	-0.11611757
205	0xbdb94990	-0.09047234
206	0xbe0b20e3	-0.13586764
207	0xbdda0be1	-0.10646797
208	0x3b14d140	0.002270773
209	0xbc905b40	-0.017621636
210	0x3db12aaf	0.086507194
211	0xbe132c31	-0.14372326
212	0xbd5fd64c	-0.05464773
213	0x3cd5e354	0.026109375
214	0x3d5713d2	0.052509136
215	0x3dea2390	0.11432564
216	0xbe0fbb8d	-0.14036389
217	0xbbcf5440	-0.006327182
218	0xbe060316	-0.13087115
219	0xbdb1c2e2	-0.08679749
220	0x3c4b5900	0.012411356
221	0xbdc72494	-0.097237736
222	0xbbcab3d8	-0.00618599
223	0x3dd43768	0.103621304
224	0xbcea4be9	-0.02860065
225	0x3d1f2e51	0.03886253
226	0xbbbd4f20	-0.0057772547
227	0xbdc40ae8	-0.09572393
228	0x3d4578f5	0.048211057
229	0x3cf0e228	0.029404715
230	0xbc72b35b	-0.0148132695
231	0xbdf3c6cb	-0.11903151
232	0xbd910a06	-0.0708199
233	0x3d0e923c	0.03480743
234	0xbdf34ff4	-0.11880484
235	0x3dced842	0.10099842
236	0xbd2987f0	-0.041389406
237	0x3d12f271	0.03587574
238	0x3d7b5818	0.06136331
239	0xbcc30e95	-0.023810664
240	0x3d1410f5	0.036148984
241	0xbd012f95	-0.03153952
242	0x3dd67b52	0.1047274
243	0x3d9d025c	0.07666466
244	0x3d314e38	0.043287486
245	0xbe00a7af	-0.12563966
246	0xbd99fbc9	-0.07518727
247	0x3c0ea030	0.008705184
248	0x3d8878de	0.066636786
249	0xbdba4591	-0.090953
250	0x3dd8159e	0.10550998
251	0x3cb3b185	0.021935234
252	0x3d31f64c	0.043447778
253	0xbd1ebb5c	-0.0387529
254	0x3b0c6243	0.0021420873
255	0xbe021c51	-0.12706114

shared_layers.2.bias f4 [32]
0	0xbd7bf71c	-0.06151496
1	0xbdfd40e3	-0.12365892
2	0x3cebf31b	0.028802445
3	0xbd2e718e	-0.042588763
4	0xbd1cb91c	-0.03826247
5	0xbda664ba	-0.08124681
6	0x3d695b84	0.05697204
7	0x3d8e9eb5	0.06963865
8	0xbd55586c	-0.05208628
9	0x3da69a3e	0.08134888
10	0xbd50ee5d	-0.05100857
11	0x3bfc5560	0.007700607
12	0x3d4adfa3	0.049529683
13	0xbce86e60	-0.028372943
14	0xbcf79548	-0.03022255
15	0xbc75749f	-0.014981418
16	0xbde27592	-0.11057581
17	0x3db3057a	0.08741279
18	0x3d9b1de7	0.07574063
19	0xbdeefac8	-0.116689265
20	0x3d8134fb	0.06308933
21	0x3e061941	0.13095571
22	0x3e15c8d5	0.14627393
23	0xbd287340	-0.041125536
24	0xbdf5d2be	-0.120030865
25	0x3dbfc22f	0.093632095
26	0xbdebe618	-0.11518496
27	0xbc88f106	-0.016716491
28	0x3d9b28aa	0.075761154
29	0xbd38f6d4	-0.04515727
30	0xbd7f4d44	-0.062329546
31	0xbd732f9c	-0.059371576

shared_layers.4.weight f4 [8, 32]
0	0xbe074064	-0.13208157
1	0xbd3b76c2	-0.045767553
2	0xbdf39da3	-0.11895301
3	0xbdbebf68	-0.093138516
4	0xbdbed5a7	-0.09318095
5	0xba600bdf	-0.0008546691
6	0x3e115ddf	0.14195965
7	0xbe201b89	-0.15635504
8	0xbcff8c2c	-0.031194769
9	0xbcb91e79	-0.022597538
10	0x3862def0	5.4090226e-05
11	0x3d868d50	0.06569922
12	0xbe495b52	-0.19663742
13	0xbdc2edf9	-0.09518046
14	0x3e0c2a7a	0.13688079
15	0xbd636d85	-0.055524368
16	0xbde5fd42	-0.11229946
17	0xbcdbdf7f	-0.02683997
18	0xbda1d9d6	-0.07902877
19	0xbdbb8619	-0.091564365
20	0xbe2ef9f2	-0.17087534
21	0xbe846c7b	-0.25864014
22	0x3a89755c	0.0010487246
23	0xbdee43c5	-0.1163402
24	0xbc98c27f	-0.01864743
25	0xbe37d225	-0.17951258
26	0x3bed3873	0.0072393953
27	0xbd92db3f	-0.07170724
28	0x3d9c0ff9	0.07620234
29	0xbe0d6fc7	-0.13812171
30	0x3d4f17c0	0.05055976
31	0x3e12cab0	0.14335132
32	0x3ddadafa	0.10686298
33	0xbcd5ce71	-0.026099415
34	0x3e5fc3b1	0.21851994
35	0xbdb2f360	-0.08737826
36	0x3e1753d0	0.14778066
37	0xbc9c8bfb	-0.019109717
38	0xbe05ed28	-0.13078749
39	0x3d122c5e	0.035686843
40	0xbd9dfaca	-0.0771385
41	0x3d84a1dd	0.064761855
42	0x3e06a037	0.13147055
43	0xbdb6bb77	-0.08922475
44	0x3e4a0aac	0.19730633
45	0x3e0acd1d	0.13554807
46	0xbe324f2e	-0.17413017
47	0x3e015c2a	0.12632814
48	0x3b8a4186	0.004219237
49	0x3c94ad7e	0.018149134
50	0x3c876692	0.016528402
51	0x3b30e8c6	0.0026994213
52	0x3e4284ad	0.18995924
53	0x3dd63e82	0.10461141
54	0x3e5e81fa	0.2172927
55	0x3de962e3	0.11395814
56	0xbd16d473	-0.0368237
57	0x3e2f8495	0.1714042
58	0xbe08b53a	-0.13350382
59	0xbdc1cde5	-0.094630994
60	0x3e2c35dc	0.1681742
61	0x3de41f4c	0.11138782
62	0x3dcfd7c0	0.10148573
63	0xbde55d9e	-0.11199497
64	0x3c0db5f0	0.008649334
65	0x3d2fbb07	0.042902973
66	0xbe2b97f4	-0.16757184
67	0xbd8960ba	-0.06707902
68	0x3e227d10	0.1586802
69	0x3ba23978	0.0049506985
70	0xbd02c313	-0.03192432
71	0xbe771171	-0.24127747
72	0xbd6fd92f	-0.05855673
73	0x3db0af38	0.0862717
74	0xbe66c2d1	-0.22535254
75	0xbd26b672	-0.040701337
76	0x3dafcb6b	0.08583721
77	0x3cff86ef	0.031192271
78	0x3c82e559	0.015978502
79	0xbd8a700a	-0.06759651
80	0xbe205a24	-0.15659386
81	0x3def40a9	0.11682255
82	0xbe4f3542	-0.2023516
83	0x3e05eee8	0.13079417
84	0xbe3a0a37	-0.18167959
85	0xbd95ed83	-0.073206924
86	0xbd5d5547	-0.054036405
87	0xbe12f8dd	-0.14352746
88	0xbe0a58db	-0.13510458
89	0x3dbe0896	0.092789814
90	0xbc49ae5f	-0.01230964
91	0x3d69c8a7	0.057076123
92	0xbe0a2a34	-0.13492662
93	0x3da1f992	0.0790893
94	0xbdeb17a6	-0.1147912
95	0x3e094472	0.13405016
96	0xbc3f9fcc	-0.011695813
97	0x3db0922a	0.086216286
98	0xbd9ff7fe	-0.07810973
99	0xbe1c4c64	-0.15263516
100	0xbdc2e2f8	-0.09515947
101	0xbc19fa37	-0.009398035
102	0xbc982754	-0.01857344
103	0x3db1b612	0.08677305
104	0x3dabf5ea	0.08396514
105	0x3df8a9a7	0.121417336
106	0xbe85299e	-0.26008314
107	0x3d9f51c6	0.07779269
108	0x3d42a313	0.0475188
109	0x3e325bd4	0.17417842
110	0x3d9967b7	0.07490485
111	0xbe118729	-0.14211716
112	0x3e049376	0.12946877
113	0x3dd45498	0.103676975
114	0xbe67e14c	-0.22644538
115	0xbb4f0ed8	-0.003159454
116	0x3cbd8cb5	0.023138383
117	0xbe2bf748	-0.16793549
118	0xbe0563de	-0.13026378
119	0x3e0d2ec2	0.13787368
120	0xbd2ee030	-0.04269427
121	0xbe38733b	-0.18012707
122	0xbd8380f2	-0.06421079
123	0xbd41a76e	-0.047278814
124	0x3cb51372	0.022103999
125	0xbde9d261	-0.1141708
126	0xbe2b34f1	-0.16719414
127	0x3d81406e	0.06311117
128	0x3c99e4ad	0.018785799
129	0xbe120fd0	-0.14263844
130	0xbdef65fa	-0.11689372
131	0xbe2ceb60	-0.16886663
132	0x3e135de1	0.1439128
133	0xbd2db604	-0.04240991
134	0xbc355ce5	-0.011069511
135	0xbe772a6a	-0.24137273
136	0xbd9f7be8	-0.07787305
137	0xbc5db6be	-0.013532339
138	0xbd080566	-0.033208273
139	0x3e2b33b0	0.16718936
140	0x3d23739f	0.039905187
141	0x3d9da2a6	0.07697038
142	0xbdde7171	-0.10861481
143	0xbe3f890d	-0.18704624
144	0x3d807345	0.06271986
145	0xbc94f9c9	-0.018185513
146	0xbe45a561	-0.19301368
147	0xbd6189eb	-0.05506317
148	0xbdaef656	-0.085430786
149	0xbdc3911a	-0.0954916
150	0xbe801e89	-0.25023296
151	0xbe12802a	-0.14306703
152	0xbe1dab86	-0.15397462
153	0xbe008c55	-0.12553532
154	0xbe059f14	-0.13048965
155	0xbe385bfa	-0.18003836
156	0x3e14ddda	0.14537755
157	0xbd9b5500	-0.07584572
158	0x3dad6fb8	0.08468574
159	0x3d75b9f1	0.05999178
160	0x3c1a3e42	0.0094142575
161	0x3d021ddc	0.031766757
162	0xbe073a9b	-0.1320595
163	0x3d35dcee	0.044400148
164	0x3dda6a2b	0.10664781
165	0x3def61a5	0.11688546
166	0xbdf5c081	-0.11999608
167	0xbdfecc00	-0.12441254
168	0x3d8e28f7	0.06941407
169	0x3df9bd90	0.12194359
170	0xbd80c576	-0.06287663
171	0x3e14004e	0.14453241
172	0xbe805619	-0.25065687
173	0x3d4f364a	0.050588883
174	0xbe1b6f5e	-0.15179202
175	0xbe5b1344	-0.21394068
176	0xbc5c276a	-0.013437131
177	0xbdd0c449	-0.101936884
178	0xbe81e433	-0.25369415
179	0xbdd49016	-0.10379045
180	0xbdbb2062	-0.09137036
181	0x3d80bd6d	0.0628613
182	0xbe1215bb	-0.14266102
183	0x3dadcecb	0.08486708
184	0xbc814ef0	-0.01578471
185	0xbe405419	-0.1878208
186	0x3cc7fee8	0.024413541
187	0xbddb7ef7	-0.10717576
188	0x3e1ade4b	0.1512386
189	0x3d9e902f	0.077423446
190	0xbe0928a5	-0.13394411
191	0xbbc24359	-0.0059284386
192	0xbe0663e2	-0.1312404
193	0x3e2390c3	0.15973191
194	0xbdd1b7c3	-0.10240128
195	0xbd803559	-0.06260175
196	0x3cb9c2c9	0.022675889
197	0x3a9dd8fb	0.0012042815
198	0x3dc84a42	0.097797886
199	0xbd993fc3	-0.07482865
200	0xbc37ad2e	-0.011210723
201	0xbdb4591d	-0.088060595
202	0xbda1e970	-0.07905853
203	0x3e1e29f3	0.1544569
204	0xbd0b0f84	-0.033950344
205	0x3e1a367c	0.15059847
206	0xbb2bc09b	-0.002620733
207	0xbd97e667	-0.07416993
208	0xbd06b193	-0.03288419
209	0x3c5de720	0.013543874
210	0xbe008054	-0.12548953
211	0x3cdc381f	0.02688223
212	0x3c507a4e	0.012724472
213	0xbe5e5b0e	-0.21714422
214	0xbe26f215	-0.16303284
215	0xbd057d4d	-0.0325902
216	0x3d8481d3	0.064700745
217	0xbd63fb0b	-0.055659335
218	0xbd7a590b	-0.061120074
219	0xbe3c8ad5	-0.18412335
220	0x3e0209be	0.12699029
221	0xbd931eac	-0.071835846
222	0xbdfc5826	-0.123215005
223	0xbe0405e8	-0.12892878
224	0x3ccb6089	0.024826305
225	0x3d81946e	0.06327139
226	0x3b8c232e	0.0042766547
227	0xbbdd896d	-0.006760767
228	0xb9cec32f	-0.00039436805
229	0x3c259791	0.010106937
230	0x3d000e99	0.03126392
231	0xbe0b6ade	-0.13614985
232	0x3d370b9a	0.0446888
233	0x3de9e21f	0.11420082
234	0xbe531a61	-0.20615532
235	0x3e108ee3	0.14117007
236	0x3c9a8ec7	0.01886691
237	0xbcb573b3	-0.022149896
238	0x3e2a8b6f	0.16654752
239	0xbe5f8af9	-0.21830358
240	0xbd1e20a6	-0.038605355
241	0x3d459ec5	0.048247118
242	0xbdc33c1d	-0.0953295
243	0xbdcbc810	-0.09950268
244	0xbe5b366c	-0.21407479
245	0xbe1a9b16	-0.15098223
246	0xbe865b6f	-0.26241633
247	0x3e24c459	0.16090526
248	0xbe11de2a	-0.14244905
249	0xbe45e9d4	-0.1932748
250	0x3e32e9b4	0.17471963
251	0x3de7879b	0.113051616
252	0xbd93a41e	-0.07209037
253	0x3dd52a9a	0.10408516
254	0xbc4c49f8	-0.012468807
255	0x3cf0cd86	0.029394876

shared_layers.4.bias f4 [8]
0	0x3de0e4a9	0.109811135
1	0x3da87d5d	0.08227036
2	0x3d10f0d6	0.03538593
3	0xbbdb1780	-0.006686151
4	0x3d4c36da	0.049856998
5	0x3d6a3db0	0.057187736
6	0xbd9db8a9	-0.07701237
7	0x3d005f3a	0.031340815
