training/models/controller_controller_acc0.95_lat0.012_succ20_small5_large8_carb7_cap105_rate0.001598_best_model.pth (torch, 18433 bytes, 6 tensors)

shared_layers.0.weight f4 [64, 3]
0	0x3e97a7ea	0.29620296
1	0x3e555017	0.20831333
2	0xbef1fca2	-0.47263056
3	0xbed614b9	-0.41812685
4	0xbed9fb7c	-0.4257468
5	0xbe69772c	-0.22799367
6	0xbf092c11	-0.53582865
7	0x3ebd20dd	0.36939135
8	0xbebbfdd3	-0.3671709
9	0x3e968956	0.29401654
10	0x3f2439e2	0.6415082
11	0x3e4552e5	0.19269903
12	0x3f1c1ad9	0.60978466
13	0xbe9b6a95	-0.30354753
14	0xbe45a9b1	-0.19303013
15	0x3e46fe3b	0.19432919
16	0x3d83341c	0.064064234
17	0xbee82bc1	-0.45345882
18	0xbe71fac7	-0.2363082
19	0xbd99e58d	-0.075144865
20	0xbe5e2c9d	-0.21696706
21	0xbe87b453	-0.26504764
22	0xbe26157f	-0.16219138
23	0x3d1aba40	0.037775278
24	0x3eb8ce10	0.36094713
25	0x3f1e05cd	0.617276
26	0x3eac6f7a	0.336788
27	0x3f2828d2	0.65687287
28	0x3f219421	0.6311665
29	0xbedd7195	-0.4325072
30	0xbeebab81	-0.46029285
31	0x3ed65fd5	0.4186999
32	0x3ecc75f6	0.39933747
33	0x3f04f382	0.51934063
34	0x3f1ee89b	0.6207368
35	0xbea3b050	-0.31970453
36	0xbefb0aef	-0.4903178
37	0xbe858590	-0.26078463
38	0x3d96d956	0.07365672
39	0xbe946745	-0.28985038
40	0x3e71fa54	0.23630649
41	0xbe37f631	-0.17965008
42	0x3ec09618	0.37614512
43	0x3e4052c6	0.18781576
44	0x3e96baa2	0.29439265
45	0x3f08c47c	0.5342481
46	0x3dc9696d	0.098345615
47	0xbebc6f3d	-0.36803618
48	0x3e54f88e	0.20797941
49	0x3e3794b5	0.17927821
50	0xbf046d5f	-0.5172939
51	0xbe4a357a	-0.19746962
52	0xbd5c1606	-0.05373194
53	0x3de72b57	0.11287563
54	0x3f2610c3	0.64869326
55	0x3f110274	0.5664437
56	0x3f003cd9	0.50092846
57	0x3e525369	0.20539631
58	0xbc8f0759	-0.017459558
59	0xbedf3fad	-0.43603268
60	0xbea2f7c8	-0.31829667
61	0xbef18ab5	-0.47176138
62	0x3e49d30e	0.19709417
63	0xbea44734	-0.32085574
64	0xbe88f219	-0.26747206
65	0xbe83b1e2	-0.2572165
66	0x3ee6af01	0.45055392
67	0xbeee4959	-0.46540335
68	0x3e147e3d	0.14501281
69	0x3ef2f696	0.47453755
70	0xbe80e813	-0.2517706
71	0x3ef7a1ef	0.48365733
72	0xbefab4aa	-0.4896596
73	0x3f168708	0.5879979
74	0xbe08b367	-0.13349687
75	0xbdbf5777	-0.093428545
76	0x3eb6f195	0.35731187
77	0xbed51820	-0.41619968
78	0x3f09ea8c	0.53873515
79	0xbee15a1d	-0.44014063
80	0x3eaf56e0	0.34245968
81	0xbee29f2f	-0.44262072
82	0x3f0913f1	0.53546053
83	0xbd742bfb	-0.059612256
84	0x3e382bb5	0.17985423
85	0x3da927bf	0.08259534
86	0x3efc4087	0.4926798
87	0x3eba6169	0.36402443
88	0xbe52c2c0	-0.20582104
89	0x3f1b1fd5	0.60595447
90	0xbed9829d	-0.42482463
91	0x3f0edccb	0.55805653
92	0x3e317528	0.17329848
93	0xbea10c6e	-0.31454796
94	0xbd35b902	-0.04436589
95	0xbf100974	-0.56264424
96	0x3e2de9d1	0.16983725
97	0x3f2ab4b1	0.66681963
98	0x3f110367	0.56645817
99	0xbeecb547	-0.46232054
100	0xbdb634d0	-0.08896792
101	0xbe7b1324	-0.2451902
102	0xbd0dfc62	-0.03466452
103	0xbea1a90b	-0.31574282
104	0xbe949000	-0.29016113
105	0x3f256513	0.6460735
106	0xbe5cca2c	-0.21561497
107	0x3dbdd1fc	0.09268567
108	0x3f0942ee	0.5361775
109	0x3f192f6c	0.59837985
110	0x3e975943	0.2956029
111	0x3f069b7e	0.5258101
112	0x3e361c62	0.17784265
113	0xbe6763e4	-0.22596699
114	0xbedea32e	-0.4348387
115	0x3ea6a475	0.32547346
116	0x3e82f2f3	0.2557598
117	0x3e6d9582	0.23201564
118	0x3dacc264	0.084355146
119	0xbec14eaf	-0.37755343
120	0x3f0d5536	0.55208147
121	0xbee3ec56	-0.44516248
122	0xbdda27d0	-0.10652125
123	0xbe5d80f1	-0.21631218
124	0xbe5caef8	-0.2155112
125	0xbeddba4f	-0.43306205
126	0xbf10c079	-0.5654369
127	0x3edbcabc	0.42928112
128	0x3dc5c7ec	0.09657273
129	0x3efeb475	0.49747053
130	0xbec371ae	-0.38172668
131	0xbee54486	-0.44778842
132	0xbea4e076	-0.322025
133	0x3e62b40b	0.22138993
134	0x3e15b27f	0.14618872
135	0x3c940502	0.018068794
136	0xbe8a9000	-0.27062988
137	0xbe3a22d9	-0.18177356
138	0x3e64f2a6	0.22358188
139	0xbed79a51	-0.42109922
140	0xbd827853	-0.06370606
141	0xbe5f8ebf	-0.21831797
142	0xbeb088f3	-0.34479484
143	0xbd50c575	-0.05096956
144	0x3e5c4d6e	0.21513912
145	0xbeecd239	-0.46254137
146	0x3ec95a66	0.3932678
147	0x3ec60fef	0.3868403
148	0xbec897ec	-0.39178407
149	0xbe657c70	-0.2241075
150	0x3f04dd08	0.51899767
151	0xbe01a2bb	-0.12659733
152	0x3edaf1de	0.42762655
153	0xbd8b895f	-0.06813311
154	0x3ce671cb	0.028130433
155	0xbe094be4	-0.13407856
156	0xbedbbf73	-0.42919502
157	0x3ed4d0ba	0.41565496
158	0x3cb68314	0.0222793
159	0x3f0756c4	0.5286677
160	0x3f0e59de	0.55605876
161	0xbea467a2	-0.32110316
162	0x3da2204d	0.07916317
163	0xbee93e53	-0.45555362
164	0xbd67209b	-0.05642758
165	0xbd9adb3b	-0.07561346
166	0x3f13104b	0.57446736
167	0xbb6fcc2b	-0.00365902
168	0xbcbd18bd	-0.023083085
169	0xbeb7c4c1	-0.358923
170	0xbeb1c852	-0.34723145
171	0xbe6ff6b2	-0.2343395
172	0x3f0f2958	0.5592246
173	0xbed0b82d	-0.40765515
174	0x3f236c2f	0.6383695
175	0x3f060776	0.52355134
176	0xbe4dbd61	-0.20091774
177	0x3e6786ee	0.22610065
178	0x3e1c8aed	0.15287371
179	0x3e6adab2	0.22934988
180	0xbe88653c	-0.26639736
181	0x3d99f8db	0.075181685
182	0xbdf0776e	-0.117415294
183	0xbdc934d3	-0.098245285
184	0xbeb4a501	-0.35282138
185	0xbe09492b	-0.13406818
186	0xbd9d67ba	-0.076858
187	0xbe878be5	-0.2647392
188	0xbe1b50b4	-0.15167505
189	0x3e1ea03a	0.15490809
190	0x3f113e17	0.56735367
191	0xbeb38240	-0.3506031

shared_layers.0.bias f4 [64]
0	0x3ec85347	0.39126036
1	0xbee62f9b	-0.44958195
2	0xbe3ac272	-0.18238238
3	0x3d86db9a	0.065848544
4	0x3ed70cda	0.42001992
5	0xbeee89f8	-0.46589637
6	0xbd9a69fb	-0.075397454
7	0x3e96349c	0.29337013
8	0x3e40a7d7	0.18814026
9	0x3e5dbd0f	0.21654151
10	0xbebc2135	-0.36744085
11	0x3ef9873a	0.48735982
12	0xbbc60f7a	-0.0060443254
13	0x3d28d483	0.041218292
14	0x3f0547d1	0.5206271
15	0xbda5100b	-0.080597006
16	0xbf05224b	-0.5200545
17	0xbea534d9	-0.32266882
18	0x3f173ad2	0.5907413
19	0x3eb091e5	0.3448631
20	0xbf0bfa21	-0.5467854
21	0x3dfc24ea	0.12311728
22	0x3efe003f	0.49609563
23	0x3eb52d0a	0.35385925
24	0x3ee17822	0.44036967
25	0x3e74dea6	0.23913059
26	0x3ed86ada	0.4226902
27	0xbecbaa41	-0.3977833
28	0x3e5fc3e5	0.21852072
29	0x3ed1146a	0.40835887
30	0x3f062877	0.52405494
31	0xbec617b4	-0.3868996
32	0x3f29a1ae	0.6626233
33	0xbf05a073	-0.5219795
34	0xbe9bdb17	-0.3044059
35	0x3d67123e	0.05641388
36	0x3ed3cbcf	0.4136643
37	0x3e0a7680	0.13521767
38	0xbddef445	-0.108864345
39	0x3e864802	0.26226813
40	0xbeeb2ea0	-0.4593401
41	0x3e210358	0.15723932
42	0xbe550158	-0.20801294
43	0xbed7a659	-0.421191
44	0x3e7abc60	0.24485922
45	0x3f232282	0.6372453
46	0xbec05cfb	-0.37570938
47	0xbf01ab7e	-0.506523
48	0xbef9cbee	-0.48788399
49	0x3ebcf094	0.36902297
50	0xbee8e3af	-0.4548621
51	0x3ef5d197	0.48011467
52	0x3c5a132c	0.013310235
53	0xbd77a352	-0.06045849
54	0x3f17b585	0.5926135
55	0x3ef2cfb0	0.47424078
56	0x3f256858	0.6461234
57	0x3e534ccf	0.20634769
58	0x3dfc10fa	0.123079255
59	0x3e79b33e	0.24384782
60	0xbea462b8	-0.32106566
61	0x3f0d6f26	0.55247724
62	0x3e188be2	0.14897111
63	0xbe124a4d	-0.14286156

shared_layers.2.weight f4 [32, 64]
0	0x3dec8d33	0.11550369
1	0xbde94c8a	-0.11391552
2	0x3d7af8fc	0.061272606
3	0x3d695b6e	0.05697196
4	0x3e304eb4	0.17217523
5	0x3dddba3c	0.10826537
6	0xbda5d328	-0.080969155
7	0x3dd18434	0.10230294
8	0x3e0a5b4f	0.13511394
9	0x3e3462f5	0.17615874
10	0xbd86e490	-0.065865636
11	0x3da93d5f	0.08263659
12	0x3d374c1c	0.044750318
13	0xbde761c8	-0.11297947
14	0x3e1b659c	0.1517548
15	0x3e755ee8	0.23961985
16	0xbd272288	-0.040804416
17	0xbd7c8d30	-0.061658084
18	0xbc09e948	-0.008417435
19	0x3e6bebc3	0.23039155
20	0xbd096ab8	-0.03354904
21	0xbd6c0390	-0.057620585
22	0x3e32b61d	0.17452283
23	0x3cd0f1a6	0.025505852
24	0x3e286863	0.1644607
25	0x3e6a4206	0.22876748
26	0x3d9c0483	0.07618048
27	0xbddef250	-0.10886061
28	0x3e30cfd5	0.17266782
29	0x3e325a83	0.1741734
30	0x3e6b8add	0.23002191
31	0xbd9bbbd6	-0.07604186
32	0x3d5b4ee2	0.053542025
33	0xbdb0af1a	-0.08627148
34	0xbde4f670	-0.11179817
35	0x3e49eef8	0.19720066
36	0x3e4aca90	0.19803834
37	0x3e140948	0.14456666
38	0xbd8e85da	-0.06959124
39	0x3e5b6caf	0.21428178
40	0xbd34378c	-0.043998286
41	0x3d3d39a0	0.046197534
42	0x3bb75640	0.0055949986
43	0x3dd309c8	0.103046
44	0xbcf166eb	-0.02946802
45	0x3e460c60	0.19340658
46	0xbd4ac164	-0.049500838
47	0xbdddf1f6	-0.10837166
48	0xbbe176a0	-0.0068805963
49	0x3c87079e	0.016483124
50	0x3e26bb2e	0.16282341
51	0x3db1f4d8	0.08689278
52	0xbdf12f04	-0.11776546
53	0x3bf75611	0.0075481017
54	0x3d824888	0.063614905
55	0x3d9e333b	0.07724615
56	0x3e3c9729	0.18417038
57	0x3e68181c	0.22665447
58	0x3e667268	0.2250458
59	0x3d32ca69	0.043650065
60	0xbb804060	-0.003913924
61	0x3e62d736	0.22152409
62	0x3ce4e4c8	0.027941123
63	0x3e7006c8	0.23440087
64	0x3c537520	0.012906343
65	0xbd6b69a0	-0.05747378
66	0xbda24586	-0.07923417
67	0x3b5f3a40	0.003406182
68	0xbce75d38	-0.028242692
69	0x3dfda5c8	0.12385136
70	0xbdd97a46	-0.10619025
71	0x3df2787e	0.11839388
72	0xbdeb15f8	-0.114787996
73	0x3d80931e	0.062780604
74	0x3d2972b4	0.041369155
75	0x3cfcd6b0	0.03086409
76	0x3dfbad6a	0.122889355
77	0x3dd090fa	0.10183902
78	0xbb90d080	-0.0044193864
79	0x3d8fe896	0.07026784
80	0x3d96cd78	0.07363409
81	0xbb1aa100	-0.0023594499
82	0x3b7e8e00	0.0038841963
83	0x3d9ad964	0.07560995
84	0xbd2475c8	-0.040151387
85	0xbd1e7144	-0.038682237
86	0xbda24222	-0.0792277
87	0x3de6ec54	0.11275545
88	0x3cecff48	0.028930321
89	0x3d574954	0.052560166
90	0xbddc38de	-0.10753034
91	0xbd405bd8	-0.04696259
92	0x3dbd8a64	0.092549115
93	0x3d5aefb0	0.05345124
94	0xbdd1e418	-0.102485836
95	0x3c359770	0.011083469
96	0xbd9969ac	-0.074908584
97	0x3d8daa04	0.069171935
98	0x3dc32cb6	0.09530012
99	0xbd9381a8	-0.07202464
100	0xbdf38218	-0.11890048
101	0xbcf738e8	-0.030178502
102	0x3db54e3a	0.08852811
103	0x3de145b0	0.1099962
104	0x3d838442	0.064217106
105	0x3dda0400	0.10645294
106	0x3d5d4fcc	0.05403118
107	0xbd599c6c	-0.05312769
108	0xbdbcc5e2	-0.09217431
109	0x3c439aa0	0.011938721
110	0xbaefd000	-0.0018296242
111	0xbd85528c	-0.06509885
112	0x3c71f220	0.0147672
113	0x3dd9d98e	0.106371984
114	0xbd37a76c	-0.0448374
115	0xbdc412e2	-0.09573914
116	0xbde69f6c	-0.11260876
117	0xbd3d7d94	-0.04626234
118	0xbda491ec	-0.08035645
119	0x3d928a24	0.071552545
120	0x3cfd13c0	0.030893207
121	0xbd8e82d6	-0.06958549
122	0x38cc1000	9.730458e-05
123	0xbd85bad8	-0.06529778
124	0x3dfcbfda	0.1234128
125	0xbc6b2690	-0.014352456
126	0xbdaef5f2	-0.08543004
127	0xbdc4612a	-0.09588845
128	0x3d342bcc	0.04398708
129	0x3dec2308	0.11530119
130	0xbcfa36d0	-0.030543715
131	0xbd839e82	-0.06426717
132	0xbdf58e70	-0.119900584
133	0xbd816706	-0.06318478
134	0xbd0b66e0	-0.034033656
135	0x3d9ec6f0	0.07752788
136	0xbd54aa9c	-0.05192052
137	0x3c957220	0.018242896
138	0xbdf2a622	-0.118480936
139	0xbde0da28	-0.1097911
140	0xbd27d790	-0.04097706
141	0xbdd224e4	-0.102609426
142	0xbcfc0e10	-0.030768424
143	0x3c8d40e8	0.017242864
144	0x3d1cdd44	0.038296953
145	0x3dfa213a	0.12213369
146	0xbdb2ed08	-0.087366164
147	0x3df6cb66	0.12050514
148	0x3b890720	0.0041817576
149	0x3db15630	0.08659017
150	0x3dd6f7f0	0.10496509
151	0xbc4a3d60	-0.0123437345
152	0x3da41606	0.08012013
153	0x3dab5fd0	0.08367884
154	0xbd181124	-0.03712572
155	0x3ddf7a86	0.10912041
156	0x3c0e9bc0	0.008704126
157	0xbbe41160	-0.006960079
158	0x3c965858	0.018352672
159	0xbc0c21c0	-0.0085529685
160	0x3ccc7588	0.024958387
161	0x3daa43ea	0.08313735
162	0xbb53d880	-0.003232509
163	0xbd9f54ce	-0.07779847
164	0x3dfd0066	0.123535916
165	0xbc5fd880	-0.0136624575
166	0xbd8e8574	-0.06959048
167	0xbdd52b70	-0.10408676
168	0x3c8d9018	0.017280623
169	0xbceeeaa0	-0.029164612
170	0x3c8b56b8	0.017009124
171	0x3c834918	0.016026065
172	0x3ddea3e6	0.10871105
173	0x3dc553ae	0.09635101
174	0x3d230c0c	0.03980641
175	0x3d967a14	0.07347503
176	0x3d326958	0.043557495
177	0xbd6c0040	-0.057617426
178	0xbdacbc20	-0.084343195
179	0xbbd96380	-0.006634176
180	0xbde5fc68	-0.11229783
181	0x3d40c718	0.04706487
182	0xbd8e37e6	-0.069442555
183	0x3cdfced0	0.027320296
184	0x3dee0fe6	0.11624126
185	0xbdbbf26e	-0.09177099
186	0xbd01ea3c	-0.031717524
187	0xbba96be0	-0.0051703304
188	0xbd9f3ad2	-0.07774891
189	0xbd8ad4c0	-0.0677886
190	0x3d0daeb8	0.034590453
191	0x3de012f2	0.109411135
192	0xbde8119e	-0.11331485
193	0x3dbb3442	0.09140827
194	0x3db1f9ac	0.08690199
195	0x3d52b268	0.051439673
196	0xbdbd9d06	-0.092584655
197	0x3d6b50d0	0.057450116
198	0xbbb9f240	-0.0056746304
199	0xbdeccad8	-0.11562127
200	0x3cd39008	0.025825515
201	0xbdec8458	-0.1154868
202	0x3ce4d750	0.0279347
203	0x3d20bdbc	0.039243445
204	0xbcfa10c0	-0.030525565
205	0xbd441168	-0.047868162
206	0x3d991ac2	0.07475807
207	0xbc537030	-0.012905166
208	0x3c929868	0.017894939
209	0x3df4637c	0.11933038
210	0xbd995cf6	-0.07488434
211	0xbdbf8516	-0.09351556
212	0xbda1bf80	-0.07897854
213	0xbdb5518e	-0.08853446
214	0x3d3c3954	0.04595311
215	0x3dd3ac26	0.10335569
216	0xbd9c3afa	-0.076284364
217	0xbd682fc0	-0.056686163
218	0xbd919c12	-0.07109846
219	0xbd89532c	-0.06705317
220	0x3dbc8cc4	0.092065364
221	0xbdf57082	-0.1198435
222	0xbd7364d4	-0.05942233
223	0xbc99d480	-0.018778086
224	0xbd863484	-0.06552985
225	0x3d7167bc	0.05893682
226	0xbbf42d40	-0.0074516833
227	0x3dca1af2	0.09868421
228	0xbcd90688	-0.026492372
229	0x3c8ae200	0.016953468
230	0xbc83d2a0	-0.016091645
231	0xbdba4a10	-0.090961576
232	0xbdf91cb8	-0.12163681
233	0x3db948ae	0.09047066
234	0x3deae18e	0.114688024
235	0x3c27e700	0.010247946
236	0x3dfae64e	0.122509584
237	0xbdbff758	-0.09373349
238	0x3d88a34c	0.066717714
239	0x3da5ac58	0.080895126
240	0xbdefb378	-0.11704153
241	0xbd922656	-0.07136218
242	0xbd9d7128	-0.076875985
243	0x3cde4088	0.02713038
244	0xbd1f4d2c	-0.038891956
245	0x3ced0ef8	0.028937802
246	0xbdab1334	-0.08353272
247	0xbdd10686	-0.10206322
248	0x3dd5ca4c	0.10438976
249	0x3d9c80ae	0.07641731
250	0xbda8c432	-0.08240546
251	0x3d4c37e4	0.04985799
252	0x3ca79790	0.020458013
253	0x3b8ec260	0.0043566674
254	0xbdabe582	-0.083933845
255	0xbda91e58	-0.08257741

shared_layers.2.bias f4 [32]
0	0x3d7670f0	0.0601663
1	0xba994200	-0.0011692643
2	0xbd639394	-0.055560663
3	0x3ce80e40	0.028327107
4	0x3bd6f2b1	0.006559693
5	0xbcf462b8	-0.029832229
6	0xbdca137c	-0.098669976
7	0xbd5b4208	-0.05352977
8	0xbdb7ca9e	-0.08974193
9	0x3e489390	0.1958754
10	0x3d0ec0eb	0.03485195
11	0x3dcf5a27	0.10124617
12	0x3dc03708	0.093854964
13	0x3e3254d8	0.17415178
14	0x3c205dd0	0.009787992
15	0xbdab515c	-0.083651274
16	0x3e3d161f	0.1846547
17	0xbd19e5e3	-0.037572753
18	0xbdf75624	-0.12076977
19	0x3cd6281d	0.026142174
20	0x3d8cc3fe	0.0687332
21	0x3e181620	0.1485219
22	0x3dd53c27	0.10411864
23	0x3e7afdf8	0.24510944
24	0xbd026f0b	-0.03184418
25	0x3d606191	0.054780547
26	0x3d24eec8	0.040266782
27	0xbcf6fb60	-0.030149162
28	0xbd9f04c3	-0.0776458
29	0x3dd031b6	0.101657316
30	0xbd900a70	-0.07033241
31	0x3e3155b0	0.17317843

shared_layers.4.weight f4 [8, 32]
0	0x3da3acd2	0.07991947
1	0x3da3b15b	0.07992812
2	0xbe0aae51	-0.13543059
3	0xbe2b8df7	-0.16753374
4	0x3e2f40b5	0.17114528
5	0x3aef0df8	0.0018238416
6	0x3d489bc6	0.048976682
7	0xbd477cf9	-0.048703168
8	0xbc33cc41	-0.010973991
9	0x3e77a259	0.24183024
10	0x3e011453	0.1260541
11	0xbca7a735	-0.020465473
12	0x3d963466	0.07334213
13	0x3dbab926	0.091173455
14	0x3ba7ad72	0.005117112
15	0x3e057a47	0.13034926
16	0x3d12ca2b	0.035837334
17	0x3e586369	0.21131672
18	0xbe15993f	-0.1460924
19	0xbd79f750	-0.06102687
20	0x3e16ef9c	0.14739841
21	0x3e88362a	0.26603824
22	0x3e7371d1	0.23773886
23	0xb8b2e5bd	-8.5304935e-05
24	0x3e4d57d4	0.20053035
25	0x3cd009a7	0.025395228
26	0xbe271fdb	-0.16320746
27	0x3d403b68	0.046931654
28	0x3dcbc7bf	0.09950208
29	0xbd28adb5	-0.041181285
30	0xbdd16c21	-0.10225702
31	0x3e055b47	0.13023101
32	0x3d2451aa	0.040116943
33	0x3de9de1d	0.11419318
34	0xbe316930	-0.17325282
35	0xbdf3d563	-0.11905935
36	0xbcbf9ba0	-0.023389637
37	0xbd20f027	-0.039291527
38	0xbd930655	-0.07178942
39	0x3d2c4e7e	0.042067043
40	0xbe2343fa	-0.159439
41	0xbd92fc85	-0.071770705
42	0x3c8c4b38	0.01712571
43	0x3e1f2896	0.15542826
44	0xbe060a7a	-0.13089934
45	0xbe51791c	-0.20456356
46	0xbd8d849e	-0.0691006
47	0xbd9dd656	-0.07706897
48	0x3b12c3cb	0.0022394534
49	0x3c7eae8e	0.015544547
50	0xbdb5dac5	-0.088796176
51	0xbe08dd93	-0.13365774
52	0xbd2eb853	-0.042656254
53	0xbbf28425	-0.0074010068
54	0xbe280468	-0.16407931
55	0xbe4de156	-0.2010549
56	0xbc454d7c	-0.0120423995
57	0xbe0632be	-0.13105294
58	0xbd6282bc	-0.05530046
59	0xbd59a3dc	-0.053134784
60	0x3dde9fd5	0.10870329
61	0x3dcb8831	0.09938086
62	0xbdb21ee0	-0.08697295
63	0xbd1b6700	-0.037940025
64	0x3d05efbc	0.03269933
65	0xbc703d3b	-0.014663036
66	0x3c15717b	0.009121294
67	0x3daa283b	0.083084546
68	0xbd799deb	-0.060941618
69	0x3df25c77	0.118340425
70	0x3e02ed57	0.1278585
71	0xbdced75f	-0.100996725
72	0x3de6807b	0.112549745
73	0xbe2bb96e	-0.16769955
74	0xbdf9adb2	-0.12191333
75	0x3dc74310	0.09729588
76	0x3d3e333c	0.04643558
77	0xbe31dec2	-0.17370132
78	0xbcc4c436	-0.024019342
79	0x3db2610b	0.08709916
80	0xbe47d402	-0.19514468
81	0x3cf3679c	0.02971249
82	0xbdbc3a1f	-0.09190773
83	0x3e0adc03	0.1356049
84	0xbe8c4b47	-0.27401182
85	0xbd89b18c	-0.067233175
86	0xbdb43a34	-0.08800164
87	0x3cca734e	0.024713185
88	0xbdb36845	-0.08760122
89	0x3e21fc3a	0.15818873
90	0x3cc3718d	0.023857856
91	0xbde6c4f0	-0.112680316
92	0x3dfcc593	0.12342372
93	0xbc8063df	-0.015672622
94	0xbc7976ca	-0.015226075
95	0xbe52efcd	-0.20599289
96	0xbdf05576	-0.117350504
97	0xbe13db3a	-0.14439097
98	0x3d310dfc	0.043226227
99	0x3dd4cce9	0.10390646
100	0xbe2f58bd	-0.17123695
101	0x3d9b7a93	0.075917386
102	0x3b831065	0.003999757
103	0x3e2d1aeb	0.169048
104	0x3e1193b4	0.142165
105	0xbdae260d	-0.08503351
106	0xbdce2b7d	-0.100668885
107	0xbb3213fe	-0.002717256
108	0x3e1a5af8	0.15073764
109	0xbe6b87c9	-0.23001017
110	0x3d83cf36	0.06436007
111	0x3ca3b966	0.019985866
112	0x3ca87f41	0.020568492
113	0xbd98f0be	-0.07467793
114	0xbe0506c3	-0.1299086
115	0xbe1f55cb	-0.15560071
116	0xbc9c0ef6	-0.019050103
117	0xbe41262f	-0.18862222
118	0xbe0877e4	-0.13326985
119	0x3d13a2c9	0.036043916
120	0xbe7647c5	-0.24050815
121	0xbe1b3185	-0.15155609
122	0xbcc70c69	-0.02429791
123	0x3e1c8806	0.15286264
124	0x3e1d912c	0.1538741
125	0x3dd84ea6	0.10561876
126	0x3dd70ce7	0.10500508
127	0xbd5524e2	-0.052037127
128	0xbe75b5af	-0.23995088
129	0x3b9bb2e7	0.0047515514
130	0xbe344834	-0.17605668
131	0x3e27b476	0.16377434
132	0xbe4bf774	-0.19918615
133	0xbcbce6f2	-0.023059342
134	0xbdd93839	-0.10606427
135	0x3e2ca12e	0.1685836
136	0x3c6c1b31	0.01441078
137	0xbdbd3881	-0.09239293
138	0xbd810c20	-0.06301141
139	0xbda228b7	-0.07917922
140	0x3e0009a5	0.12503679
141	0xbe49f837	-0.19723593
142	0xbdf915d7	-0.12162369
143	0x3c82d59d	0.015971
144	0xbe3e0a99	-0.1855873
145	0xbc032b17	-0.008005879
146	0x3e0978ee	0.13425037
147	0xbd1be1b6	-0.03805705
148	0x3cbaed91	0.022818359
149	0xbc6cc840	-0.01445204
150	0xbcd6cb7c	-0.026220076
151	0xbe216c1d	-0.15763898
152	0x3dac30f3	0.08407774
153	0xbcdd7746	-0.027034413
154	0xbe093618	-0.13399541
155	0x3dbc0d6e	0.09182249
156	0xbd06c594	-0.03290327
157	0x3a790cfd	0.00095005316
158	0xbd5e27bc	-0.054237112
159	0xbe7ba507	-0.24574672
160	0xbd8e02b1	-0.06934107
161	0x3df8382f	0.12120091
162	0x3c746a60	0.01491794
163	0x3e2c0ab7	0.16800962
164	0xbe18e6a1	-0.14931728
165	0x3e00d1b3	0.12579994
166	0x3d8fc5cd	0.070201494
167	0x3cc094a2	0.023508374
168	0xbdf199c0	-0.117969036
169	0xbe652178	-0.22376049
170	0x3dfd02b5	0.12354032
171	0xbe34afc3	-0.17645173
172	0x3df59428	0.11991149
173	0xbc1e1c94	-0.009650368
174	0x3e04d3a2	0.12971357
175	0x3da863ea	0.08222182
176	0xbc603520	-0.013684541
177	0xbd594b9c	-0.053050622
178	0x3e0c61bc	0.13709158
179	0xbd651c34	-0.0559351
180	0xbe1d65ca	-0.1537086
181	0x3d6835e1	0.056692008
182	0xbdff7405	-0.12473301
183	0xbe813b67	-0.25240633
184	0xbdd62ec9	-0.10458142
185	0x3da075b8	0.07834953
186	0x3da878b5	0.08226148
187	0x3d782c16	0.06058892
188	0x3cea801f	0.028625546
189	0x3e1e15f1	0.15438057
190	0xbd04cd57	-0.03242239
191	0xbd9dbc20	-0.077018976
192	0xbda3b175	-0.079928316
193	0x3dc8df8b	0.098082624
194	0xbe07bd75	-0.13255866
195	0x3cdca054	0.02693192
196	0xbe3ff858	-0.1874708
197	0xbdeab10d	-0.11459551
198	0xbd72a7ed	-0.059242178
199	0x3e195416	0.14973482
200	0x3d26266d	0.04056399
201	0x3dd2f903	0.103014015
202	0xbd813869	-0.063095875
203	0xbdf7ac42	-0.120934024
204	0x3c6c74e2	0.014432164
205	0xbc2240a6	-0.009903109
206	0xbda26ac0	-0.07930517
207	0x3e282d28	0.16423476
208	0x3d4118ba	0.04714272
209	0x3c3e9e5c	0.0116344355
210	0xbdab8d35	-0.083765425
211	0x3d09e205	0.033662815
212	0x3d893d26	0.06701116
213	0xbda10ec1	-0.07864142
214	0x3db8a8f3	0.090165995
215	0x3e256fd2	0.16155937
216	0xbe278016	-0.16357455
217	0xbd85f341	-0.065405376
218	0x3df9fc6f	0.12206351
219	0xbe067150	-0.13129163
220	0x3da185e6	0.07886867
221	0xb9c85236	-0.00038208225
222	0x3da4c8cc	0.080461115
223	0xbe3e25b1	-0.18569066
224	0xbe64328f	-0.22284912
225	0xbdcb8a0f	-0.09938442
226	0xbda81745	-0.08207563
227	0xbdf2cf4b	-0.11855944
228	0xbdd6ed9c	-0.10494539
229	0xbddbbccf	-0.10729372
230	0x3c344e9b	0.011005069
231	0xbd2d8c8f	-0.042370375
232	0x3da8bd9f	0.08239292
233	0xbe65e4a7	-0.22450505
234	0x3d876f21	0.06612993
235	0xbcc7257d	-0.024309868
236	0x3e22d5bb	0.15901844
237	0xbe87b106	-0.26502246
238	0x3da01b99	0.07817764
239	0xbe053d4a	-0.13011661
240	0xbe969c2d	-0.29416028
241	0xbe16b33d	-0.14716811
242	0xbdd6f33d	-0.10495613
243	0x3dc9a69b	0.098462306
244	0xbe6943ac	-0.22779721
245	0xbdccddcd	-0.10003243
246	0x3d203060	0.039108634
247	0xbe96012b	-0.29297766
248	0x3d2fed68	0.042951018
249	0x3e1d3bdb	0.15354864
250	0x3e086a1c	0.13321728
251	0xbe3354f4	-0.17512876
252	0x3cbc950d	0.023020292
253	0xbd3af0fc	-0.045639977
254	0x3d215da4	0.039395943
255	0xbd4247eb	-0.047431868

shared_layers.4.bias f4 [8]
0	0x3df02b9a	0.11727066
1	0x3daddcb4	0.084893614
2	0xbe0e0cbd	-0.13872047
3	0xbd5d843d	-0.05408119
4	0x3cfc9637	0.030833347
5	0xbd86d61e	-0.06583808
6	0xbdda73ee	-0.10666643
7	0x3d7eaaa7	0.062174466
