training/models/controller_controller_acc0.95_lat0.012_succ5_small7_large10_carb15_cap610_rate0.000269_best_model.pth (torch, 18445 bytes, 6 tensors)

shared_layers.0.weight f4 [64, 3]
0	0x3ef9362e	0.48674148
1	0xbef6710a	-0.48133117
2	0xbe977df1	-0.29588273
3	0xbe66f913	-0.22555952
4	0xbe386fa2	-0.18011335
5	0x3f004580	0.5010605
6	0x3e153783	0.14571957
7	0x3e266724	0.16250283
8	0x3e9d4954	0.30720007
9	0x3cee9031	0.02912149
10	0xbd6b480a	-0.05744175
11	0x3ea5aa03	0.3235627
12	0xbee97e66	-0.45604247
13	0x3eff0432	0.49807888
14	0x3ec9fc13	0.3945013
15	0xbcc3f26d	-0.023919309
16	0xbdab4be8	-0.08364087
17	0x3ee0b537	0.43888256
18	0x3e8adfcd	0.2712387
19	0x3ca3df25	0.020003865
20	0xbe011ddd	-0.12609048
21	0x3d996804	0.074905425
22	0x3ee22e09	0.44175747
23	0x3d49359a	0.049123384
24	0xbeefe658	-0.46855426
25	0x3f09082f	0.5352811
26	0x3e422082	0.18957713
27	0x3ead228f	0.3381543
28	0x3f064c74	0.5246041
29	0x3d3dc80b	0.046333354
30	0xbedc3716	-0.43010777
31	0xbea26b7c	-0.3172263
32	0xbe878d12	-0.26474816
33	0x3ec62fe8	0.38708425
34	0xbe9f862a	-0.31157047
35	0x3eb5918f	0.35462615
36	0x3e27aee1	0.16375305
37	0x3f10b270	0.56522274
38	0x3e462014	0.19348174
39	0xbe6898c4	-0.22714525
40	0xbe58daae	-0.2117717
41	0xbe5877f0	-0.21139503
42	0xbe1e654b	-0.15468328
43	0xbf09750e	-0.53694236
44	0xbe84ab1e	-0.25911802
45	0xbede5692	-0.43425423
46	0xbe077347	-0.13227569
47	0x3e5ddbf3	0.21665935
48	0xbeb0c07f	-0.34521863
49	0x3ee8aa08	0.45442224
50	0xbd2ff753	-0.042960476
51	0x3f29d25c	0.6633661
52	0x3eb413e3	0.35171422
53	0x3e156d57	0.14592491
54	0x3f1bee87	0.6091084
55	0x3edf6174	0.43629038
56	0x3e2a9281	0.1665745
57	0x3ef541a8	0.47901654
58	0xbe948805	-0.29010025
59	0xbe0e9c1f	-0.13926743
60	0xbe83f776	-0.25774735
61	0xbd00ee65	-0.03147735
62	0x3ebbc087	0.36670324
63	0x3ec048bb	0.3755549
64	0x3f2661c9	0.6499296
65	0xbda7f89f	-0.082017176
66	0x3f01ada0	0.50655556
67	0x3f218ce1	0.6310559
68	0xbd578285	-0.052614707
69	0x3e59265e	0.21206042
70	0xbdda0744	-0.10645917
71	0x3ee18df7	0.44053623
72	0x3f0808d7	0.5313849
73	0xbe29f98c	-0.16599101
74	0x3f07d077	0.5305247
75	0x3e905fd9	0.28198126
76	0x3f0aa064	0.54150987
77	0x3e882e11	0.26597646
78	0xbe276fad	-0.16351195
79	0xbeeaba7d	-0.45845404
80	0xbe9d4171	-0.3071399
81	0x3d1db48b	0.038502257
82	0x3f1bfe58	0.6093497
83	0xbf0075d8	-0.50179815
84	0x3edd5abc	0.43233287
85	0x3f15d9dc	0.5853555
86	0x3ee04eab	0.4381002
87	0x3e0ffffa	0.14062491
88	0x3ee2cb74	0.44295847
89	0xbe051b96	-0.12998804
90	0x3e3f7f1f	0.18700837
91	0x3e6fa679	0.23403348
92	0xbee3329d	-0.44374552
93	0x3ef4126a	0.476703
94	0x3c97f550	0.018549591
95	0xbcfecce1	-0.031103553
96	0x3dcb4ddf	0.09926962
97	0x3ee63075	0.44958845
98	0x3f1f2cfd	0.6217802
99	0x3eb8fdaa	0.3613103
100	0x3f091d0e	0.5355996
101	0x3eee95c8	0.4659865
102	0xbd65ee65	-0.056135554
103	0x3f24ae1f	0.6432819
104	0xbea81b57	-0.3283336
105	0xbeb83408	-0.35977197
106	0xbe5101f4	-0.20410901
107	0x3ef6fa04	0.48237622
108	0x3f257cc7	0.6464352
109	0x3eedad0a	0.4642108
110	0x3e8595bb	0.26090798
111	0xbe098a77	-0.13431726
112	0x3e074e2b	0.13213412
113	0x3e4ca293	0.19983892
114	0xbeb810ab	-0.35950217
115	0x3ea901b5	0.33009115
116	0xbe9b53d1	-0.30337384
117	0xbd0436a4	-0.03227867
118	0x3e8ec9e3	0.27888402
119	0xbe84200f	-0.2580571
120	0x3d09e7c1	0.033668283
121	0x3d428066	0.04748573
122	0x3e134013	0.14379911
123	0xbee0de4c	-0.439196
124	0xbe7b8fc7	-0.24566565
125	0x3d953e5f	0.07287287
126	0xbe7a66a8	-0.24453223
127	0x3f0738d9	0.5282112
128	0x3eda7a28	0.42671323
129	0xbe81dfe1	-0.2536612
130	0xbbee72aa	-0.0072768526
131	0x3e89106b	0.26770338
132	0xbea587a4	-0.32330048
133	0xbc896711	-0.016772779
134	0xbdebd466	-0.11515121
135	0x3ee6b68d	0.4506115
136	0xbe96dd0c	-0.2946552
137	0x3ef5ddf0	0.48020887
138	0x3e524033	0.20532303
139	0xbddeef78	-0.10885519
140	0x3f01050d	0.5039833
141	0x3e2cd6d1	0.16878821
142	0x3e9bdb86	0.3044092
143	0x3f0693de	0.5256938
144	0xbe9e15c1	-0.30875972
145	0x3f1852e4	0.5950148
146	0xbee9c4a2	-0.4565783
147	0x3eb6a4c0	0.3567257
148	0x3f18cb06	0.5968479
149	0xbec99f89	-0.39379528
150	0xbd8a522f	-0.067539565
151	0x3f22064a	0.63290846
152	0x3f21e259	0.63236004
153	0xbf058e75	-0.521705
154	0xbec552e2	-0.38539797
155	0x3eddf588	0.43351388
156	0x3e2fb59d	0.17159124
157	0x3ef5d69c	0.48015296
158	0xbed73ce3	-0.4203864
159	0xbe6d7069	-0.23187412
160	0x3ee433ba	0.44570714
161	0x3deadb05	0.11467556
162	0x3eacc18b	0.33741412
163	0xbe6ac601	-0.22927095
164	0x3d43571b	0.047690492
165	0xbd27e975	-0.040994126
166	0x3db53c15	0.0884935
167	0xbed3d909	-0.41376522
168	0x3da9a4e1	0.08283401
169	0x3ed13397	0.40859672
170	0xbe02aa74	-0.12760335
171	0xbe8c1ab6	-0.2736413
172	0x3ef98b4b	0.48739085
173	0xbef47c20	-0.4775095
174	0x3e7df652	0.24800995
175	0x3f0d5acb	0.55216664
176	0x3da78e78	0.08181471
177	0x3e97426c	0.29542863
178	0x3ef93e45	0.4868032
179	0x3e92f926	0.2870571
180	0x3de7352d	0.11289439
181	0x3f0bd4da	0.5462166
182	0xbe9a6d1b	-0.30161366
183	0xbe9ca7d9	-0.30596808
184	0xbf0ea013	-0.55713004
185	0xbdddb5c1	-0.108256824
186	0x3e89d09a	0.26916963
187	0x3ec7015c	0.38868225
188	0x3e01a7df	0.12661694
189	0xbdbd5301	-0.09244347
190	0x3e9a9538	0.3019197
191	0xbe6c30f9	-0.23065557

shared_layers.0.bias f4 [64]
0	0xbf0aff04	-0.5429537
1	0xbdb4154f	-0.08793127
2	0x3ec67449	0.38760594
3	0x3f135c88	0.57563066
4	0xbd992a18	-0.07478732
5	0x3efce5c1	0.49394038
6	0x3d034b4c	0.03205423
7	0xbf000ba5	-0.5001777
8	0xbe041b28	-0.12900984
9	0x3d4e7f52	0.05041439
10	0x3ea521ad	0.32252255
11	0x3f1aa005	0.6040042
12	0x3e5bdd62	0.2147117
13	0x3e0c369b	0.13692705
14	0xbe0fb584	-0.14034086
15	0xbea1cfb3	-0.31603774
16	0x3f33cbf2	0.7023307
17	0x3f256652	0.64609253
18	0x3dd16c88	0.10225779
19	0x3b69b26a	0.0035659322
20	0xbef84828	-0.4849255
21	0xbe03aa14	-0.12857848
22	0x3f08ca10	0.5343332
23	0xbe751999	-0.23935546
24	0x3f1691d8	0.5881629
25	0xbdca6cd9	-0.09884042
26	0xbeaf1a55	-0.34199777
27	0xbd2825a4	-0.041051522
28	0x3f31a605	0.6939395
29	0x3ea3a460	0.31961346
30	0x3e5a07db	0.21292059
31	0xbd11691c	-0.03550063
32	0x3e7ee4e0	0.24891996
33	0xbe9bf1a7	-0.30457804
34	0x3e236f0e	0.15960333
35	0xbca55e7f	-0.02018666
36	0x3eea102b	0.4571546
37	0x3ef8f8cc	0.48627317
38	0xbee13472	-0.43985325
39	0x3f181e12	0.59420884
40	0x3f1e9863	0.61951274
41	0x3e6384af	0.22218584
42	0xbef5ede8	-0.4803307
43	0xbed702e1	-0.41994384
44	0x3e3cdbda	0.18443242
45	0xbeaded9c	-0.33970344
46	0xbee363f4	-0.44412196
47	0x3f214e13	0.63009757
48	0x3ef53025	0.47888294
49	0x3ee7b736	0.45256966
50	0x3e34c4d0	0.17653203
51	0x3ea1ce54	0.31602728
52	0x3e8b7457	0.27237198
53	0xbe3ce5de	-0.18447062
54	0x3eead513	0.45865688
55	0xbd85d09c	-0.0653393
56	0x3cee7d5d	0.029112512
57	0xbeaa97f9	-0.3331907
58	0x3d95ba95	0.07310978
59	0x3f102483	0.5630571
60	0xbd92932c	-0.07156977
61	0xbf0f9170	-0.56081295
62	0x3e124acd	0.14286347
63	0xbecdc8c2	-0.4019223

shared_layers.2.weight f4 [32, 64]
0	0xbd8728b4	-0.065995604
1	0xbd0e56c8	-0.03475073
2	0x3e0e2fd2	0.1388543
3	0x3c60e6ff	0.013726949
4	0xbab0b900	-0.0013482869
5	0x3e482c3b	0.19548123
6	0x3dbc7910	0.09202778
7	0xbdab770c	-0.08372316
8	0xbda6ceb6	-0.08144896
9	0x3dc66e0e	0.0968896
10	0xbd965900	-0.07341194
11	0x3e49cc78	0.19706905
12	0x3e1ec281	0.15503885
13	0xbd955b60	-0.07292819
14	0x3da73838	0.0816502
15	0xbdcf21aa	-0.10113843
16	0x3e66acbc	0.2252683
17	0x3d1b1a45	0.03786685
18	0x3ddc4554	0.10755411
19	0x3e840c49	0.25790623
20	0x3d906854	0.07051149
21	0x3da5c181	0.080935486
22	0x3e4ffdb9	0.20311631
23	0x3dbf4274	0.09338847
24	0x3dd2201c	0.102600306
25	0x3e2f2b06	0.17106256
26	0xbcb92f80	-0.022605658
27	0x3e6fa54b	0.23402898
28	0x3dcdbfaa	0.10046323
29	0x3e2abaae	0.16672775
30	0x3c851350	0.01624456
31	0x3c0cf33e	0.008602915
32	0x3e0dca72	0.13846758
33	0x3dbcbe03	0.09215929
34	0x3e6892e9	0.22712292
35	0xbd7070f8	-0.058701485
36	0x3e3ee638	0.18642509
37	0x3e4cfcbd	0.20018287
38	0xbdb4219a	-0.087954715
39	0x3d70fa6a	0.058832563
40	0x3daa9bf9	0.08330531
41	0xbd2c6b00	-0.04209423
42	0xbdb0b432	-0.086281195
43	0x3da13588	0.078715384
44	0xbde74418	-0.11292285
45	0xbd480f81	-0.04884291
46	0x3dc6e6a4	0.0971196
47	0x3e49f3b5	0.19721873
48	0x3b380ba9	0.0028083122
49	0x3d25da42	0.04049135
50	0x3e8a5d37	0.27024242
51	0xbde068c4	-0.109574825
52	0x3e06f1a9	0.13178124
53	0x3cec73f8	0.028863892
54	0x3d8dcff7	0.06924432
55	0x3d1f35dc	0.038869724
56	0x3e79d765	0.24398573
57	0xbdebb6d0	-0.11509478
58	0x3db48021	0.08813501
59	0x3e1893b6	0.14900097
60	0x3e285d98	0.16441953
61	0x3bc09380	0.0058769584
62	0x3e452cd3	0.1925538
63	0x3d86207e	0.06549166
64	0xbda3b0f0	-0.079927325
65	0x3decb4da	0.11557932
66	0xbde15020	-0.11001611
67	0x3d908f26	0.070585534
68	0xbc3834f0	-0.01124309
69	0xbce77fc0	-0.028259158
70	0x3d63ebec	0.055644915
71	0xbcfc8878	-0.030826792
72	0xbc894f28	-0.016761377
73	0xbd8f4822	-0.0699618
74	0x3d49bf84	0.04925491
75	0x3d4db278	0.05021903
76	0x3dff6cc6	0.12471919
77	0x3d2934ec	0.041310236
78	0xbd9a6050	-0.075379014
79	0xbd313c60	-0.04327047
80	0xbd8cf172	-0.068819895
81	0xbcd713d0	-0.026254565
82	0x3c44adf0	0.012004361
83	0xbc1c44c0	-0.009537876
84	0xbdccb4cc	-0.09995422
85	0x3cb86698	0.022509858
86	0xbc9ca338	-0.019120798
87	0x3d095b30	0.03353423
88	0xbdf57bd0	-0.11986506
89	0xbdceb8e8	-0.10093862
90	0x3ca6bb68	0.020353034
91	0x3df91946	0.12163024
92	0x3d9ef398	0.077613056
93	0x3d1944f0	0.03741926
94	0x3dc91920	0.09819245
95	0x3d7113cc	0.05885677
96	0x3da1437a	0.07874198
97	0xbd036920	-0.032082677
98	0xbce79760	-0.028270423
99	0xbcdbe578	-0.026842818
100	0xbcd845b0	-0.026400417
101	0x3da5a314	0.08087745
102	0x3da92a6c	0.082600445
103	0xbdf36bd6	-0.118858024
104	0xbc31f290	-0.010861054
105	0x3d9cbb16	0.07652871
106	0xbdeeaacc	-0.11653671
107	0x3d6c5c94	0.057705477
108	0x3deba49c	0.11506006
109	0xbdbc54b2	-0.09195842
110	0xbdb35810	-0.08757031
111	0xbda9672c	-0.082716316
112	0x3d90a188	0.0706206
113	0xbbcfa620	-0.0063369423
114	0xbd9c0528	-0.07618171
115	0xbcba0d28	-0.022711352
116	0x3d9bbfd6	0.07604949
117	0xbd73d010	-0.059524596
118	0xbdb8e6b2	-0.09028377
119	0x3d683ba8	0.056697518
120	0x3b2e0a40	0.0026556402
121	0xbddd8212	-0.108158246
122	0xbd9840e4	-0.07434252
123	0x3df6af4e	0.120451555
124	0xbcf758e8	-0.030193761
125	0xbdfbdda4	-0.12298134
126	0x3c1e2220	0.009651691
127	0xbd684fe8	-0.05671683
128	0xbdf0c0b8	-0.11755508
129	0xbc8ddad0	-0.017316252
130	0x3cdbf958	0.026852295
131	0x3c5fc850	0.013658598
132	0x3d90bd94	0.07067409
133	0x3df50d7c	0.119654626
134	0xbc5fa640	-0.013650477
135	0x3db6bee2	0.08923127
136	0x3c365610	0.011128917
137	0xbdd85736	-0.10563509
138	0x3c587220	0.013210803
139	0xbc65b270	-0.014019594
140	0xbb52eb00	-0.0032183528
141	0xbde54f8a	-0.111968115
142	0xbd40ff70	-0.047118604
143	0xbdd71b6c	-0.10503277
144	0xbcd67478	-0.026178584
145	0xbdbefdb0	-0.09325731
146	0xbdbec8f4	-0.093156725
147	0xbd8992f6	-0.06717484
148	0xbcd680a0	-0.02618438
149	0xbd105c2c	-0.035244152
150	0x3d39642c	0.045261547
151	0x3d9f4a8a	0.07777889
152	0x3d9a16d8	0.07523888
153	0x3d54bb1c	0.051936254
154	0x3d115f48	0.035491258
155	0xbd711224	-0.05885519
156	0xbdadc30e	-0.08484469
157	0x3da590f6	0.0808429
158	0x3cdcb0d0	0.02693978
159	0xbd3cea08	-0.046121627
160	0x3d8ac4a4	0.067757875
161	0x3d93ef36	0.0722336
162	0xbd531074	-0.051529363
163	0xbdd4e734	-0.10395661
164	0x3d8bb2be	0.06821202
165	0xbde6e08e	-0.11273299
166	0xbc781e20	-0.015143901
167	0xbb877fe0	-0.004135117
168	0xbdc01e8c	-0.09380826
169	0x3d09be28	0.033628613
170	0xbd344d98	-0.04401931
171	0xbda3df16	-0.08001535
172	0x3bafeda0	0.0053689033
173	0xbd8452e0	-0.0646112
174	0xbdcdb846	-0.10044913
175	0xbd453d4c	-0.04815416
176	0xbd4e9b28	-0.050440937
177	0xbdbab8e6	-0.09117298
178	0xbd2d5410	-0.042316496
179	0x3bcc3680	0.006232083
180	0xbbaa7ac0	-0.005202621
181	0x3d990c12	0.07473005
182	0x3de381a2	0.1110871
183	0x38d43800	0.000101193786
184	0x3ced0e58	0.028937504
185	0x3de533e8	0.11191541
186	0x3dc9dac0	0.098561764
187	0x3d345944	0.044030443
188	0xbdef74f2	-0.116922274
189	0xbdae9dce	-0.085261926
190	0xbdf2a53a	-0.11847921
191	0x3ded2b8a	0.1158057
192	0xbd737554	-0.059438065
193	0x3ce0f740	0.027461648
194	0x3dbd0dcc	0.09231147
195	0xbd963fec	-0.07336411
196	0x3ca0f1e0	0.019646585
197	0xbd363371	-0.044482652
198	0xbdbfbd7e	-0.09362315
199	0x3d128478	0.035770863
200	0x3dba8060	0.09106517
201	0x3da2fee3	0.07958772
202	0x3cff85f0	0.031191796
203	0xbd352c5d	-0.04423176
204	0x3c3966ba	0.011315996
205	0xbb94c300	-0.0045398474
206	0x3ca1ca28	0.019749716
207	0xbdde28f6	-0.108476564
208	0xbdf2ebad	-0.11861358
209	0xbd94719a	-0.0724823
210	0xba9df505	-0.0012051171
211	0x3c9fd288	0.019509569
212	0x3db0cd2a	0.08632882
213	0x3d271fb8	0.040801734
214	0x3d1a475e	0.037665717
215	0xbdc76b82	-0.09737302
216	0x3d90c622	0.07069041
217	0xbd75d20e	-0.060014777
218	0x3c91f490	0.017816812
219	0xbd8f1d6e	-0.06988035
220	0x3ddba42b	0.10724672
221	0xbcb833df	-0.022485672
222	0x390d3267	0.00013465584
223	0x3da34f70	0.07974136
224	0xbdf48ea9	-0.11941273
225	0x3c913979	0.0177276
226	0x3dccbb01	0.09996606
227	0xbd451bb4	-0.048122123
228	0xbd868e29	-0.06570084
229	0xbdfaf5e9	-0.12253935
230	0x3dc03aa8	0.09386188
231	0xbde0b11c	-0.10971281
232	0xbd8fa76d	-0.07014356
233	0xbde546d6	-0.111951515
234	0x3cbb2878	0.022846445
235	0xbdeaa03c	-0.114563435
236	0x3cd8b330	0.02645263
237	0xbda4efe0	-0.08053565
238	0xbd7b7b34	-0.061396793
239	0xbcf20a8d	-0.029546047
240	0xbc1f8eca	-0.009738633
241	0xbbbc2409	-0.0057416004
242	0x3ac32d80	0.0014890879
243	0x3d4b084c	0.04956846
244	0x3dbe0bca	0.09279592
245	0x3d9dedc2	0.07711364
246	0xbdff6f09	-0.1247235
247	0x3c71a4a0	0.014748722
248	0xbde9c804	-0.11415103
249	0xbd0f3834	-0.03496571
250	0x3c99885d	0.01874178
251	0xbdd69476	-0.104775354
252	0x3defb3f2	0.11704244
253	0xbab23500	-0.0013596117
254	0xbda77a63	-0.0817764
255	0xbd4bd118	-0.049759954

shared_layers.2.bias f4 [32]
0	0x3e53b1da	0.20673314
1	0xbd9ef498	-0.07761496
2	0xbca47878	-0.020076975
3	0x3dec1b98	0.115287006
4	0x3d2bd3ba	0.041949965
5	0x3d46ad54	0.048505142
6	0x3d56a638	0.052404612
7	0x3bc1b660	0.0059116334
8	0xbb912500	-0.0044294596
9	0x3da12dea	0.078700855
10	0xbdadd49a	-0.08487816
11	0xbd3d7004	-0.046249405
12	0x3d872f43	0.06600811
13	0x3e266d81	0.1625271
14	0x3af7c480	0.0018903166
15	0x3cc083a8	0.023500279
16	0x3df68064	0.12036207
17	0x3e275b6e	0.16343471
18	0x3dc1509c	0.09439203
19	0x3e29a57b	0.16567032
20	0xbbe26f60	-0.0069102496
21	0x3c887e28	0.016661718
22	0x3d1f65bc	0.03891538
23	0xbda4e78c	-0.080519766
24	0x3dcf00d0	0.10107577
25	0xbd458a9c	-0.04822789
26	0xbd8c1dbb	-0.06841608
27	0x3d8ab50e	0.06772815
28	0x3e5b7d46	0.21434507
29	0x3cc8161c	0.024424605
30	0xbdad5ffe	-0.08465575
31	0x3e4a0772	0.19729403

shared_layers.4.weight f4 [8, 32]
0	0x3e099b0f	0.13438056
1	0xbcd72a6d	-0.026265347
2	0x3e1a6068	0.15075839
3	0xbe11f239	-0.14252557
4	0xbd8a98e0	-0.0676744
5	0x3e2a9ede	0.16662166
6	0x3d01d079	0.031692956
7	0x3d7011cf	0.058610734
8	0xbd68058b	-0.05664591
9	0xbdeafc64	-0.11473921
10	0x3ce12835	0.027484993
11	0x3d8f4c69	0.06996996
12	0xbd9384c1	-0.07203055
13	0x3e471d51	0.19444777
14	0xbc9a2944	-0.018818505
15	0xbdba0afd	-0.09084127
16	0x3de98ba5	0.11403588
17	0xbad5c2f3	-0.001630871
18	0x3e4b5fc6	0.19860753
19	0x3d8504e9	0.06495077
20	0xbda79bdc	-0.08184025
21	0xbd6cb3b1	-0.057788555
22	0x3c1d6280	0.009606004
23	0x3d3d7e71	0.046263162
24	0x3d253e22	0.040342458
25	0xbd374eca	-0.044752873
26	0xbe20e393	-0.15711813
27	0xbdc59ac3	-0.09648659
28	0x3e61ce3b	0.22051327
29	0x3ce3611d	0.027756268
30	0x3c9ff406	0.01952554
31	0x3dc31520	0.09525514
32	0xbcb5c295	-0.02218751
33	0x3dde4564	0.10853079
34	0xbe0b6744	-0.13613611
35	0x3d8a8646	0.06763892
36	0x3cdf0fd1	0.027229222
37	0x3e01aa34	0.12662584
38	0x3d0cf8c9	0.034416948
39	0xbd6383c4	-0.055545583
40	0x3e10a945	0.14127071
41	0x3d382691	0.044958655
42	0x3e301c7d	0.17198367
43	0xbdbfb27b	-0.09360214
44	0x3e04e7c9	0.12979044
45	0xbe27e7e8	-0.16397059
46	0xbe12db04	-0.1434136
47	0x3db0f83e	0.086410984
48	0xbd8e1f4e	-0.06939565
49	0xbe9c13bc	-0.30483806
50	0xbe684682	-0.22683147
51	0x3cd17ead	0.025573099
52	0xbe1ea360	-0.1549201
53	0xbd3a784b	-0.045524877
54	0xbd86d5b4	-0.065837294
55	0xbe030c77	-0.12797724
56	0xbdd30ad3	-0.10304799
57	0xbb14f919	-0.0022731482
58	0x3b75ed7a	0.003752558
59	0x3df80bf3	0.12111654
60	0xbd99ff62	-0.075194135
61	0xbdf3849c	-0.118905276
62	0x3e33b046	0.17547712
63	0xbe20dba3	-0.15708785
64	0xbe59ad5a	-0.21257535
65	0x3e224a4d	0.15848656
66	0x3db25c83	0.087090515
67	0x3dca3eda	0.09875269
68	0x3aa6668e	0.0012695359
69	0x3de16463	0.11005475
70	0x3c97c910	0.018528491
71	0xbe08b83c	-0.1335153
72	0x3d998439	0.074959226
73	0xbdd721a4	-0.10504463
74	0x3dbfef83	0.09371855
75	0x3d28df51	0.041228596
76	0x3d39aff6	0.045333825
77	0xbe53bad3	-0.20676737
78	0xbde38684	-0.11109641
79	0x3e190f28	0.14947188
80	0x3dcf4c5a	0.10121985
81	0xbe91629a	-0.2839554
82	0x3cad8c18	0.021184966
83	0xbc2b4a88	-0.010454781
84	0xbd552571	-0.05203766
85	0x3e1d23b5	0.15345652
86	0x3d8e37cd	0.06944237
87	0xbe2c19b4	-0.1680668
88	0xbc59f396	-0.013302704
89	0xbe2c8cb7	-0.16850553
90	0xbcd1af83	-0.025596386
91	0x3d3b29cf	0.04569417
92	0x3cb370ee	0.021904435
93	0xbe42c1d4	-0.19019252
94	0x3d098c97	0.033581343
95	0xbca88832	-0.020572755
96	0xbe8436d5	-0.25823084
97	0xbbed3ed1	-0.0072401543
98	0xbd8854ec	-0.066568226
99	0xbc48524f	-0.012226655
100	0x3db4b6f4	0.08823958
101	0xbddda790	-0.10822976
102	0xbd5ef9e1	-0.05443752
103	0xbe29ba80	-0.1657505
104	0x3e115bc9	0.1419517
105	0x3e0ec7d4	0.13943416
106	0xbe210811	-0.15725733
107	0x3e30f003	0.17279057
108	0xbdee6f1b	-0.116422854
109	0xbe51fb1a	-0.20505944
110	0x3d53a98c	0.051675364
111	0xbe2e6548	-0.17030823
112	0x3e0f3f6f	0.13989042
113	0xbd25ed42	-0.04050947
114	0xbe0196d5	-0.12655194
115	0xbdee6196	-0.11639707
116	0x3e2c665b	0.1683592
117	0x3e027e82	0.12743571
118	0xbd42d744	-0.047568575
119	0x3d4c88f2	0.04993529
120	0x3e0a3702	0.13497546
121	0xbdc9b9ee	-0.098499164
122	0x3ce131c8	0.027489558
123	0x3d4bbbc5	0.049739618
124	0xbd83835b	-0.064215384
125	0xbe40fb62	-0.18845895
126	0xbdaee9b4	-0.08540669
127	0xbe1dac62	-0.1539779
128	0xbce0c743	-0.027438765
129	0xbcba0cae	-0.022711124
130	0xbd8ca9d2	-0.06868328
131	0xbe27587b	-0.16342346
132	0xbd29f452	-0.041492768
133	0x3e1a3194	0.15057975
134	0x3d5688a7	0.052376416
135	0xbb6e6060	-0.0036373362
136	0xbd532fd6	-0.05155929
137	0xbcd06b89	-0.025441902
138	0x3c9e1517	0.019297166
139	0xbe246c0b	-0.1605684
140	0x3d8680bb	0.06567522
141	0x3d7c8234	0.06164761
142	0x3d3f216d	0.046662737
143	0x3d7ae8df	0.06125724
144	0xbc0c6dc0	-0.008571088
145	0xbe9496da	-0.2902134
146	0xbe3cbd45	-0.18431576
147	0xbe1f5154	-0.15558368
148	0xbe33e4c7	-0.1756774
149	0x3d2ca85c	0.042152748
150	0xbe0974d2	-0.1342347
151	0x3e331761	0.17489387
152	0x3db6ae08	0.089199126
153	0x3dfaf23b	0.12253233
154	0xbd99b472	-0.0750512
155	0xbd555a07	-0.05208781
156	0xbe87e471	-0.26541474
157	0xbe67f1a2	-0.2265077
158	0xbcef0593	-0.029177463
159	0xbe41b3e2	-0.18916276
160	0xbe536f63	-0.2064796
161	0x3b25351e	0.0025208662
162	0x3de87b00	0.113515854
163	0x3e117506	0.14204797
164	0xbd100547	-0.035161283
165	0x3dd9b428	0.10630065
166	0x3cb4d7b2	0.022075508
167	0xbcd5f582	-0.026118044
168	0xbc275142	-0.0102122445
169	0x3d1de480	0.038547993
170	0x3d7af40e	0.061267905
171	0x3dc6b200	0.097019196
172	0x3d8b0f45	0.06790022
173	0xbe631bcc	-0.22178572
174	0x3de09e74	0.109677225
175	0x3e1f478b	0.15554635
176	0xbddf3e97	-0.1090061
177	0xbd952501	-0.072824486
178	0xbe6c3246	-0.23066053
179	0xbda94899	-0.082658
180	0x3e1659d8	0.1468271
181	0x3e0eb24d	0.13935204
182	0x3e025e19	0.12731208
183	0x3c954dc6	0.018225562
184	0x3e28656d	0.16444941
185	0xbd758ef1	-0.059950773
186	0x3e1ada9d	0.15122457
187	0xb81c7bf8	-3.7308753e-05
188	0xbe8b9c09	-0.27267483
189	0xbd8820c3	-0.06646874
190	0xbdd2a4b1	-0.10285319
191	0xbe166dd1	-0.14690329
192	0x3d6efec9	0.05834845
193	0xbdc53e24	-0.09630993
194	0x3e085a42	0.1331568
195	0xbc6cd3e9	-0.01445482
196	0x3c868fe7	0.01642604
197	0x3e1ce019	0.15319861
198	0xbd27d1ff	-0.040971752
199	0x3e091fc5	0.13391025
200	0x3da1637f	0.078803055
201	0x3e1f5d9c	0.15563053
202	0xbdac0069	-0.08398516
203	0xbde053cc	-0.10953483
204	0x3d096449	0.033542905
205	0xbdbc358d	-0.091899015
206	0xbd4dc4d3	-0.050236534
207	0xbe09f581	-0.13472559
208	0xbe16cfea	-0.1472775
209	0xbbbffa61	-0.005858705
210	0xbd9f0a2f	-0.07765614
211	0x3d744007	0.059631374
212	0xbe131b9b	-0.14366
213	0xbd9acb0f	-0.075582616
214	0xbdec8303	-0.11548426
215	0xbd6c6d28	-0.057721287
216	0x3db1fb82	0.086905494
217	0xbb8a6ef4	-0.0042246524
218	0x3e27e1b6	0.16394696
219	0xbdfed72d	-0.12443385
220	0x3c8cf7ad	0.017207945
221	0xbe24fc82	-0.16111949
222	0xbdea61f1	-0.11444462
223	0xbe060797	-0.13088833
224	0xbe693cc1	-0.22777082
225	0xbcde9ca7	-0.027174307
226	0xbe0b92bf	-0.13630198
227	0x3d207599	0.03917465
228	0x3dbf3611	0.09336484
229	0x3da9048a	0.08252819
230	0xbdab0bdd	-0.08351872
231	0x3e2c9e43	0.16857247
232	0x3bfb75f1	0.007673972
233	0x3e298bc3	0.16557221
234	0xbd67ac84	-0.056561008
235	0x3d307ee8	0.043089777
236	0x3d9d15bf	0.07670163
237	0x3c383c5e	0.011244861
238	0xbe33f52d	-0.17573996
239	0xbd2f7b11	-0.042841975
240	0xbdd4b4fa	-0.10386081
241	0xbe990559	-0.29886892
242	0x3cacb412	0.021081958
243	0xbea5ea66	-0.32405394
244	0xbe25d303	-0.16193776
245	0x3e19bc7e	0.1501331
246	0xbdbd265a	-0.092358306
247	0x3d6dd62e	0.058065586
248	0xbd50bbd6	-0.050960384
249	0x3e2a7e29	0.16649689
250	0xbd55d130	-0.05220145
251	0x3da96835	0.08271829
252	0xbe1c87fc	-0.15286249
253	0xbe6a6d76	-0.22893319
254	0x3e06afad	0.13152952
255	0xbe0c0b85	-0.1367627

shared_layers.4.bias f4 [8]
0	0x3e695c19	0.22789039
1	0xbe589d34	-0.21153718
2	0xbe73947d	-0.23787113
3	0x3cae41d7	0.02127163
4	0xbe33e5ef	-0.17568181
5	0xbdf825db	-0.12116595
6	0x3d8b5e67	0.06805115
7	0xbc284e06	-0.0102725085
