training/models/controller_controller_acc0.95_lat0.012_succ5_small7_large10_carb15_cap610_rate0.000269_best_model.pth (torch, 18445 bytes, 6 tensors)

shared_layers.0.weight f4 [64, 3]
000000 5a 93 d7 be ce f0 74 3e bf ab 34 bd de 94 fa 3e
       -0.42104608 0.23919985 -0.044109102 0.48941702
000010 6f dd 57 be e1 22 16 3e 5a cd 39 be ed 5e 7b 3e
       -0.21080564 0.14661743 -0.18144742 0.2454793
000020 31 63 52 bd 55 26 af 3e f5 ff b2 3d 8b c5 74 be
       -0.051364128 0.34208933 0.08740226 -0.23903482
000030 19 6d 11 3e 00 2c 9c be 90 01 75 3e f0 3a d0 be
       0.14201774 -0.3050232 0.23926377 -0.40669966
000040 70 ea 94 be 6c 63 a6 be 9a bd 79 be 7a 07 d2 3a
       -0.29085112 -0.32497728 -0.24388734 0.0016023957
000050 0f 0d 44 bc 30 ca 11 3f b9 9e 5c bd cd 17 f2 3e
       -0.011966004 0.5694914 -0.053862307 0.47283784
000060 c7 ae 10 3f 05 83 97 3e 94 95 88 be d1 ea 06 3f
       0.5651669 0.29592147 -0.2667662 0.5270205
000070 c0 23 fe 3e 07 b9 f1 3e 98 a5 11 bf 2d 0a cc be
       0.4963665 0.47211477 -0.568933 -0.39851514
000080 81 97 ce be 6f 24 77 be d2 c8 fc 3e b4 45 79 be
       -0.40349963 -0.24134992 0.49371964 -0.24342996
000090 8f 23 e2 be 18 61 40 3e a2 f1 06 3f 04 0c 63 bd
       -0.44167754 0.18787038 0.5271245 -0.05543138
0000a0 7b 23 d7 be 22 f1 0f 3f 05 85 38 3e 22 7f 43 3e
       -0.42019257 0.56227314 0.18019493 0.19091466
0000b0 e6 a9 cd 3e 82 39 74 3e c6 75 bf be 88 04 57 3e
       0.40168685 0.23850062 -0.37394542 0.20997822
0000c0 d8 e5 0d bf 89 09 bd bd fe 65 ff 3e ea eb af 3d
       -0.5542884 -0.09230334 0.498825 0.08589919
0000d0 c1 f4 07 3e f3 4d 6d be eb df a1 be e3 4c a6 3e
       0.1327696 -0.23174267 -0.31616148 0.32480535
0000e0 f6 10 cc 3d 12 1b eb bd 89 91 89 3e c7 44 35 3e
       0.099641725 -0.114797726 0.26868847 0.17702018
0000f0 f9 96 2c be 84 24 ae 3e 6b f2 b4 3e 60 f3 f8 3d
       -0.16854466 0.34012234 0.353412 0.12155795
000100 f1 1e d4 3c 8c 4d b7 be d4 32 24 3f 94 6c b7 3e
       0.02589366 -0.3580135 0.6414006 0.35825026
000110 03 c8 06 3f 1c 4d 09 3c bb 85 25 3d 58 72 a9 be
       0.52648944 0.008380201 0.04041074 -0.3309505
000120 c8 90 4e b8 2e 98 2e 3f 51 8d 31 3e e7 e6 e0 3d
       -4.9249065e-05 0.6820096 0.17339064 0.10981541
000130 e3 84 0d be b7 a6 a9 be 3a b4 f1 3e 69 9a b0 be
       -0.13820224 -0.33135006 0.47207814 -0.34492806
000140 c3 58 0d 3f 6f fc 39 3e fa 11 d2 be 2a bf 22 be
       0.55213565 0.18162702 -0.4102934 -0.15893236
000150 37 ad 5a be a3 ad 09 bf 5d 68 0b 3f 6e 2b 10 3f
       -0.21355139 -0.53780574 0.5445612 0.5631627
000160 bb 41 57 3d ce 20 55 3e 51 f9 89 3e c0 b9 a9 3e
       0.05255292 0.20813295 0.26948026 0.33149529
000170 6c c2 21 3f f0 a0 97 be ff c8 3a be 7f b4 cc bd
       0.6318729 -0.29614973 -0.18240736 -0.099953644
000180 69 f1 a0 be 2a db ba bd bb c2 01 3f 6d 08 e5 be
       -0.3143418 -0.091238335 0.5068776 -0.4473299
000190 ba c0 be 3e 33 1e 11 3e 25 e9 2c 3f 30 6b d8 be
       0.37256414 0.14171676 0.6754325 -0.42269278
0001a0 e7 10 1f 3e b6 90 18 3d 4a f4 b9 3d 09 94 56 3e
       0.15533791 0.037247382 0.090797976 0.20954908
0001b0 27 bd e3 3e 5c 15 de be 37 f6 8e be 5f 7f 0c 3f
       0.4448025 -0.4337567 -0.27922222 0.5488185
0001c0 9e 78 2b 3d f4 30 e9 3c ac 1a 07 3d ba dc c6 3d
       0.041863076 0.028465725 0.03298442 0.09710069
0001d0 2a 46 63 be f5 5e e8 3e 86 b4 3b 3e 69 87 4d be
       -0.22194734 0.45384946 0.18330583 -0.20071186
0001e0 da 4e bb be 3e a7 97 3e 72 5e e8 3e fb c4 d0 be
       -0.36583596 0.29619783 0.45384556 -0.40775284
0001f0 e7 b8 6d 3e aa b3 18 3e 09 52 de be 46 ac d4 bd
       0.23215066 0.14912286 -0.43421963 -0.10384421
000200 a0 7e d1 be de cf bc be 6e 44 75 bd 9e b9 28 3e
       -0.4091692 -0.3687734 -0.059879713 0.16477057
000210 22 f2 97 3e ac f4 4f 3e 0e 81 b3 be 1f f0 1f 3f
       0.2967692 0.20308179 -0.35059398 0.6247577
000220 10 c7 39 be cd 1d bb be 6a 5a d1 be 45 05 81 be
       -0.18142343 -0.36546174 -0.40889293 -0.25199333
000230 24 41 fd be 40 fb a8 be 2b 78 93 3e 9d 15 fc 3d
       -0.4946376 -0.3300419 0.28802618 0.1230881
000240 40 8d 2d be 52 3e 1a 3e dd e9 e5 3e 07 db 03 3f
       -0.16948414 0.15062836 0.44904986 0.51506084
000250 29 09 73 be 9b e9 5d be 79 f5 fb be b6 ac 75 3d
       -0.23733963 -0.21671145 -0.49210718 0.059979163
000260 a8 ad 04 bf 57 0b 36 be 9e b1 cc 3e dd 37 21 3f
       -0.5182748 -0.17777763 0.3997926 0.62975866
000270 b2 5a 04 3f ce 39 ce 3e 3d af 1c 3e be 12 aa 3d
       0.5170089 0.40278476 0.15301223 0.08304356
000280 b0 49 2a 3f 54 84 01 bf 5e 07 0d 3f c4 9a 5b 3e
       0.6651869 -0.5059254 0.55089366 0.21445757
000290 99 9a e5 3e 62 d3 2c 3e 68 d0 e4 3e a6 ff 04 3f
       0.4484451 0.16877511 0.4469025 0.5195259
0002a0 43 81 b5 3e d8 82 b6 be b5 f7 63 bd e8 b8 cb be
       0.3545018 -0.356467 -0.055656154 -0.3978951
0002b0 f4 26 cd be fc 28 ca be 18 81 e7 bd 76 02 ce 3e
       -0.4006878 -0.39484394 -0.113039196 0.40236253
0002c0 76 14 a0 3e 32 ad ff 3e 07 7e 0d 3f 50 f2 a8 3e
       0.3126561 0.49936825 0.5527043 0.3299737
0002d0 d4 a3 5b 3e 8a d4 03 3f c4 12 a6 be e0 54 11 3f
       0.21449214 0.51496184 -0.32436192 0.56770134
0002e0 b2 dd 96 be 20 8b c4 3d 32 54 00 3f 04 49 0b bf
       -0.29466015 0.095968485 0.5012847 -0.5440829
0002f0 79 78 e0 be 99 77 d1 be d0 2f 98 be 74 0f d6 be
       -0.43841913 -0.40911558 -0.29723978 -0.41808665

shared_layers.0.bias f4 [64]
000000 71 dd 8e bd 55 dd da 3c c2 6a 0f 3f 30 73 11 3e
       -0.0697583 0.026716867 0.56022274 0.14204097
000010 f2 e8 1e be 4a c3 16 3e 8a dc bc bd 65 8e 09 3f
       -0.15518549 0.14722934 -0.09221752 0.537329
000020 60 e3 8e 3e 7f b4 a6 be 1e 46 36 3e 7a 4a 0f 3f
       0.27907848 -0.32559583 0.17800185 0.5597302
000030 c7 9c 8a bd e3 4c 06 bf 8e da e9 3e 05 6d a8 3e
       -0.06768184 -0.5246107 0.45674556 0.32895675
000040 18 53 a3 be f1 4f a9 3e e3 33 d2 be 8c 49 17 3d
       -0.31899333 0.33068803 -0.4105521 0.036935374
000050 75 31 0a bf b4 16 8a 3e 57 75 ff 3e e9 07 c6 3e
       -0.53981715 0.26970446 0.4989421 0.3867791
000060 31 48 0b 3f 7c ac be 3e da 91 e3 bd 24 97 9c be
       0.5440703 0.3724097 -0.11111803 -0.3058406
000070 62 59 83 be e3 ea 78 be ee 92 cc bd 41 76 dc be
       -0.2565413 -0.24308352 -0.09988962 -0.4305897
000080 3d e4 d2 bd db c1 cb be 80 84 88 3e ac 18 c8 3e
       -0.10297439 -0.39796337 0.2666359 0.39081323
000090 5e 1d c4 be 3b 31 dc bd 66 63 a0 be 64 c5 19 3f
       -0.38303655 -0.107515775 -0.31325835 0.6006682
0000a0 a4 55 8f bc 7f 1a ff be ca c0 54 3e fb 0e bc 3e
       -0.017496891 -0.49824902 0.20776668 0.3673018
0000b0 9a 0e b3 3e 71 ce 39 be e5 fd e9 be 00 9e 9d 3d
       0.34972078 -0.18145157 -0.4570152 0.07696152
0000c0 81 0e e1 be 42 7d fc be 74 51 72 be 93 1a 2a 3f
       -0.43956378 -0.49314314 -0.23663884 0.664468
0000d0 5a a3 d2 3e d8 1c db 3c b7 21 07 bd 44 f4 da 3b
       0.41140252 0.026747152 -0.032991137 0.0066819508
0000e0 00 5e 3a 3e 62 fa f3 be 05 a1 81 3e 38 1c 08 be
       0.1819992 -0.47651964 0.2531816 -0.13292015
0000f0 2c 55 ac 3c 4a fa d0 3e 78 89 dc be 76 76 ac 3e
       0.021036707 0.40815955 -0.4307363 0.3368413

shared_layers.2.weight f4 [32, 64]
000000 a0 d6 20 bc f1 56 bc bc b6 44 51 3d f9 df 4c bd
       -0.009816796 -0.022990676 0.05109092 -0.050018284
000010 5e 33 aa 3d a8 95 9f 3c 82 bd cf 3d 6d 8a 8a bc
       0.08310579 0.019480541 0.101435676 -0.01691171
000020 67 6a d8 bd f7 b3 7f bd 4a 58 ce bd dd 35 36 bd
       -0.1056717 -0.062427487 -0.100754336 -0.04448496
000030 be 7c 9b bd 1c 88 c4 bd c4 4c 9b 3d 6e 0f f3 bc
       -0.07592152 -0.09596273 0.07583001 -0.029670443
000040 00 48 f2 bb e6 4c a5 3d 70 f7 9f bd 50 99 f5 bc
       -0.007393837 0.08071308 -0.07810867 -0.029980332
000050 30 82 20 3c b8 47 bc bd d6 78 86 3d 04 3d ce 3d
       0.009796664 -0.09193367 0.065660164 0.100702316
000060 bb 25 ea 3c d4 1d e2 3d d8 51 02 be cc 35 93 3d
       0.028582444 0.110408455 -0.12726533 0.07187995
000070 ac 2c 63 bd ba 92 18 bd c4 ed 0e bd 16 61 d0 3d
       -0.055462524 -0.037249304 -0.03489472 0.10174768
000080 b0 e8 3f 3d 30 a0 0b 3c fd 28 51 3c ba d2 c1 3c
       0.046852767 0.008522078 0.01276612 0.023660053
000090 44 9b c4 bd 54 3f 97 3d 90 f7 28 bc 74 68 a1 3c
       -0.09599927 0.07385126 -0.01031293 0.019703127
0000a0 16 29 fb 3d de ef b0 3d 80 fc c8 ba 6c 58 ba 3d
       0.12263696 0.08639501 -0.001533404 0.090988964
0000b0 ba f9 4e bd e1 f9 bf 3d 58 00 f6 bc 20 91 8f 3d
       -0.050531127 0.093738325 -0.03002946 0.07010102
0000c0 a4 ef e3 3d e0 2a 36 3d 0c 90 bb bd 01 e5 c1 bc
       0.11129692 0.044474483 -0.09158334 -0.023668768
0000d0 ce 6a b2 3c a2 6c 9f bd db 5b 50 bc 54 5c ab 3d
       0.021779444 -0.07784392 -0.012717213 0.083672196
0000e0 fb 67 aa bd 48 c1 f3 3d 84 bf d9 3d 85 d7 ce 3d
       -0.08320614 0.119021 0.10632232 0.10099701
0000f0 04 20 60 bd 6f b3 d2 bd 6a ea 92 bd 6c d7 e8 3d
       -0.054718032 -0.102881305 -0.07173617 0.113692135
000100 e0 90 47 bd e1 f1 8d bd 46 7a e0 bd 3b 80 02 3d
       -0.048722148 -0.069309 -0.10960822 0.03186057
000110 b4 b7 ed 3d f0 cc a9 bd 28 eb 24 3d 48 ff c6 3b
       0.11607304 -0.08291042 0.040263325 0.0060729124
000120 0f bd 8f 3d f3 11 1e bc 74 01 b4 3d 36 3e b0 3d
       0.07018482 -0.009647834 0.0878934 0.08605616
000130 42 f7 e8 3d f4 d8 54 bd 0e 78 b3 3d 17 d8 b0 bd
       0.11375286 -0.051964715 0.08763133 -0.08634966
000140 6a 46 d1 bd 5a ff 29 3c a0 24 5e 3c d4 bd 12 be
       -0.102185085 0.010375822 0.013558537 -0.14330226
000150 f4 b1 8a bd b1 6e 0b 3d 6f da 9a 3d 27 ae 18 be
       -0.06772223 0.03404111 0.07561194 -0.14910184
000160 8f 42 9a 3c 0c de bc 3d 81 82 95 3d 40 94 e9 bd
       0.018830566 0.092220396 0.07300282 -0.114052296
000170 e8 ab 99 bd bc fb e9 3c 4b 53 ae bd b2 e9 e7 3d
       -0.07503492 0.02856242 -0.085119806 0.11323871
000180 9c e9 49 bd ec 25 68 bd b1 eb c0 bd ed 2a 1d be
       -0.049295053 -0.05667679 -0.094199546 -0.15348406
000190 5c a0 4d bd 56 36 9b bc 20 34 77 bd 87 98 5b bd
       -0.05020176 -0.018946808 -0.060352445 -0.05361226
0001a0 76 d8 f4 bd dc c8 92 3d 5c 3a 2a bd bd 52 79 3c
       -0.11955349 0.07167217 -0.041559562 0.01521748
0001b0 50 8b 62 bd 30 23 c7 bc f0 30 3f 3c 00 7d 71 3a
       -0.05530864 -0.02430877 0.011669382 0.0009212047
0001c0 90 40 48 3d 0e 34 e4 3d 56 9c 87 bd 64 13 21 bc
       0.048889697 0.11142741 -0.066216156 -0.009831283
0001d0 62 78 46 3d 38 80 14 be 34 23 f9 3c cb 73 1b 3c
       0.04845465 -0.14502037 0.030412294 0.009488056
0001e0 6c 9d 91 bd 98 a5 8b 3c 7d b3 81 bd 76 aa 98 3d
       -0.07110104 0.017046735 -0.06333063 0.07454388
0001f0 52 9b f9 3c 33 9a 1a be fe 65 fe bd 60 7d 1b bd
       0.03046957 -0.15097885 -0.12421797 -0.037961364
000200 bc 23 2c bd 1e 1a f9 3d e9 6a 01 3e b7 0b 1b 3d
       -0.042026266 0.121631846 0.12638439 0.03785297
000210 90 fa 66 bc 80 3b 51 bb da cb ef bd 3e 3f 55 3d
       -0.014097825 -0.0031926334 -0.117088035 0.052062266
000220 44 be 30 3e 86 89 d7 3d 1a 11 d7 bd cf 6e 16 3e
       0.1726008 0.105242774 -0.10501309 0.14690708
000230 d2 b4 fd 3d 10 e4 87 3c de 27 4c 3d f8 ae 6b 3e
       0.12388004 0.01658824 0.049842708 0.23015964
000240 60 62 eb bd c8 0b 81 3d 18 46 f8 3c a3 e3 e8 b9
       -0.11493373 0.06301075 0.03030686 -0.0004442009
000250 0c c7 5f 3d 50 61 08 3e d1 92 62 3e 84 11 34 3e
       0.054633185 0.13318372 0.22126319 0.17584807
000260 60 e2 dd ba c9 3b e0 3d d8 80 4b 3e c0 00 0e bd
       -0.0016928427 0.10948903 0.19873369 -0.034668684
000270 80 13 fe bd 35 77 e1 3d dc 4c 71 3d ac 4b 92 bd
       -0.12406063 0.11009065 0.05891119 -0.071433395
000280 60 69 6c 3c 22 b3 a9 3d f6 98 5d 3e 4a 83 6c 3e
       0.01442942 0.0828612 0.21640381 0.23096958
000290 0c 18 32 bd 06 21 42 3e 00 90 53 bd 20 b4 ff 3d
       -0.043479964 0.1895791 -0.051651 0.12485528
0002a0 2a a0 cf 3d 38 50 85 bd 0e 81 c0 3d 19 4f 4f bb
       0.10137971 -0.06509441 0.09399615 -0.003163284
0002b0 d8 6f 1b bc 90 79 23 3e 70 5f a4 bd d0 a7 8c 3d
       -0.009487115 0.15964341 -0.08026016 0.06867945
0002c0 4c 13 1c bd 3a ea 80 3d a0 e3 c5 bc 86 65 60 3e
       -0.03810434 0.06294675 -0.024156392 0.21913728
0002d0 fd 43 e1 3d e0 3b 6b 3e c5 53 31 3e 7f ca 0a 3e
       0.10999296 0.22972059 0.17317112 0.13553809
0002e0 88 b5 49 3e ec 1d 85 3d 3e 39 fd 3c f9 95 6b 3c
       0.19698155 0.06499848 0.030911084 0.014379018
0002f0 af e8 3b 3d 41 40 f8 3c 38 86 1c bd aa 5b be 3d
       0.0458762 0.030304076 -0.03821394 0.09294827
000300 40 6e c2 3b c1 28 34 bd 1d fc 29 bd cb 54 19 3c
       0.005933553 -0.04398418 -0.0415002 0.009358595
000310 30 69 eb 3d f0 03 43 bd dc dd 4a bd db 93 04 bd
       0.11494672 -0.047611177 -0.049527988 -0.03236757
000320 66 c1 24 3b 6e b0 28 bc a0 5a 43 3d 81 ba 85 3d
       0.0025139689 -0.01029597 0.04769385 0.065297134
000330 f8 cc 23 3d a0 c4 64 bd cc 12 8b 3d 57 db bd bd
       0.039990395 -0.05585158 0.067906946 -0.092703514
000340 00 90 e7 3d eb 04 fd bd c0 22 50 3b a6 ac fa 3c
       0.11306763 -0.12354454 0.0031758994 0.030599903
000350 1a d8 ca bd 9c 7b c1 3d 35 f7 10 3c d2 46 a5 bd
       -0.09904499 0.09447405 0.008848001 -0.080701485
000360 30 c1 34 3d 08 80 bb bd b2 33 c0 3d a0 8c df bb
       0.04412955 -0.091552794 0.0938486 -0.0068221837
000370 52 0b dc bd b7 51 c3 bd b2 1f b4 3c d0 4e 72 3d
       -0.10744347 -0.0953707 0.02198777 0.059157193
000380 1c d5 14 bd c0 9e 4a 3d c7 bc c2 bd e6 ef ac bd
       -0.03633605 0.049467802 -0.09508663 -0.084441945
000390 26 79 ec bd 72 a3 d2 ba 0a 5b eb 3d a3 20 ff bd
       -0.11546545 -0.0016070439 0.11491974 -0.12457397
0003a0 bc ed c8 bd 9a 28 96 3d 7c eb bf bd e5 f6 a7 3d
       -0.09810969 0.07331963 -0.09371087 0.08201388
0003b0 90 c8 a5 3c 68 ae 45 bd b8 47 16 3d a2 df b3 3d
       0.020237237 -0.04826203 0.03668949 0.08782889
0003c0 46 68 e8 bd a0 55 47 3c 3a 73 aa bd f9 e7 c3 3d
       -0.113480136 0.012166411 -0.08322759 0.0956573
0003d0 fd bf 40 3d 48 c4 bc 3d a5 3e e2 bc a5 4f a1 3d
       0.047058094 0.09217125 -0.027617762 0.07876519
0003e0 28 3b 15 be c2 dc cd bd f3 34 eb bd be ac 1b be
       -0.14573348 -0.10051872 -0.11484709 -0.15202615
0003f0 2d 2e 79 bd 55 12 b0 bd 00 a0 b4 37 46 aa ac bd
       -0.060835052 -0.085972466 2.1532178e-05 -0.084309146

shared_layers.2.bias f4 [32]
000000 1b 79 b7 bd 7a 85 02 be 9c bc 2c 3d 10 aa 9c 3d
       -0.08958646 -0.1274623 0.04217206 0.07649624
000010 20 60 98 bc 22 d7 c4 bd 24 aa 1b 3d 1f 97 34 3e
       -0.018600523 -0.09611346 0.038004056 0.17635773
000020 eb 31 de bd c0 6a 17 bc 34 e1 9e bd f0 ed 24 3c
       -0.10849365 -0.00924176 -0.07757798 0.010066494
000030 af a5 82 3d 50 21 2e 3d 76 6b c6 bd e3 59 fd bc
       0.06379258 0.042512238 -0.09688465 -0.03092665
000040 00 ec 45 3c cb 29 33 3e ec c0 16 3d 16 dc fe bd
       0.012080193 0.17496412 0.03680508 -0.12444322
000050 c1 5b 2a bd b0 ce 2e bc ea 67 88 3d ec f0 1e bd
       -0.04159141 -0.010669395 0.06660445 -0.03880398
000060 a4 2e d7 bd b4 4d 3a 3d f7 70 a1 3d 35 8c 37 3d
       -0.10506943 0.04548426 0.078828745 0.044811446
000070 24 71 30 3d 02 74 c3 3c c0 2c 63 bc 4e af 3b 3e
       0.04307665 0.023859028 -0.01386565 0.18328592

shared_layers.4.weight f4 [8, 32]
000000 9d 92 a3 3c 4f a5 81 bd 70 93 75 3e 9b 7b 2a bc
       0.019967372 -0.06330358 0.23982024 -0.010405446
000010 95 fa b5 3c ae d8 a5 bd 3f 37 31 be 71 9c 75 3e
       0.022214213 -0.08097969 -0.17306231 0.23985459
000020 af a5 9e 3d f2 38 aa bd 20 cc 7e bb 90 d9 f1 ba
       0.077464454 -0.08311643 -0.0038878992 -0.001845168
000030 44 e3 7e 3b 09 c7 3e bd f5 0f 1e be 70 53 83 3e
       0.0038892785 -0.046576533 -0.15435775 0.25649595
000040 27 b2 12 be 05 26 86 3e 70 9b 29 3e c5 4f 2f 3e
       -0.14325772 0.26200882 0.16563201 0.17120273
000050 d9 0a 7c 3c 83 62 2c be 0b e1 d0 bd b7 d2 79 3d
       0.015383446 -0.16834454 -0.101991735 0.06099197
000060 cd 4f 0b be ec 78 55 3c a1 42 a2 3d 1d 84 d3 3d
       -0.1360466 0.013029318 0.07922865 0.10327933
000070 26 95 e4 bd f2 c6 7f 3e b1 53 09 3d 4e 24 2b 3e
       -0.1116126 0.24978235 0.03352708 0.16713068
000080 aa 61 b0 3d 9d e1 c1 3d ab 63 17 be d8 e2 12 3e
       0.08612378 0.094668604 -0.14784114 0.14344347
000090 83 a0 18 3d ef 04 6f 3d 30 49 f8 bd 18 11 22 bd
       0.03726245 0.058354314 -0.121233344 -0.039567083
0000a0 0e a7 c9 3d 9c 91 34 be 33 ec 41 3d 0d 74 ee bd
       0.09846316 -0.1763367 0.047344398 -0.11643229
0000b0 ba e3 cc bd d7 c7 f1 bd 35 cc 1f 3e fe 32 eb bd
       -0.10004373 -0.118056946 0.15605243 -0.11484335
0000c0 e4 f8 21 3e 6a 30 f0 3c d7 0b 89 bd c7 b3 be 3d
       0.158176 0.02931996 -0.066917114 0.093116336
0000d0 d7 42 6c 3d 3c 26 4d 3a e2 dd bf 3d ad ac ad bd
       0.05768093 0.0007825827 0.09368493 -0.08480201
0000e0 8d 5c ee 3d 61 24 77 3d 8a 69 0d be a3 0e 70 be
       0.116387464 0.060337428 -0.13809791 -0.23443083
0000f0 fe 0f 08 bc 5a 7d ed bd 9a 42 14 be 4d 98 8d be
       -0.008304594 -0.115961745 -0.14478531 -0.2765526
000100 e6 56 66 3d 6b 46 c8 bd 79 26 3b be ec e0 f5 3d
       0.056235217 -0.09779056 -0.18276395 0.12005791
000110 7c 79 f5 bd cb b0 13 3e 73 bf 23 3e fe 38 a6 bc
       -0.11986062 0.1442291 0.15991001 -0.020290848
000120 36 4f d7 3d 19 05 24 be a9 ee 5d 3d 82 97 22 be
       0.10513155 -0.1601757 0.054182682 -0.15878108
000130 47 28 96 3d f7 9f 48 3d 60 f7 1b 3e cc dd 7c bd
       0.07331901 0.04898068 0.15231085 -0.06173496
000140 60 37 68 3d 91 ad 5c bc 8b 4a 50 bb 5f d1 0f 3c
       0.056693435 -0.013469116 -0.0031782712 0.008777945
000150 58 9a 2e 3e c9 b8 44 3d 13 57 3e be 13 08 e8 bd
       0.17051065 0.048027787 -0.18587904 -0.11329665
000160 78 0e 15 be e8 31 0b be 48 e0 87 bd 26 d6 0a be
       -0.145563 -0.13593256 -0.06634575 -0.13558254
000170 db bf 13 3e f3 61 16 be b7 c5 b7 3d 03 77 6c be
       0.14428656 -0.14685802 0.08973258 -0.23092274
000180 ba e9 e1 3d c2 5a d3 3d 76 f9 ec bd 98 1a ab 3d
       0.11030908 0.10320045 -0.115710184 0.08354682
000190 eb 5a 27 3e 4d cb 2d 3e 3d 69 95 bd ba ce d1 bc
       0.16343276 0.16972084 -0.07295463 -0.02561127
0001a0 ff fe 27 3e be bc 32 3e b9 a0 2f 3e 10 25 2a 3e
       0.16405867 0.17454812 0.17151155 0.166157
0001b0 06 69 22 3d c3 4b ef bd 3e 2d 22 be 1a 91 98 be
       0.03965094 -0.11684372 -0.15837571 -0.29798204
0001c0 26 61 d8 3d 84 69 0a be cd 5e 03 be 65 53 f0 bd
       0.105654046 -0.13516814 -0.12829132 -0.11734656
0001d0 93 c3 13 3e 04 16 38 3d ef 3f ef 3c 6d fc 37 3d
       0.14430074 0.04494287 0.02920529 0.044918466
0001e0 a3 53 f0 bc 5b 9d 27 3e fd 2d 45 bd e6 03 db bd
       -0.029336756 0.1636862 -0.04813956 -0.10694103
0001f0 00 82 6c bd 2e e4 76 bc 49 5f 2a be b8 06 25 bd
       -0.057741165 -0.015069051 -0.16637911 -0.04028961
000200 a3 e0 f5 3d 3c 9b d3 3d 53 d9 74 be 6a 63 0b be
       0.12005737 0.10332343 -0.23911028 -0.13612142
000210 e2 1b 23 3e a2 bb f3 bc 4a d2 3f 3d a3 f7 34 bd
       0.15928605 -0.029752556 0.046831407 -0.044181477
000220 3e 32 b7 bc e7 36 1b be cf 64 df bc fc 59 0b be
       -0.022362825 -0.15157662 -0.027269749 -0.13608545
000230 67 60 e6 3d f0 84 f1 3d 1e 24 18 be 5a ee 07 be
       0.11248856 0.11792934 -0.14857528 -0.13274518
000240 de 44 07 3e d0 4d 52 be 97 a8 4e 3d bb c7 36 bd
       0.13209864 -0.20537496 0.05045375 -0.04462407
000250 bd f2 b5 3d 1c ae 13 be d1 15 2b be 17 f3 a4 3c
       0.08884189 -0.14421886 -0.16707541 0.020135446
000260 f9 ac 25 bb 15 4d 96 3c 4c 5c cb bd 67 6e c3 bc
       -0.0025280102 0.018347302 -0.099297136 -0.023856355
000270 c1 e2 fe 3c d4 9d 88 be 80 7b df 3d 0b b1 9e 3c
       0.031113984 -0.26682913 0.10912228 0.01937153
000280 57 00 50 3d 68 d2 41 be 32 ec 2b be f8 73 0c 3d
       0.050781574 -0.1892792 -0.1678932 0.034290284
000290 3a 3f 25 be f4 e7 0b 3d 0e 58 2b 3e a4 c7 f0 bd
       -0.161374 0.034156755 0.16732809 -0.117568284
0002a0 ce 00 03 3d 91 1c 9d 3d 19 85 f3 3d 87 7a 24 3e
       0.03198319 0.07671464 0.11890621 0.16062365
0002b0 a3 78 07 be bd 61 1d be de e2 92 bd f1 47 35 be
       -0.13229613 -0.15369315 -0.07172178 -0.17703225
0002c0 0f 4e 67 3c 2d 80 c5 bd 5a 18 d3 bd 2b 9c d7 bd
       0.014117732 -0.09643588 -0.10307379 -0.105278336
0002d0 ff 40 0c be 56 bc bb bd 1b ee 7e bd bc cf 31 3e
       -0.13696669 -0.091667816 -0.062238794 0.173644
0002e0 6c c0 24 3e 4d cc b0 3d 2b 1d 4a be 29 9e 87 be
       0.16089028 0.08632717 -0.19737689 -0.26487854
0002f0 b9 f0 27 bd 99 ce 2f be cb cf 0c 3e aa 6b 39 be
       -0.041001055 -0.17168655 0.13751142 -0.18107477
000300 43 25 21 3e bc c8 ed bc b7 81 bd 3d ee ec bb 3d
       0.1573687 -0.029026382 0.09253257 0.0917605
000310 f9 47 d8 bd 02 45 10 be c2 65 52 bd 22 73 cf bc
       -0.10560603 -0.14088824 -0.051366575 -0.025323454
000320 6c f1 e9 bb c8 c5 cc bd 34 9c 9c bc 49 9e 0e 3e
       -0.0071393754 -0.09998661 -0.019117452 0.13927568
000330 cd f4 0d 3e a8 31 16 3e 7c 3a 6c bc 0c c6 b3 bd
       0.13862915 0.1466738 -0.014418241 -0.08778009
000340 c5 c7 f9 3c ca 03 fa bd 68 0c 63 bc aa 42 bc bd
       0.030490765 -0.12207754 -0.013857938 -0.09192403
000350 40 c9 34 be 8e 6c 6d 3d ac 41 00 3e dc aa f7 bd
       -0.17654896 0.057964854 0.12525052 -0.12093136
000360 27 ed 62 bd 1a de 6f 3d 1e 17 b9 3c 78 30 aa bd
       -0.055401947 0.058561422 0.022594031 -0.08310026
000370 8a bb 17 bc f7 ff 2d 3e c7 81 2c 3e 44 10 cd 3c
       -0.009261021 0.16992174 0.16846381 0.02503217
000380 23 b4 1f 3e 4b cb 3a 3d fa df dd bd 7c 35 25 3d
       0.1559606 0.04560403 -0.10833736 0.04033421
000390 6f ef a4 bd 76 f9 2d 3e 30 e3 2a be e7 d6 8e be
       -0.08053481 0.16989693 -0.16688228 -0.27898332
0003a0 62 b3 c1 3b 76 7c 6a bd a2 a8 db bd 8e 19 93 3d
       0.0059112767 -0.0572476 -0.107255235 0.071826085
0003b0 9b ec 05 bb bc 29 b6 3d 56 47 b8 3d 94 bc 01 be
       -0.0020435217 0.08894679 0.08997981 -0.12669593
0003c0 eb 8c 20 3e 35 f4 96 be 43 b5 9f be 5f 4a 71 bc
       0.15678756 -0.2948319 -0.3119298 -0.014727204
0003d0 a5 b4 0b 3e fb 70 df bd c2 dd 07 be 3a b5 bc bc
       0.13643129 -0.10910221 -0.13268188 -0.023035634
0003e0 57 e2 b1 bd f7 fd 78 3c 3c ba b6 be 7c c8 8b be
       -0.08685749 0.015197269 -0.3568896 -0.27301395
0003f0 c8 0d c9 bd c9 c2 da bd a6 56 fb bb ba 7e 3a be
       -0.09817082 -0.106816836 -0.0076702414 -0.18212405

shared_layers.4.bias f4 [8]
000000 04 42 e1 3b fd 19 3a 3d 7d c5 b4 bc cf d3 a0 3d
       0.0068743248 0.04543494 -0.022066826 0.07852899
000010 fb bc a2 3d dc dc ba bc bf 91 90 bd eb 06 0e be
       0.079462014 -0.022810392 -0.07059049 -0.13869826
