training/models/controller_controller_acc0.819_lat0.006_succ5_small7_large10_carb15_cap610_rate0.000269_best_model.pth (torch, 18457 bytes, 6 tensors)

shared_layers.0.weight f4 [64, 3]
000000 b3 70 a8 3d 21 a1 d5 3e 54 0b 2e be a1 01 05 bf
       0.08224621 0.41724494 -0.16996509 -0.5195561
000010 be 64 03 bf 4a f4 04 3f 8b 38 af 3d 7f 01 e0 3d
       -0.51325595 0.51935256 0.085557066 0.10937785
000020 7f 8a 50 3d 0b 65 bd bd f2 9d c1 be 87 e4 91 3e
       0.05091333 -0.09247788 -0.37815815 0.28494665
000030 e5 54 aa 3e a7 13 24 3f 77 f1 a7 bd 99 f8 ff be
       0.33267894 0.6409249 -0.08200353 -0.49994352
000040 d9 7b de be b1 93 5f 3e 6d d3 95 3d cf aa e8 3e
       -0.43453863 0.21833684 0.07315717 0.45442817
000050 88 14 16 bb 09 22 57 be 33 08 3d bd 5b 61 99 be
       -0.0022900421 -0.21009077 -0.046150398 -0.2995709
000060 68 68 cd 3d d5 06 15 3e 0e 02 b8 3e e6 c5 ce 3e
       0.100296795 0.14553387 0.35939068 0.4038536
000070 76 4a a4 be 00 ae 9a bd 59 34 68 3d e7 db 91 be
       -0.3208806 -0.07552719 0.056690548 -0.28488085
000080 ad d2 d5 3d 1c 9e a1 be df 89 e4 3e 89 91 52 bd
       0.10440574 -0.3156594 0.44636437 -0.051408324
000090 44 90 cc be 87 89 02 bf 11 1b 9e 3d 32 d5 25 bc
       -0.39953816 -0.509911 0.07720006 -0.0101216305
0000a0 07 77 a7 be a7 ac f3 3d 27 fb ed 3e c6 f3 98 be
       -0.32707998 0.11898165 0.46480677 -0.29873484
0000b0 6a 38 f2 3d c1 4a 92 bd ee db cd bd 43 d6 ea be
       0.118271664 -0.071431644 -0.10051714 -0.45866594
0000c0 05 ed 2e bc ad 28 f1 be 14 b2 f3 3e ab a7 7f be
       -0.010676627 -0.47101346 0.475968 -0.24966304
0000d0 9e de de 3d 4a d8 cc 3e 26 a2 dd be 1a 02 ef 3d
       0.108823046 0.40008765 -0.43287772 0.11670323
0000e0 71 ce 90 3e 46 55 01 bf 41 40 ba bd 96 a8 c8 bc
       0.28282502 -0.5052074 -0.09094287 -0.02449445
0000f0 ad ae de 3e f4 f5 15 3f a8 3f 12 3e 1a 3e 84 3e
       0.43492642 0.5857842 0.14282095 0.2582863
000100 a9 7b 21 3f ae 7c 24 bb a0 11 0d bf c2 4c 0d bf
       0.63079315 -0.002509873 -0.5510502 -0.5519525
000110 e0 78 a9 3e b0 d3 cd 3e ed 37 29 3f d9 39 86 be
       0.33100033 0.40200567 0.6610096 -0.2621601
000120 90 10 00 bf ae 5b 6c bd 43 50 a8 be 89 09 d8 3b
       -0.5002527 -0.05770462 -0.32873735 0.0065929336
000130 81 82 b8 be f5 55 1b 3e 9c 1c 8a 3e a6 03 ab bd
       -0.36037067 0.15169509 0.26974952 -0.08350305
000140 3f 02 c2 3e a2 45 a5 3e 58 17 fc 3e 98 27 af be
       0.3789234 0.32279688 0.4923656 -0.34209895
000150 6e 3e f1 3e 8a b4 12 3f 07 d0 63 be 01 39 12 bf
       0.47117943 0.5730673 -0.22247325 -0.5711823
000160 af d7 ee be e9 18 2a bd 7b 7a 89 3e da 57 cc 3e
       -0.4664893 -0.041527662 0.26851258 0.39910775
000170 d4 3b 07 be 01 67 7f 3e 68 e5 5e be 15 ea f3 3e
       -0.13206416 0.24941637 -0.21767199 0.47639528
000180 40 e6 91 3e 17 b8 21 3e bf b3 10 bf fc 7d 93 3c
       0.2849598 0.15792881 -0.5652427 0.01800441
000190 1d 53 dc be fd 29 ec be 97 c5 60 3e 07 b5 67 be
       -0.4303216 -0.46125785 0.21950375 -0.2262765
0001a0 da 06 fb be 77 a5 51 3e 10 d0 01 be 8e 72 2c 3e
       -0.49028665 0.20473276 -0.12677026 0.16840574
0001b0 03 56 51 3d 5e 3a bd be a5 53 e6 be 9e 06 60 be
       0.051107418 -0.36958593 -0.4498569 -0.21877524
0001c0 27 6e 90 be d0 d7 f2 3e e2 7a e9 3e 31 5e c0 3d
       -0.2820904 0.47430277 0.45601565 0.093929656
0001d0 1c 58 c3 3d fc ed f4 3e b0 cb aa 3d 43 33 5f 3e
       0.0953829 0.47837818 0.083396316 0.21796899
0001e0 b8 0a c1 3d e7 59 14 3f fe f8 d5 3e 71 21 01 3f
       0.094258726 0.5794968 0.41791528 0.5044165
0001f0 61 61 9e be 34 62 7e be 4d dd 69 3e 4d d1 26 3f
       -0.3093367 -0.24842149 0.22838326 0.6516312
000200 bc 41 13 3f d1 35 ae be bd e1 92 3e 6d b4 05 bd
       0.5752218 -0.34025434 0.2868785 -0.03264277
000210 c8 22 1c 3f 14 e0 fb 3e 0c f8 61 3d c9 93 1e 3f
       0.6099057 0.49194396 0.055168197 0.6194425
000220 2f 00 21 be d4 59 30 be 46 b7 1a 3e ff ec 07 bf
       -0.15722726 -0.17221767 0.15108976 -0.53096
000230 2b ec 5b 3d 7f 25 dc 3e 5b 80 67 be e7 59 ac be
       0.053692024 0.42997357 -0.22607557 -0.3366234
000240 c6 c8 06 bf 01 80 c3 3e 98 08 f6 be cb 57 0c bf
       -0.52650106 0.38183597 -0.48053432 -0.5482146
000250 35 40 b8 3e ba 01 f8 3e 93 d2 84 3e b1 87 0e 3f
       0.35986486 0.48438817 0.25941905 0.556758
000260 b5 67 88 be 7d 37 fa 3e 42 c0 14 3f 2e 83 53 3e
       -0.26641622 0.4887046 0.5810586 0.2065551
000270 08 5d c7 be ee 37 ed 3e 4c 55 0e bd 07 c4 02 3f
       -0.38938165 0.46331733 -0.034749314 0.51080364
000280 b4 b8 73 be 52 a1 88 3e 40 3e b7 3e cc 90 df 3e
       -0.23800927 0.26685578 0.3578968 0.4366516
000290 f1 01 11 3f 63 8b 17 3f fa d0 8b 3e 93 6b 76 3d
       0.5664359 0.5919706 0.27307874 0.060161185
0002a0 e9 78 c1 3e e8 c7 64 be e9 80 a5 3e a5 fb 70 be
       0.3778756 -0.22341883 0.32324913 -0.23533495
0002b0 1d 50 89 3e db cc b5 3e dc 30 1c 3f 09 88 07 3f
       0.26818934 0.35507855 0.61012053 0.5294195
0002c0 ea a3 10 3f e2 41 df 3d fd 43 fb be 74 6a c2 3e
       0.56500113 0.10901238 -0.49075308 0.37971842
0002d0 61 ee b8 be 6c 18 d0 3e 13 44 41 3e 93 fd 5a 3c
       -0.3611937 0.40643632 0.18873625 0.013366121
0002e0 57 25 c0 3d 29 f6 0e bd 93 20 ef be 14 da 1a 3e
       0.09382122 -0.034902725 -0.4670454 0.15122253
0002f0 89 70 08 3b 0b 5f 92 be 23 30 49 be a7 76 54 bd
       0.002081903 -0.28588137 -0.19647269 -0.05187097

shared_layers.0.bias f4 [64]
000000 70 00 cf 3e 55 48 f3 3e 3b f9 84 be 08 00 74 3d
       0.4043002 0.47516122 -0.25971398 0.059570342
000010 14 f8 e8 bd 57 e0 02 3f 1f de d4 3e 8a da 04 bf
       -0.11375442 0.51123565 0.41575715 -0.51895964
000020 0d c7 67 3e ac ec ea be be 27 87 3e ca b3 a0 be
       0.22634526 -0.4588369 0.26397508 -0.31387168
000030 95 fa b5 3e b5 97 d4 3e c2 07 d1 3e ad 1c 16 3f
       0.3554274 0.41521993 0.4082623 0.58637506
000040 b2 cc 0a be 02 fc dd 3b cf 5f 6c 3e c9 1a 0c 3e
       -0.13554648 0.0067744264 0.23083423 0.13682093
000050 dc 68 14 be 66 27 bb be 6f 75 2b be 2c 48 ae 3d
       -0.14493126 -0.36553496 -0.16744016 0.085098594
000060 2e 82 6b 3e b2 33 04 3e d7 35 05 3f dd f1 b6 3e
       0.22998878 0.12910345 0.5203528 0.35731402
000070 19 c1 ad bd 86 d7 b1 3e 01 75 ba bb bc a8 2c 3d
       -0.08484096 0.34734744 -0.0056902175 0.042153105
000080 e3 01 09 bf 5e 32 c0 bb 3d b2 b6 3e b3 78 2f 3e
       -0.53518504 -0.0058653792 0.3568286 0.17135887
000090 55 41 32 3d 75 21 8a be 92 b3 23 bd 8d 72 ef 3c
       0.043519337 -0.2697865 -0.039966173 0.029229427
0000a0 6b e0 cc 3e d6 b0 9c 3c f9 5c ec 3b cc 68 a4 bd
       0.40014967 0.01912729 0.0072132316 -0.08027801
0000b0 aa be a4 be a6 c5 0b 3f 9e 9c 0a bf b3 d4 02 bf
       -0.32176715 0.5459846 -0.5414523 -0.51105803
0000c0 f2 3e 94 be ef 9c 9e bd 25 3e d3 3e 70 a7 ac 3e
       -0.28954273 -0.077447765 0.4125835 0.33721495
0000d0 f6 cb 9d be 75 4e 62 bd 3d e8 eb 3e b0 09 18 3f
       -0.30819672 -0.055250604 0.4607562 0.5938978
0000e0 ef 32 bc be 23 50 0c bd 73 ec b3 3e d6 94 1b 3f
       -0.3675761 -0.03425611 0.35141334 0.6077398
0000f0 ba 57 f6 3e ca 98 88 be ac 61 04 bf 36 32 8d 3e
       0.48113805 -0.2667907 -0.51711535 0.2757737

shared_layers.2.weight f4 [32, 64]
000000 b0 82 98 bd ae a9 fa 3d 00 2a 16 bc 60 4d 91 bb
       -0.07446802 0.12239395 -0.009165287 -0.0044342726
000010 b8 9d 3d bd 80 e7 dc ba 8c f3 10 3d 6c 53 d1 3d
       -0.04629299 -0.001685366 0.035388514 0.102209896
000020 d0 02 92 3c 00 0b 45 bb 44 62 a3 3d 70 9e 85 bc
       0.017823607 -0.003006637 0.07977727 -0.0163109
000030 5c 2a e6 3d 24 69 af 3d b8 33 bb bd da d2 fc bd
       0.11238548 0.08564976 -0.09140724 -0.12344904
000040 20 71 90 bc 40 c8 09 3b 00 b2 dc 39 b4 6d 4e 3d
       -0.017632067 0.00210239 0.0004209429 0.05039759
000050 5c 99 c3 bd ea 4c ed bd 68 6e e4 3c a8 d6 fc 3d
       -0.09550735 -0.11586936 0.027884677 0.1234563
000060 50 38 c6 bd 78 36 a3 3d 2c d8 02 bd 80 39 86 3c
       -0.096787095 0.079693735 -0.03194444 0.01638484
000070 30 ad 24 bc f4 17 29 bd 78 49 ac 3d c4 aa ac bd
       -0.010051057 -0.04128261 0.084124506 -0.084310085
000080 8e 2b cf 3d 00 1e 22 bd fc ae 6c bd a8 a0 2f 3d
       0.10115729 -0.03957939 -0.057784066 0.042877823
000090 cc c4 af bd 78 dd b5 bc c0 e4 3d 3b 76 fa bd bd
       -0.08582458 -0.022200331 0.0028975457 -0.09276287
0000a0 18 7e f7 3c 1c 9d fa bd b8 15 cd 3c 7e 38 b1 bd
       0.030211493 -0.122369975 0.02503477 -0.08653353
0000b0 b8 10 02 3d c8 27 76 bd bc 3e 0f 3d e0 0a 31 bc
       0.031754225 -0.060096532 0.034971938 -0.010805815
0000c0 20 b9 36 bd 18 c1 19 3d 60 b9 77 3d f8 6a 52 3d
       -0.044610143 0.037537664 0.06047952 0.051371545
0000d0 6c 11 62 bd 52 df 95 3d 98 46 b2 bc 6e 6d bd 3d
       -0.055192396 0.073179856 -0.021762177 0.09249388
0000e0 b0 06 df 3c 88 fa 22 3d b6 9f 8b bd e2 5b a5 bd
       0.027224869 0.039789706 -0.06817572 -0.08074166
0000f0 16 a4 ee bd d4 20 5a bd aa d6 a0 3d c0 be 33 bc
       -0.11652391 -0.053253964 0.07853444 -0.010970771
000100 1e 7b be 3d 12 a8 e2 bd 74 ad 4b 3d 80 55 c5 bb
       0.093008265 -0.11067213 0.049725965 -0.0060221553
000110 98 18 b1 bc e0 c2 e2 3c 92 83 bc bd c4 95 da 3d
       -0.021618173 0.027680814 -0.092047825 0.10673097
000120 5c 35 6f 3d 0c 86 8e bd b0 c5 9f bd bc 80 45 3d
       0.058400497 -0.06959161 -0.07801378 0.048218474
000130 4e 73 a4 bd 66 21 d3 3d 74 b8 57 bd f8 03 55 bd
       -0.08029805 0.103091046 -0.052666143 -0.052005738
000140 20 7e 69 bc 60 d8 dd bd ca 6b ad 3d 1c 9a a3 3d
       -0.014251262 -0.10832286 0.08467825 0.079883784
000150 40 e5 20 3b 08 f6 51 3d 40 70 14 bc 48 89 dc 3d
       0.0024550706 0.051260024 -0.009059966 0.10768372
000160 0c 34 2d bd 34 80 7f 3d f0 70 a2 bc 44 b4 26 bd
       -0.042285964 0.062378123 -0.019829243 -0.04069926
000170 b8 ab e7 bc 42 89 a9 bd 30 ac a2 bd d4 3b fe bd
       -0.028280124 -0.08278133 -0.079429984 -0.12413755
000180 22 7b 97 3d 78 6b e7 bd e0 70 aa bd 08 bc f1 bc
       0.073965326 -0.11299795 -0.083223104 -0.029508606
000190 a8 10 d1 3d 48 b3 c0 3c 00 52 0b 3b 68 b7 a0 3d
       0.10208255 0.023522988 0.0021258593 0.07847482
0001a0 08 43 8b bc a0 ec a8 3b dc 94 95 bd 70 6f 28 3c
       -0.016999736 0.005155161 -0.07303783 0.010280475
0001b0 3c ac 28 3d b2 49 f1 bd 20 6c d9 bc 3c 48 ba 3d
       0.04117988 -0.117816344 -0.026540816 0.09095809
0001c0 0e cf f7 bd 7c 05 ba 3d e2 b6 b5 bd 78 bc d1 3c
       -0.121000394 0.09083077 -0.08872773 0.025602564
0001d0 c0 6d 17 bc 00 05 08 3d 64 6a ae 3d 80 1f 34 bb
       -0.009242475 0.033207893 0.08516386 -0.0027484596
0001e0 f0 be e7 3d 14 fc 26 3d e0 18 fb 3d c4 a8 4e bd
       0.11315715 0.040767744 0.12260604 -0.050453916
0001f0 06 67 d5 bd 18 91 74 bd 1c 29 02 bd 28 76 6c 3d
       -0.10420041 -0.059708685 -0.031777486 0.05772987
000200 b8 10 b4 3d ac a1 4b 3d d6 24 89 3d 10 51 9b bc
       0.08792251 0.04971473 0.06696479 -0.018959552
000210 ba 4d e9 3b 7e f9 e1 3d ce 98 54 3e 98 c2 4c 3d
       0.0071198614 0.11033915 0.20761415 0.049990267
000220 d4 51 5d 3c 70 88 c3 3d ba ea 04 3e 2c 7a 9c 3d
       0.013508279 0.09547508 0.12980166 0.0764049
000230 6c bb 0e bd 7f 3d 16 3d f0 14 a3 3d 92 85 02 3e
       -0.03484671 0.03667974 0.07962978 0.12746266
000240 90 4b a7 3d 60 76 e6 bb 14 1a 64 bd 7c 2f 52 bd
       0.08168709 -0.0070331544 -0.055688933 -0.051314816
000250 a2 54 39 3e fb 04 09 3e 54 83 54 3d 71 0f 51 3e
       0.18098691 0.13380806 0.051883057 0.20416047
000260 c0 9d 3b bc 34 b4 ce 3d 2a c3 a5 3d 81 0c 03 bd
       -0.011451185 0.10092965 0.08093865 -0.031994347
000270 41 07 ab 3d 70 54 19 bd 6f f6 07 3e d7 09 30 3e
       0.08350993 -0.03743404 0.132776 0.17191254
000280 3c be 42 3d 42 b6 c3 bd da a6 91 bc 83 5c 26 3e
       0.047544703 -0.09556247 -0.017779756 0.16246228
000290 a0 75 c5 3d c0 89 61 bb ea 51 41 3e db 97 90 bb
       0.09641576 -0.003441438 0.18878904 -0.004412634
0002a0 14 ca 11 3e b3 23 90 3d 05 b8 f6 3c 14 8c e3 bd
       0.14237243 0.07038059 0.030117044 -0.11110702
0002b0 6a 0f 14 3e 16 ea e6 3c e6 f4 bc 3d 82 e1 ac bd
       0.14459005 0.028187793 0.09226398 -0.0844145
0002c0 b0 0c 63 bc d8 92 d3 bd 53 62 44 3e 39 0a 44 3e
       -0.013858005 -0.103307426 0.19178133 0.19144525
0002d0 ac bc 61 bd 44 7f 8c 3d 54 eb 00 3d e1 fd 0b 3e
       -0.055111572 0.068602115 0.031474426 0.13671066
0002e0 10 89 0f bc 1c 4f 26 3d 63 13 27 3e ed 9b ff bc
       -0.008760706 0.04060279 0.16315989 -0.03120228
0002f0 2d ba 5f 3e 2c ec e8 3d a0 0a c1 bd da 3f d7 bd
       0.21848364 0.11373171 -0.09425855 -0.105102256
000300 54 1d 15 3e dc b7 e1 3d 80 b3 f0 3a 00 a4 8c 3d
       0.14561969 0.110213965 0.0018364042 0.06867218
000310 e6 73 30 3e 88 f7 c0 3d d4 e4 8d 3d 8c 16 41 bd
       0.17231712 0.09422213 0.06928411 -0.047140643
000320 5f ae d5 3d 58 ac 28 bd 8d f4 89 3c 5c cc ae bd
       0.10433649 -0.041179985 0.016840244 -0.08535072
000330 80 5a e1 bc 48 81 53 bc b6 bf a3 3d 13 2f a4 3b
       -0.027508974 -0.012909241 0.0799555 0.0050104945
000340 78 57 8a 3d 48 95 b8 3c 30 6b af 3c 02 a0 da 3d
       0.067549646 0.02253212 0.021413416 0.1067505
000350 e9 0d 97 bc 9c a2 00 3e 40 81 f6 bd f6 7d 2f 3e
       -0.01843925 0.1256203 -0.12036371 0.17137894
000360 e6 b5 e9 bd 58 25 94 bc 86 b1 37 3e 0d 95 2c 3e
       -0.114116475 -0.018084213 0.17938814 0.16853733
000370 32 be 18 3e 14 81 a4 bd 6d 72 55 3c 81 3e 18 3e
       0.14916304 -0.08032432 0.0130277695 0.14867593
000380 70 71 19 3c e0 9f b8 3b 65 0c 52 3e 52 20 0d 3e
       0.0093654245 0.005634293 0.2051254 0.1378186
000390 82 bd ce 3d 7e b6 ed bd 91 13 01 3e 6e 23 4e 3d
       0.100947395 -0.11607073 0.1260512 0.050326757
0003a0 b8 53 50 3e 11 fc 92 3d c2 3a 3c 3e a2 1e 88 3d
       0.20344436 0.07176984 0.1838179 0.06646468
0003b0 80 a9 77 3d 93 d9 b6 3d 48 16 bf bd 58 96 b6 3c
       0.060464382 0.08928218 -0.09330422 0.022288486
0003c0 a0 ea 4b 3d 9c 21 bb 3d 80 67 f0 bc d0 15 b5 3d
       0.049784303 0.0913727 -0.029346228 0.08842051
0003d0 98 81 20 bd 37 96 46 bb 06 7d dd bc 75 cc 2d 3e
       -0.03918609 -0.0030301937 -0.027037155 0.16972525
0003e0 40 1b 82 3d 26 f5 d1 bd b6 c3 1c 3e 9e 60 2f 3e
       0.06352854 -0.102518365 0.15309033 0.171267
0003f0 cb 6a 18 3e 66 24 f4 3d 72 16 a3 bd 4c ea 75 3d
       0.14884488 0.11921005 -0.079632655 0.060037896

shared_layers.2.bias f4 [32]
000000 a8 af 94 bc d8 1b a9 3c cd 99 ef 3d b0 11 f1 3d
       -0.018150166 0.02064316 0.11699257 0.11770952
000010 5a 91 ef bd 46 8b be bc cc 35 0f 3d 9a 66 21 ba
       -0.116976455 -0.02325977 0.034963414 -0.00061569514
000020 9b b7 f4 3d 10 75 d8 3d 15 a4 27 3e 61 b5 13 3d
       0.119490825 0.10569203 0.16371186 0.03606165
000030 d0 af 3b bc bd 95 1d 3e 7a 27 40 3c ae 79 49 3e
       -0.011455491 0.15389152 0.011728162 0.19675323
000040 40 62 2d 3b 06 b4 ad 3d 3f 34 ed 3c 0a 86 46 bd
       0.0026456267 0.08481602 0.028955577 -0.048467673
000050 16 38 11 3e 80 db bc 3b 3c d6 87 3d 4e 59 94 3d
       0.14181551 0.005763471 0.06632659 0.07243596
000060 a8 9f f0 3c 70 e3 68 bc e3 60 15 bc 79 c7 4e 3e
       0.029373005 -0.014214382 -0.009117338 0.2019328
000070 1c aa 12 bd a3 37 68 3d c1 80 a3 3c 24 3e 2b 3d
       -0.03580676 0.056693684 0.019958856 0.04180731

shared_layers.4.weight f4 [8, 32]
000000 75 15 0b 3e b6 4f fb 3d b9 f3 e6 bd 54 da 9d 3d
       0.13582404 0.12271063 -0.11276955 0.077076584
000010 54 07 62 3c 91 24 85 3c 28 0c e3 3d 84 69 07 be
       0.0137956925 0.016252788 0.11086303 -0.13223845
000020 95 e7 35 3d 4c 15 91 bd 26 a0 66 be 90 25 b5 bd
       0.044410307 -0.0708414 -0.2252203 -0.08845055
000030 34 ea ed bd 7d fb 1d be 1b 86 91 3d a3 9b d3 bd
       -0.11616936 -0.15427966 0.07105657 -0.1033242
000040 a8 6e 08 be 9f fc 51 3d 6d 29 cc 3c a3 10 b0 3d
       -0.13323462 0.05126631 0.024922097 0.08596923
000050 4e 79 81 be a7 b7 20 3e 44 f4 c2 bd 8e d0 9b bc
       -0.2528786 0.15695058 -0.09519246 -0.019020345
000060 f4 82 20 be a3 37 e4 bd 47 e2 df 3b 0d bd c6 bc
       -0.15674955 -0.11143424 0.0068323943 -0.024260068
000070 9d 55 ab bc ce 5a d3 bd a9 98 19 be e1 00 cd bd
       -0.020914847 -0.10320054 -0.14999641 -0.10009933
000080 e3 7a 20 3e ad b2 10 3e 59 a1 8e 3d 1b 3d 28 3e
       0.15671878 0.1413066 0.069643684 0.1642956
000090 04 37 01 be 12 db dd 3b 69 57 b2 3d 09 88 10 be
       -0.12618643 0.0067705 0.087080784 -0.14114393
0000a0 06 e1 57 3e 0c ef 1b 3e 4d 16 5b 3e 94 aa 7b 3d
       0.21081933 0.15227908 0.21395226 0.061441973
0000b0 a5 28 1b 3d bd b4 d9 3d 2f 4d de 3d 31 6a 63 3e
       0.03788056 0.10630176 0.10854565 0.22208478
0000c0 63 ec 30 be 2d e4 93 3d 6a 3f cf 3b 36 9e a4 bd
       -0.17277674 0.072212555 0.006324698 -0.08037989
0000d0 88 db 8f 3d 27 9a 0c 3e e0 2e d6 bd 69 46 dd 3d
       0.07024294 0.1373068 -0.104581594 0.10804445
0000e0 1a e4 d3 bc 7a 93 aa bd ba da 14 be ec 05 55 3e
       -0.025865603 -0.0832891 -0.14536563 0.2080304
0000f0 27 a0 fc 3d 37 91 8e 3b 68 f6 0b 3d d3 6b ca 3d
       0.12335234 0.004350807 0.03417054 0.09883847
000100 42 79 95 bd 85 78 25 3e 0a 33 7b bd e8 b2 80 be
       -0.07298519 0.16159256 -0.06132797 -0.25136495
000110 bc 87 da 3d b6 a2 68 3c ab e3 c3 bd f4 27 34 bc
       0.106704205 0.01419895 -0.095649086 -0.010995854
000120 1a d8 df bd 67 84 0e be e5 68 6d be 79 32 27 be
       -0.1092989 -0.13917695 -0.23184545 -0.16327848
000130 bc 2d 84 be 5a 9a 33 bc f1 19 0b 3d 21 e9 d2 bd
       -0.25816143 -0.010962093 0.033960287 -0.10298372
000140 f9 46 79 3d 54 7b 05 3e dd a6 34 be 78 c2 ee bc
       0.0608587 0.13035327 -0.17641778 -0.029145464
000150 7b 0a be bd 1f a9 0d 3d 7a 4a e3 bd 47 a6 2d 3e
       -0.09279343 0.034585115 -0.1109819 0.16957961
000160 21 41 52 bd 81 bb 6e 3d fe bb da bd f6 f4 41 be
       -0.051331643 0.058284286 -0.10680388 -0.18941101
000170 e3 f3 8f 3d 42 4e 94 3d a8 3a db bd 95 46 21 be
       0.070289396 0.07241489 -0.10704547 -0.15749581
000180 5c 97 9d bd 02 39 8b 39 35 e3 27 be 58 45 b1 3d
       -0.07694885 0.0002655462 -0.16395266 0.086558044
000190 ee 9d c8 3c a4 f0 9a 3d 99 50 40 3d c2 70 46 bb
       0.02448937 0.0756543 0.046951864 -0.0030279611
0001a0 bb 6c 16 be 06 66 86 be 0c 1f 34 ba 0c ce 87 be
       -0.14689915 -0.26249713 -0.00068710814 -0.2652439
0001b0 03 39 7a be 4f 52 7f be 57 28 95 bd 21 5f b0 3c
       -0.2443581 -0.24933742 -0.07283085 0.021529736
0001c0 82 da 0e be f4 8d 7c bb 00 5e 3c 3a b0 7b d5 3d
       -0.13950542 -0.003853676 0.0007185638 0.10423982
0001d0 8a d3 99 bd ed a6 4d ba aa 61 92 3c 4c e0 ca 3d
       -0.07511051 -0.0007845003 0.017868835 0.099060625
0001e0 e3 82 1d be cc fb 29 be 84 23 92 3b cf d7 37 3d
       -0.1538196 -0.16599959 0.0044598 0.044883545
0001f0 39 a2 44 bd 2e 9e 1f be ab a2 3d be 64 0d 63 3d
       -0.04800627 -0.15587685 -0.18519084 0.055432692
000200 31 8d 06 be d1 ec 97 3b eb c5 4d be 82 37 6b be
       -0.13139798 0.004636385 -0.20095031 -0.22970393
000210 14 f1 64 3d a0 36 3d be 23 dd 22 be e0 01 ae bd
       0.055893973 -0.18477869 -0.1590467 -0.084964514
000220 ac b9 25 bc b7 64 11 bd 7a e0 a5 bc 55 37 6e 3d
       -0.010115068 -0.03549644 -0.02024864 0.058158237
000230 88 bf 65 3d 16 60 60 be ac 17 05 be 13 bc cd bc
       0.05609086 -0.21911654 -0.12997311 -0.025114095
000240 40 7f 0c be 90 3b e1 bd 57 e9 16 3e 7b 6a c2 3c
       -0.13720417 -0.10997689 0.1473745 0.023732414
000250 62 df 87 be de 24 1f 3e 8e e8 01 bd de b5 89 3b
       -0.26537615 0.15541407 -0.031715922 0.0042025885
000260 04 ea a0 bc a9 04 e8 bd 8f ce a8 3d 94 ff 79 be
       -0.019642837 -0.11329014 0.08242523 -0.24413902
000270 f5 b9 1f be eb ba 1b 3e 7a bd 51 bd 45 fd 21 bd
       -0.1559828 0.15208022 -0.05120609 -0.039548177
000280 3a fe ca 3d 04 ad 2d bd c0 cb 31 be d7 8a bd bc
       0.09911771 -0.04240133 -0.1736288 -0.023137493
000290 e1 55 ab 3d 32 5f f8 3d 0f 5d 59 bd 1d 66 21 3e
       0.083659895 0.12127532 -0.053067263 0.1576161
0002a0 c7 a2 20 bc 97 24 83 be bf c2 27 bd 09 b8 7a 3d
       -0.009804434 -0.25613853 -0.04095721 0.061210666
0002b0 71 45 9d bd fb 03 2e 3d 95 af 5f 3c 0c df 3b be
       -0.076792605 0.042484265 0.013652702 -0.18346804
0002c0 37 01 ce 3c a2 31 0a 3e 33 76 02 3d d8 9c ce 3d
       0.025147064 0.13495496 0.031851005 0.10088509
0002d0 9e e9 31 be ef f1 1c 3e ff 0c 1a 3e f1 e0 90 3c
       -0.17374274 0.15326665 0.1504402 0.017685385
0002e0 82 b1 44 3d cc 3c 40 bd 72 01 ad bd 5c 10 59 be
       0.048020847 -0.04693298 -0.08447541 -0.21197647
0002f0 b2 4c 2d be 12 a2 6c 3d 71 41 83 bc de d3 c8 bd
       -0.16923788 0.05777175 -0.016022416 -0.098060355
000300 06 ca fa bc 6e 7f 15 3e 17 e0 0a 3d da bc 4e be
       -0.03061391 0.14599392 0.033905115 -0.20189229
000310 a6 51 1d be 3a 17 ab bc 8d cb c7 3c fe 91 79 3c
       -0.15363178 -0.020885099 0.024389053 0.015232561
000320 b0 ce 7a be 39 92 09 be b2 9b f9 3c bc aa 73 be
       -0.24492908 -0.13434686 0.03046975 -0.23795599
000330 d0 6e 66 be 0f 7e 14 3d d4 e2 f3 bd 43 e4 f2 bd
       -0.22503209 0.03625303 -0.119084984 -0.11859944
000340 fa 41 75 bd 9f e6 c5 bd 0e 85 32 be b7 ec 2b 3d
       -0.059877373 -0.09663128 -0.17433569 0.041973796
000350 5d b2 99 3d ce b8 02 be 47 0c ef bd 84 4e 0d be
       0.07504723 -0.1276581 -0.116722636 -0.13799483
000360 ad c8 26 be f1 a4 c0 bc 8a 76 00 3d a4 43 01 3d
       -0.16287489 -0.02351615 0.031363048 0.031558648
000370 30 df 14 be 27 2a db 3d ee 63 54 be 1c 7c d0 bc
       -0.14538264 0.10701399 -0.20741245 -0.025449805
000380 58 11 d7 bd 4b 30 32 3e 60 55 6e be 99 25 6c 3b
       -0.10501355 0.17401235 -0.23274755 0.0036033152
000390 20 59 23 3d d2 f5 93 3d e4 7a 85 3d 1b 00 0e 3e
       0.039879918 0.07224621 0.0651758 0.13867228
0003a0 e9 78 6f be b5 57 ac bd 38 a5 ec bd 50 0b 30 be
       -0.23385967 -0.08415166 -0.115549505 -0.17191815
0003b0 ee 9b 3e be b8 7e 8e be ae 7f 59 3b 1d a3 69 be
       -0.1861417 -0.27831054 0.0033187675 -0.22816129
0003c0 96 22 0e bd be 9b 2c bd b8 83 07 3e f6 8d e8 3d
       -0.034700952 -0.042140715 0.1323384 0.11355202
0003d0 be 35 a9 bd 4d 0c 54 bd ec 33 e3 bd e4 16 04 be
       -0.08262204 -0.051769543 -0.11093888 -0.12899357
0003e0 6a bb 15 3e 4e 53 4a bd 7d c2 26 be 07 3d 60 bc
       0.14622274 -0.04939585 -0.16285129 -0.013686425
0003f0 33 b7 7a bc f0 3f 4e 3a 72 a3 3f be 56 a8 f4 bc
       -0.015302467 0.0007867804 -0.18714693 -0.029865425

shared_layers.4.bias f4 [8]
000000 87 49 47 be 00 58 c6 bd dc 24 3d 3d d5 5f 70 be
       -0.19461642 -0.096847534 0.04617773 -0.23474057
000010 12 00 15 be 3d 0c 9e bd b2 a1 b3 bd a9 87 ac 3d
       -0.14550808 -0.07717178 -0.08771075 0.084243126
