training/models/controller_controller_acc0.819_lat0.006_succ20_small5_large8_carb7_cap105_rate0.001598_best_model.pth (torch, 18445 bytes, 6 tensors)

shared_layers.0.weight f4 [64, 3]
000000 1e 0b b9 3e dd a6 b9 be 34 14 cd be 61 4d 18 3f
       0.36141294 -0.3626012 -0.40054476 0.5949307
000010 03 5d b4 be cc ca ca bd 3d ff e2 3e bd 94 bf 3e
       -0.35227212 -0.09901962 0.44335356 0.37418166
000020 8d 7c 2a 3e bd c9 58 be 66 45 af be 60 57 c3 3d
       0.16649075 -0.21170707 -0.34232634 0.0953815
000030 19 51 13 be 4b dc 2d bd 0b 45 0f bf 13 12 02 3f
       -0.14386405 -0.042446416 -0.55964726 0.5080883
000040 34 1d 94 be 1d c5 25 be b4 ed 45 3d 17 b6 e2 be
       -0.2892853 -0.16188474 0.048322394 -0.4427955
000050 1a bd 8e 3e 05 c0 de 3e 16 7c ff be a3 ed cd be
       0.27878648 0.43505874 -0.49899358 -0.40220365
000060 50 0d 92 bd 5b 13 43 bd 0f 86 d0 3d 4f af 17 be
       -0.071314454 -0.04762588 0.1018182 -0.14812969
000070 8b 86 26 be 1a 3b dc 3e 3c 11 b6 be b7 02 3e be
       -0.16262262 0.4301384 -0.35560024 -0.18555723
000080 d8 3b 0f bf 25 43 b8 3e db db df 3e 44 cd be bd
       -0.5595069 0.35988727 0.43722424 -0.09316495
000090 88 29 11 bf 1d d1 39 be e3 01 03 bf b3 05 08 bf
       -0.56703997 -0.18146177 -0.51174754 -0.53133696
0000a0 71 17 36 3e 78 84 13 3f 06 94 b2 be 63 5c 0a 3e
       0.1778238 0.57624006 -0.34878558 0.13511805
0000b0 ec fe 05 3f 9c 29 4f 3e 7b 4f 0c bf 6b 4a ce be
       0.52342105 0.20230716 -0.5480878 -0.4029115
0000c0 90 99 03 3f 52 c4 4c 3e da 21 6b be 55 61 11 3e
       0.5140619 0.19996765 -0.22962132 0.14197285
0000d0 a4 b3 0d 3f cb 61 aa bd 51 dd b6 3e dd 2b 2c 3f
       0.55352235 -0.08319434 0.35715726 0.6725443
0000e0 8a ce 24 be 95 36 ef 3e 21 a9 03 3e 55 55 e9 be
       -0.16094413 0.4672133 0.12857486 -0.45572916
0000f0 81 0d 26 be b8 b4 fa be 39 2a 05 be af 44 77 3e
       -0.16216089 -0.48966002 -0.13004388 0.24147294
000100 e9 ae e5 3e 20 f8 ec be 12 96 ad 3c 35 1c 6e bd
       0.44860008 -0.46283054 0.021189723 -0.05813237
000110 b0 4e 53 be 7a 52 c4 3d a4 5b 85 be ec 60 1e 3f
       -0.20635486 0.09586044 -0.2604648 0.6186664
000120 e2 76 48 3e 26 01 f5 3e d9 c2 a2 bd 58 35 95 3d
       0.195766 0.4785244 -0.079473205 0.07285565
000130 f0 e0 13 bb 67 48 be be bb 3a e9 be 65 d6 a1 be
       -0.0022564493 -0.37164614 -0.4555262 -0.31608883
000140 61 26 38 bc e1 a6 d9 be 84 de 88 3e b7 de b9 be
       -0.011239619 -0.4251013 0.26732266 -0.3630273
000150 11 4c 48 bd 3e d2 86 3e d0 48 be bd 4a ba 36 be
       -0.048900668 0.26332277 -0.09291232 -0.17844501
000160 f2 02 84 bd a3 84 ca be 6d 16 10 3e 4e c6 b6 3e
       -0.06445874 -0.3955432 0.14071055 0.3569817
000170 e4 94 ec be 17 3d e2 3e 5d 99 91 3e e3 72 45 3d
       -0.46207345 0.44187233 0.2843732 0.048205268
000180 1e a8 13 3f 60 52 4c 3d b4 d6 fe 3e e4 54 1d bd
       0.576784 0.049883246 0.4977318 -0.038411036
000190 6b dc 15 3e 6a 10 12 3e 5a 0e 71 3e 8e f3 e9 be
       0.14634864 0.14264074 0.23540631 -0.4569363
0001a0 04 79 6b 3e 9c 33 4e be c5 a2 aa 3d 37 ed ab 3e
       0.22995383 -0.20136875 0.08331827 0.33579418
0001b0 68 e3 bf be 4b df 37 bd 21 28 8e be d4 17 f4 be
       -0.37478185 -0.044890683 -0.2776499 -0.4767443
0001c0 83 3e df be cf df a8 be 99 43 9b be 1c 9a 0d bf
       -0.4360238 -0.32983252 -0.3032501 -0.5531328
0001d0 f8 a4 0b 3e 75 44 92 be c3 34 94 be 4f 38 79 bd
       0.1363715 -0.28567854 -0.28946504 -0.060844716
0001e0 aa 92 f9 3d 0e f7 50 be 26 e2 a4 3e 89 89 63 3d
       0.12186177 -0.20406744 0.32203788 0.055551086
0001f0 a0 27 cc be f2 94 63 3e e1 d1 9c be 71 a6 ce be
       -0.3987398 0.22224787 -0.30628875 -0.4036136
000200 be dc 05 bf 49 eb 2f be e5 e1 55 be a4 b2 1f 3e
       -0.5228995 -0.17179598 -0.20886953 0.1559549
000210 42 e8 1c 3f 1f df 18 3f 5a c6 08 3f cb c3 99 be
       0.612919 0.59715456 0.5342766 -0.3003219
000220 94 3a c6 be 66 ef eb 3e e8 3d cd be e5 1a 91 bd
       -0.38716567 0.46081084 -0.40086293 -0.07085208
000230 e3 7c e3 bd 7a 69 bf be 78 be 5f 3e 12 e6 84 3e
       -0.111078046 -0.3738516 0.21850002 0.2595678
000240 5b 01 3b 3e 76 93 64 3e 05 08 2c 3e 54 12 08 3f
       0.18262236 0.22321877 0.16799934 0.53152966
000250 c6 a6 c0 3e a5 98 b4 3e 86 fa fb be 9e 15 b4 be
       0.37627238 0.3527271 -0.49214572 -0.35172743
000260 75 05 8b bc 23 10 8b 3e 2d 35 22 3e d2 f9 3c 3e
       -0.016970376 0.2716075 0.15840597 0.18454674
000270 88 af 67 bd 99 d7 0c 3f db dc 4e 3e 11 c5 ff be
       -0.056563884 0.55016476 0.20201437 -0.49955037
000280 c0 8a 21 3e a6 5a d0 be 25 36 18 3f 20 dd 00 be
       0.15775585 -0.4069416 0.5945762 -0.12584352
000290 16 5c 4b be 85 d1 b6 be 95 05 c8 be 4a 03 e1 be
       -0.19859347 -0.35706726 -0.3906676 -0.43947822
0002a0 9f 60 ea 3e d1 a4 25 3f c6 26 04 bf 20 53 c6 3e
       0.4577684 0.64704615 -0.51621664 0.38735294
0002b0 60 bc d6 3d 73 fa 9c 3d 9c 62 23 be 09 a4 9d be
       0.104851484 0.07664957 -0.15955585 -0.3078921
0002c0 90 0e ff bd e4 41 34 be 2e a6 f3 3d d3 11 60 be
       -0.124539495 -0.1760326 0.11896931 -0.218818
0002d0 bf 60 24 3f 4e 99 ab 3e 0d 51 98 be 1e 99 d0 be
       0.6421012 0.335154 -0.29749337 -0.4074182
0002e0 2b 5a 0d 3e 5a c2 cc 3d 54 d2 06 be b5 32 cd 3e
       0.13803928 0.09998007 -0.13166171 0.4007775
0002f0 8c 9f 68 bd 11 97 f6 bc 3c ba a7 be e6 d3 25 3f
       -0.05679278 -0.030101331 -0.32759273 0.64776456

shared_layers.0.bias f4 [64]
000000 61 24 3f 3e ce 82 8c 3e e3 12 97 3e 09 57 18 3e
       0.18666221 0.27443546 0.29506597 0.14876951
000010 7a 87 93 bd aa f6 af 3e c8 bc ea bc c9 62 c6 be
       -0.072035745 0.34367877 -0.028654471 -0.38747242
000020 f7 4c fa be 8b a0 06 3f e3 05 39 bd b4 0c 24 3f
       -0.48886845 0.5258872 -0.04517163 0.64081883
000030 15 84 8f 3e 8b b5 03 bf f2 67 13 3f 28 b5 75 bd
       0.28030458 -0.5144889 0.5758048 -0.059987217
000040 4d 45 69 3d 20 5d ff 3e f4 5f 6a bd 50 d5 91 3e
       0.056950856 0.49875736 -0.057220414 0.28483057
000050 f5 fe 4d bd d0 64 d1 bd 0c 09 21 bd 92 b2 fb 3e
       -0.050291974 -0.102243066 -0.03931527 0.49159676
000060 ea e0 ee 3e c1 6e b3 3e 8a a5 67 3e c6 a2 14 3f
       0.4665597 0.35045436 0.22621742 0.5806087
000070 90 f3 17 3f 00 eb 32 bd ce 47 96 3e 57 4f cf 3e
       0.5935602 -0.043681145 0.29351658 0.4049022
000080 8f 78 09 3f c7 5e e4 bd 10 06 e2 be 9d 1f 1f 3d
       0.5369958 -0.1115089 -0.4414525 0.03884851
000090 62 0f 57 be d9 41 3f be 63 15 a1 be 54 e6 cc 3d
       -0.21001962 -0.18677463 -0.3146163 0.10004869
0000a0 c5 b3 d1 be f8 90 fb 3e 15 d0 4d be 20 d1 78 be
       -0.40957466 0.4913404 -0.20098908 -0.24298525
0000b0 ec 8e 1d 3f 02 2c 0f bf 6e 87 b9 3c cd 90 74 be
       0.61546206 -0.55926526 0.022647586 -0.23883362
0000c0 b0 2d 26 3f d9 c6 52 be ba 11 26 be 94 97 f6 be
       0.64913464 -0.20583667 -0.162177 -0.4816252
0000d0 b4 37 ea 3e 15 fc f8 3d 3b 4f 3d 3e 28 d1 80 3e
       0.45745623 0.12157456 0.18487255 0.25159574
0000e0 95 e4 91 bd ec 58 d9 3e 79 aa 0f bf 8b d8 64 be
       -0.07123677 0.42450655 -0.56119496 -0.2234823
0000f0 a8 cd 38 be 39 d1 e9 3c a7 7b 5d be f1 2d 2a 3f
       -0.18047202 0.028542148 -0.21629201 0.6647635

shared_layers.2.weight f4 [32, 64]
000000 e0 e2 28 bc 7a 57 fe 3d 20 9b db bb 80 43 da bd
       -0.010307997 0.124190286 -0.006701842 -0.10657406
000010 58 d9 6d 3d 94 af 12 3d 80 b6 6e 3c c0 8c a6 3b
       0.058068603 0.035811976 0.014569879 0.0050826967
000020 3a 50 85 bd 34 2e cb 3d 20 b5 dd 3b 8c f5 95 bd
       -0.065094426 0.09920922 0.0067659765 -0.07322225
000030 c8 ca 79 3d 80 3b 19 3b 00 85 1b ba 88 63 e5 3c
       0.060984403 0.0023381412 -0.00059325993 0.028001562
000040 80 c2 63 bd 4c c8 d8 3d ce b7 da bd 50 1d e0 bd
       -0.05560541 0.105850786 -0.10679589 -0.10943091
000050 64 4c 29 bd f2 c7 82 3d 98 5d fe 3d e0 d9 4b 3d
       -0.041332617 0.06385793 0.12420195 0.04976833
000060 38 4d 85 3d c8 12 c1 3d 00 78 76 3c 04 9a e6 bd
       0.06508869 0.0942741 0.015043259 -0.11259845
000070 9c a2 c4 bd 58 bc 4b 3d 12 7d ee bd 78 4b 17 3d
       -0.09601328 0.049740165 -0.11644949 0.036937207
000080 34 da 9a 3d ca 0f ae bd 80 44 18 3d 30 64 51 3d
       0.0756115 -0.08499105 0.0371747 0.051120937
000090 48 34 7c 3d 64 f5 13 bd a2 ce dd bd 40 3c 0f 3b
       0.061573297 -0.036122695 -0.10830428 0.002185598
0000a0 f8 88 b5 3c 80 55 87 3b 0e 5a a3 bd 1c 09 86 3d
       0.022160038 0.0041300654 -0.07976161 0.06544706
0000b0 80 84 c9 3a cc 54 67 3d 40 e9 87 bb 4e fe 82 3d
       0.0015374571 0.056477353 -0.0041476786 0.06396161
0000c0 14 b3 94 bd 44 d5 3d 3d 50 2d 1e bd a0 96 b8 3d
       -0.07260719 0.046345964 -0.038617432 0.090131044
0000d0 60 f6 c7 3d 16 32 d3 bd 48 54 ca bd 78 06 de bc
       0.09763789 -0.103122875 -0.098793566 -0.027102694
0000e0 5c b9 3e 3d 84 41 00 3d 90 38 d5 3d b4 1e 5c bd
       0.04656349 0.03131248 0.10411179 -0.05374022
0000f0 bc bb af bd ce 68 9a bd c8 f1 3f bd 10 39 d3 bc
       -0.08580729 -0.07539521 -0.04686144 -0.025784045
000100 e0 62 63 3e bb 70 83 3b 2b 8a 52 3e f0 b7 68 bc
       0.22205687 0.0040112413 0.2056052 -0.01420401
000110 9c 10 10 bd aa 7f 19 3e 30 d6 88 bd a8 05 85 bd
       -0.03517209 0.14990106 -0.06681478 -0.064952195
000120 de 0e a8 3d fe 43 9c bb 18 8a b0 3d bd a1 ca 3c
       0.08205961 -0.0047688475 0.08620089 0.024735326
000130 50 0b 85 bc 34 40 39 bd a1 eb cd 3d 6c 41 96 bd
       -0.016240746 -0.045227244 0.10054708 -0.07336697
000140 cb 07 36 3e 52 23 2a 3e 15 05 2b 3e d8 f4 12 3e
       0.1777641 0.16615036 0.16701157 0.14351213
000150 00 2d 6f 3d 8b 49 31 3e 4a 7c ed bd e6 d9 06 3e
       0.058392525 0.1731321 -0.11595972 0.13169059
000160 62 92 5d 3e 03 5a 9f 3e e2 c0 d5 3d d9 37 cc 3d
       0.21637872 0.3112336 0.1043718 0.099715896
000170 09 50 e5 3d ea 1e b9 3d f7 c9 3d 3d bc be 2b 3d
       0.11196906 0.090390995 0.046335187 0.041929945
000180 97 57 34 3e dc b9 e4 bd 8c 5b 25 bd 42 9f c0 bd
       0.17611538 -0.11168262 -0.04037051 -0.09405376
000190 e2 20 89 3d e8 94 d2 3c e0 76 81 3d 50 48 5f bc
       0.06695725 0.02570577 0.06321502 -0.0136280805
0001a0 40 69 6c 3d ec a4 fe 3d fa 09 a1 3d 38 af 2f 3d
       0.05771756 0.124338 0.07863231 0.04289171
0001b0 9a 7e 33 3e 88 d8 0a 3d c8 c9 d0 3c f8 72 bc bc
       0.17528763 0.033897907 0.025486842 -0.02300404
0001c0 11 b8 05 3e 95 1f f6 ba 8e 8d de bd 40 a7 c5 bb
       0.13058497 -0.0018777723 -0.10866843 -0.0060319006
0001d0 17 1f bc 3d 44 2b 5d 3d 81 ac 39 3e 40 4b 7f bb
       0.091856174 0.05399634 0.18132211 -0.0038954765
0001e0 c0 30 4a 3d 69 bd 57 3e f8 84 de bd c6 0b d1 3d
       0.049362898 0.21068348 -0.108652055 0.10207324
0001f0 2f a7 5f 3e 76 34 ae 3d ce ef ee 3b 1f 4d 3d bc
       0.21841119 0.085061 0.0072917705 -0.011554032
000200 80 47 cc bb 0a cb ae bd b0 d7 68 bc e0 d6 fb bc
       -0.0062341094 -0.085348204 -0.01421158 -0.030742109
000210 24 5d 7d bd 66 76 d9 bd e4 6e 8c 3d 00 ad 55 3a
       -0.061856404 -0.10618286 0.06857088 0.0008151084
000220 e8 a4 85 3c c0 e8 31 bc d4 cd d5 3d c0 1f 69 3b
       0.016313985 -0.010858715 0.10439649 0.0035571903
000230 a6 40 8b 3d 18 a8 fa bc 70 d5 13 bc 74 cb bb bd
       0.0679944 -0.030597731 -0.009023055 -0.09169665
000240 e8 3b ac bc 48 69 25 bd 20 55 b0 bb be 89 b6 3d
       -0.02102466 -0.040383607 -0.0053812414 0.08912991
000250 08 5b 44 3d e4 82 92 3d b0 27 ce bc 44 f5 9d bd
       0.047938377 0.07153872 -0.025165409 -0.07712796
000260 62 8c 8b bd 98 73 90 bc 6a 80 92 bd e0 c7 69 3c
       -0.06813885 -0.017633244 -0.07153399 0.014268845
000270 d2 dd b2 3d 78 81 4d 3d 48 96 8a 3c 10 20 5f 3c
       0.08733715 0.0501723 0.016917363 0.013618484
000280 ac bf 16 3d 88 35 af 3d 10 af 0d bc 00 a4 07 3b
       0.036803886 0.08555132 -0.008647695 0.0020697117
000290 3c b2 84 bd 16 cd 97 bd f8 2a 44 3d 44 6a 8f bd
       -0.06479308 -0.07412164 0.04789254 -0.070026904
0002a0 4c ff 13 3d 16 e5 c4 3d 44 16 31 3d 80 02 0b bc
       0.036132142 0.09614007 0.043234125 -0.008484483
0002b0 f4 b3 09 bd 60 0e 91 bd 5a 11 ad 3d 76 f3 bd bd
       -0.033618882 -0.0708282 0.08450575 -0.09274952
0002c0 74 fa dd 3d d8 46 15 3d 1c 30 25 bd 62 00 94 3d
       0.10838786 0.036444515 -0.040329084 0.072266355
0002d0 00 d0 41 bb d0 cf 62 3c c0 28 4d 3b 08 32 8f bd
       -0.002957344 0.013843492 0.0031304806 -0.069919646
0002e0 ae 80 f4 bd 70 3b 3f 3d d0 35 81 bc d4 96 21 bd
       -0.11938606 0.046687543 -0.01577273 -0.03945048
0002f0 10 4d c5 bc 6e f8 9a bd c8 d7 b4 bc 98 9b 12 bd
       -0.024084598 -0.075669155 -0.022075549 -0.035792917
000300 72 a8 8b 3d f0 00 6a 3d b4 76 1f bd c8 59 d6 bd
       0.06819238 0.0571298 -0.038931563 -0.10466343
000310 5c 5b c7 bd 30 b5 a8 bd f0 4f 20 bc f0 da 88 bd
       -0.09734222 -0.08237684 -0.009784684 -0.06682384
000320 e8 14 92 bd 88 68 39 3d f8 d5 b0 bc e2 51 90 bd
       -0.07132894 0.045265704 -0.021586403 -0.07046868
000330 b4 be 4d 3d ec bb eb bd 22 f3 dc bd a2 6a b7 3d
       0.050230697 -0.11510453 -0.107885614 0.089558855
000340 50 2c 51 bc 9a af f2 bd 5c 70 31 bd 90 2f dc 3c
       -0.012766913 -0.118498996 -0.043320045 0.026878148
000350 00 bd 7c bd cc fc 0e bd d8 eb aa 3d 80 97 bc ba
       -0.061703682 -0.034909055 0.08345765 -0.0014388412
000360 e0 33 ac bb a0 05 bf bc f4 7b 34 3d 88 b3 1f 3d
       -0.0052552074 -0.023318112 0.044063523 0.038989574
000370 04 c0 25 bd 62 d0 82 3d 64 f7 89 3d 3c 17 c6 bd
       -0.040466323 0.06387402 0.06736639 -0.096724
000380 30 c9 91 3d a8 b7 fe bd d4 4f e9 bd 74 89 76 3d
       0.071184516 -0.124373734 -0.11392179 0.06018968
000390 10 a4 64 3c 78 9d 81 bc 18 c9 eb 3c a2 dc ef 3d
       0.013955131 -0.015822157 0.028782412 0.11712004
0003a0 4c fd bf 3d f4 e8 ca bd c6 94 c2 3d e8 ab b0 bc
       0.093744844 -0.099077135 0.095010325 -0.021566346
0003b0 10 bf 65 3d 38 d3 94 bc b4 cd c1 bd fe 51 b2 3d
       0.056090415 -0.018167123 -0.09463063 0.08707045
0003c0 10 0f 44 bd 9c f8 41 bd be a3 9d bd f0 8b 1d 3d
       -0.047865927 -0.047356233 -0.07697247 0.038463533
0003d0 dc fc a7 3d 54 5e 8a bd 28 a5 43 bd a2 cd a3 bd
       0.08202526 -0.06756273 -0.047764927 -0.07998206
0003e0 d4 52 41 3d 0e 80 cc 3d 2c 7f 79 bd dc 3c df bd
       0.04719813 0.09985362 -0.060912296 -0.1090028
0003f0 de 8d a2 bd 50 60 99 bc fa 6a e4 3d 56 19 c0 bd
       -0.07937215 -0.018722683 0.11153217 -0.093798324

shared_layers.2.bias f4 [32]
000000 d4 be 9a bd a4 b3 16 3e ce cd bf bd 30 c7 c0 3c
       -0.07555929 0.14716965 -0.09365426 0.02353248
000010 0c 6f b5 3d 32 c1 70 3c cf 8a 2b 3e c0 19 e2 bd
       0.08859071 0.014694499 0.1675217 -0.11040068
000020 c0 e2 cd bd 5c b0 ec bd c9 1d c8 bd 20 84 b4 bd
       -0.10053015 -0.115570754 -0.09771306 -0.08814263
000030 d3 c3 5c 3e 58 5c da bd f2 68 c6 3d de 03 81 3d
       0.21559076 -0.106621444 0.096879855 0.06299566
000040 6b 9b 2b bd 00 c8 a8 38 03 6d 9f bb 48 d7 5c 3d
       -0.041896265 8.048117e-05 -0.00486529 0.053916246
000050 66 d6 1c bc b9 15 fb 3d 9b d8 a0 3d f5 bb f5 3d
       -0.009572601 0.12260003 0.07853814 0.119987406
000060 90 b5 59 bd 02 62 88 bd d0 4d bc bb 3e 28 45 3e
       -0.053151667 -0.066593185 -0.0057465807 0.19253632
000070 6c 76 fc bd 9e bc ee bd 94 23 04 bc 79 f7 cc 3d
       -0.12327275 -0.116570696 -0.008065123 0.10008139

shared_layers.4.weight f4 [8, 32]
000000 b8 43 f6 3d f1 95 ab 3c 10 b1 7d 3d c6 f6 fe 3d
       0.12024635 0.020945521 0.061936438 0.12449412
000010 05 dd fb bd 41 55 31 be 79 7f 3f be 97 d6 1a be
       -0.122980155 -0.17317678 -0.1870097 -0.15120922
000020 28 10 18 3e b9 6b 24 be f0 f7 19 3d 2c 62 60 3b
       0.14849913 -0.16056718 0.037589967 0.0034238202
000030 8b ad 0b 3d 24 fe 93 3d d0 91 a3 bd 15 78 b8 3c
       0.03410105 0.07226208 -0.07986796 0.022518197
000040 a7 64 f9 bd c8 76 1e 3e 70 37 ab bd 98 df 6d bc
       -0.12177401 0.15474999 -0.08360183 -0.014518641
000050 b1 16 73 3d 7d 7d d2 bd f9 1f 90 be 2e 14 0b bd
       0.059347812 -0.10277841 -0.28149393 -0.03395479
000060 2b d7 66 bd 62 d3 a8 3c 4f 3c 41 be c9 e5 01 be
       -0.056357544 0.020608608 -0.18870662 -0.12685312
000070 21 2e 8f bd fa ed 43 bd 7f e8 22 3c 62 2c 9a bd
       -0.0699122 -0.047834374 0.009943127 -0.075279966
000080 fd e9 ce 3c d9 c5 41 3e 52 27 9e bd 01 10 f5 bd
       0.025258059 0.18923129 -0.077223435 -0.11965943
000090 fd 12 d0 bb aa 08 52 3e 6e bd 5a 3e 45 bd 2f bd
       -0.00634992 0.20511118 0.21361324 -0.04290511
0000a0 b5 bc e2 bd 9f e3 df 3d e6 d7 ab bc ce 04 85 bd
       -0.11071149 0.10932087 -0.020976972 -0.06495057
0000b0 11 16 39 3e 3d 28 22 bd a4 c3 54 3d 1d 36 28 be
       0.18074824 -0.039589155 0.05194439 -0.16426893
0000c0 c4 b2 14 be db b9 7d 3d 82 58 68 3e 89 86 00 be
       -0.14521319 0.061944824 0.22690013 -0.12551321
0000d0 d5 fa ad bd 47 ad c2 bd 43 2f 3d 3e 05 6a 38 3e
       -0.08495108 -0.09505706 0.1847506 0.18009193
0000e0 a0 fe c6 bb bb b2 ea bd 78 49 4c 3e 4f 9c 94 3d
       -0.006072834 -0.114598714 0.19949901 0.07256376
0000f0 f0 fe 8c bd c8 1d c7 bd da 28 83 3e 1d 11 44 3e
       -0.06884563 -0.09722477 0.25617105 0.19147153
000100 99 dc f8 3d 3c a3 64 be b4 08 5b bd 2e c9 1c be
       0.12151451 -0.22327894 -0.053475097 -0.15311119
000110 2e 65 10 3e 09 49 0f bd 82 5c 70 3d 86 ca 0d 3e
       0.14101097 -0.03498176 0.058681972 0.13846788
000120 a2 e5 84 3d 79 0e 1c bc 95 d8 20 3e 9d 5a 2c 3e
       0.064891115 -0.009524935 0.1570762 0.16831441
000130 a1 72 73 be 7f b9 dc bc 23 ec 28 3e 8f 82 8b bd
       -0.23774196 -0.02694392 0.16496329 -0.068120115
000140 9a 2b 10 3e 92 a8 33 3e 68 16 38 be ca 23 c3 bd
       0.14079133 0.17544773 -0.17977297 -0.095283106
000150 05 32 f6 bd 7f 1c 62 be 2f f5 32 3d 4e 03 a0 3c
       -0.12021259 -0.22081183 0.043690857 0.019532826
000160 a9 1b cf 3c 93 5a fd bc 98 59 95 bc f1 60 f9 bc
       0.025281744 -0.030926978 -0.018231198 -0.030441733
000170 aa 3c c2 bd e8 30 ba bd 23 43 71 be a8 98 03 be
       -0.09484227 -0.090913594 -0.23560767 -0.12851202
000180 bc 83 e7 3d 99 35 56 be f9 4e 42 bd 8a 21 cf 3d
       0.11304423 -0.20918883 -0.047438595 0.10113819
000190 75 a3 3f 3d 94 b1 2e bd 7f db 03 3d 4a 6f e4 3d
       0.046786744 -0.04264982 0.03219175 0.11154039
0001a0 23 5b 25 be f0 5c 29 3d c4 fc ed bd 38 b3 3f bd
       -0.16148047 0.041348398 -0.11620477 -0.046801776
0001b0 52 c8 e4 bb 63 3d ee 3c 46 2e 02 3e 04 55 b3 3d
       -0.006981888 0.029082006 0.12712964 0.0875645
0001c0 f7 aa 16 3e 8d da 10 be 96 55 99 bd 05 11 30 3e
       0.14713655 -0.1414587 -0.07487027 0.17193992
0001d0 f5 ba 15 be 0d 34 b8 be 9b 64 45 bd 52 65 2f 3c
       -0.146221 -0.35977212 -0.048191648 0.010705309
0001e0 6d 72 e0 3d 5a c1 d8 3d 29 75 73 be 75 9b 57 bd
       0.10959325 0.10583754 -0.23775162 -0.05263849
0001f0 d4 0b 3c b9 6b 10 74 bd 39 a1 96 bc 9d d9 90 be
       -0.00017933483 -0.05958597 -0.018387424 -0.28291026
000200 77 87 34 be e2 ec 3e be 57 9e 88 3c 47 f5 a6 bd
       -0.176298 -0.18645051 0.016677065 -0.08152252
000210 be 6c f2 3d b1 0e 94 bd 0d 74 7c be d1 a8 0e 3e
       0.11837147 -0.07229365 -0.24653645 0.13931586
000220 bd 27 ce bd 61 03 09 3e c9 f7 6c 3b 65 03 12 be
       -0.10066173 0.13380195 0.0036158434 -0.14259107
000230 e2 de 06 be a1 07 29 be c9 be b9 3d 4b 65 34 3e
       -0.1317096 -0.16506816 0.090695925 0.17616765
000240 50 25 09 be 0c 62 18 3e c9 03 f8 3c 44 02 fc 3d
       -0.1339314 0.14881152 0.030275242 0.1230512
000250 1d a6 43 be 9b 35 a1 be 4b 75 28 bc 3f 59 2c be
       -0.19106336 -0.3148621 -0.010281871 -0.1683092
000260 94 0b d7 3d 13 b8 f3 3d a2 49 61 be 7e 0f 29 be
       0.10500255 0.11900344 -0.22000745 -0.16509816
000270 ad 46 2b bd 72 e5 23 be a1 b4 c6 bd 5e ce 36 be
       -0.04181545 -0.16005495 -0.09702421 -0.1785216
000280 83 8d e7 bd 17 0a 87 bb 25 f9 0f 3d 7e 9d 0a 3d
       -0.11306288 -0.004121076 0.035149712 0.033841603
000290 84 49 be 3d 65 a2 92 3d 6b fc 6f be a4 c4 70 3c
       0.09291366 0.071598805 -0.23436134 0.01469532
0002a0 cd 5f c9 bc 74 44 a5 3c 4a a6 da bd 12 8a 18 3e
       -0.024581814 0.020174243 -0.10676248 0.1489642
0002b0 58 ba 6d be f0 fa 13 3e 1f d6 a2 bd 2c 5f ec 3d
       -0.23215616 0.14451194 -0.079509966 0.1154159
0002c0 ba 2f f3 bc 91 22 ea bd 84 28 2a be 29 ba 3f bd
       -0.029685844 -0.11432374 -0.16617018 -0.046808396
0002d0 57 79 52 3d eb 34 6b be 95 91 b4 bd d2 42 6e bd
       0.05138525 -0.22969405 -0.0881683 -0.058169194
0002e0 5f 2b 0a be 56 48 00 be 20 48 6b be c7 5d 8d bd
       -0.13493107 -0.12527594 -0.22976732 -0.06902652
0002f0 40 36 eb 3c 01 f2 d7 bc 57 2e 7c be 45 b6 03 be
       0.028712392 -0.026360514 -0.24627052 -0.12862499
000300 06 c1 3c bc d9 ee ee 3c 1d 25 a4 3d 88 01 49 bd
       -0.01152063 0.029166626 0.08014891 -0.049073726
000310 c6 3b 19 3e 15 b0 52 be 25 01 e9 bd 3e 1f ad 3c
       0.14964208 -0.20574982 -0.113771714 0.021133061
000320 23 6c 08 be 23 64 e0 bd ef b6 1f 3e 03 03 81 bd
       -0.13322501 -0.109565996 0.15597127 -0.062994026
000330 cd d2 08 3e 8e b9 19 3d 81 a5 cd bd e5 ea f6 3d
       0.13361664 0.037530474 -0.10041333 0.12056521
000340 f6 a6 0f bc 26 9c bb bc 9a 76 50 3d 18 a0 67 bd
       -0.008767834 -0.022901606 0.050894357 -0.05654916
000350 1c c0 51 3d dc 55 4e 3e 96 65 35 be 7d df 30 be
       0.0512086 0.2014994 -0.17714533 -0.17272754
000360 7b ea 04 3e ee 3d 31 3e 7b ea 31 be a8 44 06 3e
       0.12980072 0.1730878 -0.17374603 0.13112128
000370 dd ab 2f 3e 48 c8 04 be d9 1d 38 be bf 18 f9 3d
       0.17155404 -0.12967026 -0.17980136 0.12162923
000380 92 6a 9a bd 83 41 8a bd 37 fa 48 bd 82 4d c3 3d
       -0.07539858 -0.067507766 -0.04906675 0.09536268
000390 b1 69 f4 3d 08 85 0f be 56 5f f6 bd 1c 9d d7 bd
       0.119342215 -0.14015591 -0.12029903 -0.10528013
0003a0 52 c5 0c 3e f2 2d 09 3e c1 a0 93 3d ef 85 04 3e
       0.13747147 0.13396433 0.07208396 0.12941717
0003b0 b7 8a 89 be e8 fa df bb a9 fe e5 bd 53 82 c9 3d
       -0.26863644 -0.0068353303 -0.11230213 0.098393105
0003c0 b9 46 b6 3d 86 4f 53 3d 2d 91 5e be fa 27 17 3e
       0.08900208 0.05158951 -0.21735068 0.14761344
0003d0 9f 53 80 3d d4 40 d3 be 11 64 9d bc e2 81 80 be
       0.062659495 -0.41260397 -0.019212754 -0.25099093
0003e0 70 d3 d0 bc b0 96 81 3d b3 a1 89 be 1a 08 a7 be
       -0.025491446 0.063275695 -0.2688118 -0.32623369
0003f0 e8 76 41 3c 24 27 cf 3d ca 86 82 bc 79 47 8a be
       0.011808135 0.10114887 -0.015933413 -0.27007654

shared_layers.4.bias f4 [8]
000000 07 80 98 bc 7a 6e 5c bd 2a c5 a6 bd 2a cc ba 3d
       -0.018615736 -0.053816296 -0.08143075 0.091209725
000010 87 b8 75 be fb 00 98 bc 89 22 fe 3d b8 b1 2d 3d
       -0.23996173 -0.018555155 0.12408931 0.042405814
