training/models/controller_controller_acc0.95_lat0.012_succ5_small7_large10_carb15_cap105_rate0.001598_best_model.pth (torch, 18445 bytes, 6 tensors)

shared_layers.0.weight f4 [64, 3]
00000000: 353c 993d 49aa 033c 1cdf d6be b2f1 bebe
00000010: d5a0 b7bd e7b3 c33e e55c 143e 7dda f53e
00000020: 9bf1 81be 28a6 13bf 55fb ebbc 13c9 8d3e
00000030: 5bbf 2d3f d465 c2be 36d3 af3e 3b52 9dbe
00000040: daba e1be 5738 8ebe 5523 9c3e 3373 fcbd
00000050: f820 863e 6ce2 dbbd 68e3 913e 6ac3 fbbe
00000060: 76e2 0a3f 25ad fa3d 32c5 cd3e ffea c6be
00000070: cfa8 f9be 81a2 c63e 39a1 93be 342f 103f
00000080: 7f35 b1be 87e7 bbbe 5862 a73e df7d ec3e
00000090: 84f7 133f 8fee 023f 07b3 493e bc61 bb3d
000000a0: a933 d03e 05de f7be 8eb7 92be a19b 963e
000000b0: 4921 1e3f 8d1d b33e 70a7 f63e 791e 173f
000000c0: af38 953e 0fa3 02bf e26d 27be 8008 213f
000000d0: c70c dd3e a70d 143f ecd7 163d 3ce8 fd3d
000000e0: cbea 143f 8f6d 6bbe 07cd edbe 2947 3b3e
000000f0: 1e61 2bba b3aa babe f75b 35be 93b3 503e
00000100: bb6a 103f 0c49 32bd 534d 983e 2809 1bbe
00000110: 3da9 79be f769 5abe e09b f33e 347c 8fbd
00000120: 0fbd e03e 2909 75bd 5153 573e 6bdc b53e
00000130: 789a be3d 41a2 133f 55a9 d33c afcf 15be
00000140: 5a23 3dbe 24fe 4abd 9aea fabe 9f67 213e
00000150: e1be 72be b1be eb3e 30ca cbbe 4e95 86bd
00000160: 9850 47be a653 39be 64a4 ea3d 3ab1 2e3f
00000170: 8687 8cbe c84f 08bf 666b 403e 4ae0 d43e
00000180: 4e89 fe3e 3bac 603d c941 92be 3ac2 e83c
00000190: 30cc ebbe f674 d1be a4ff b13e 2bbd f8be
000001a0: 58fe ffbe 066c ee3e f0de adbe d8ad 383e
000001b0: 41b5 80be 2388 d6be 189e d7be f38a 113f
000001c0: 7dc4 0f3e 5230 bcbc d29c 9f3d 7fa9 b83e
000001d0: ebb3 a4be 99ac 2f3e efc3 893d c0c5 9a3e
000001e0: 4908 dc3e 8a25 10bf 1105 debd 2ce6 ab3e
000001f0: e4f7 fe3d eb92 29be 5764 e33e 7762 013f
00000200: 5415 df3d a666 ba3e 1324 503d 546a 06bf
00000210: 76be 25be 7409 8cbe 6311 5e3e 3a03 e2be
00000220: 080f cb3c fdbc 95bd a13f 0ebf 7aa6 8c3e
00000230: 15d3 0ebf 3344 e33e 60ac 103e c475 a9bd
00000240: 1f99 3e3e 9a6b c13e b4eb 3e3d 18af 9fbe
00000250: a2fc f63e 80c4 66be a20d d93e d998 933d
00000260: e6ae c4be 148f f6be 4556 ce3e 4bed 01be
00000270: a8b4 e3be 5cfc 333c f339 21be f603 06bf
00000280: 0215 0abf 7987 433d cabd cfbd 5513 80be
00000290: 7d46 96be c913 43be 419e 373e 22c1 b2be
000002a0: aa67 7c3e eff5 b83e d41d ad3e d14a ef3e
000002b0: 0bbc f93d 2e43 363e 4d2d 08bf 58b5 18be
000002c0: 0c0b d03d 86da 15be a0aa 853e 075b d53e
000002d0: c581 a4be dbfd bc3e a9d1 f63e 59b7 1cbd
000002e0: a8e2 8b3d e1ad bc3d a52e 04bf 0c0f b13e
000002f0: bb00 12bf e7e6 dfbc 3d04 2e3e 4aa9 7c3e
0.07482187 0.008036205 -0.41967094 -0.37293774 -0.08966223 0.38223192 0.14488561 0.48018256
-0.25379643 -0.5767541 -0.028806368 0.2769247 0.6787011 -0.37968314 0.3434083 -0.307268
-0.4408787 -0.2777736 0.30495706 -0.1232666 0.26197028 -0.10736546 0.2849381 -0.49172527
0.542518 0.12240056 0.4018951 -0.38851163 -0.48761603 0.38795856 -0.2883394 0.56322026
-0.34611127 -0.3670008 0.32692218 0.46189782 0.57799554 0.5114526 0.196972 0.09149501
0.40664414 -0.48411575 -0.28655666 0.2941561 0.6176954 0.34983483 0.4817462 0.5903087
0.2914481 -0.5103006 -0.1635051 0.62903595 0.4317381 0.5783333 0.036827013 0.12397811
0.58170766 -0.22991012 -0.46445486 0.18288864 -0.0006537604 -0.36458358 -0.17710863 0.20381002
0.5641286 -0.043526694 0.29746494 -0.15140212 -0.24380966 -0.21329485 0.4757986 -0.07006112
0.4389424 -0.05982319 0.21027876 0.35519728 0.09306806 0.57669455 0.02583758 -0.14630006
-0.18470517 -0.049558774 -0.49007112 0.15762185 -0.23705627 0.46043923 -0.39802694 -0.06571446
-0.19464338 -0.18098316 0.11457136 0.68239176 -0.27447146 -0.53246737 0.18790969 0.4157737
0.4971413 0.05485175 -0.28565815 0.028412927 -0.4605422 -0.40909547 0.3476535 -0.48581824
-0.49998736 0.4656679 -0.3395915 0.18035066 -0.25138286 -0.4190074 -0.42112803 0.56852645
0.14039798 -0.02297226 0.07793583 0.36066815 -0.32168517 0.17155685 0.067268245 0.30228996
0.4297507 -0.5630728 -0.1084081 0.33574045 0.12449625 -0.16559951 0.4441249 0.5054087
0.1089274 0.3640644 0.050815653 -0.52505994 -0.16185936 -0.27350962 0.2168632 -0.44143087
0.02478744 -0.07311437 -0.5556584 0.27470762 -0.55790836 0.4438797 0.14128256 -0.08274415
0.18613099 0.37777406 0.046611503 -0.31188273 0.4823962 -0.22535896 0.42393214 0.07206888
-0.38414687 -0.48156035 0.40300193 -0.12688176 -0.44473767 0.01098546 -0.15744762 -0.52349794
-0.53938305 0.04773662 -0.10143621 -0.2501475 -0.29350653 -0.19050516 0.17931463 -0.34912974
0.2464892 0.36125132 0.3381182 0.46736768 0.121940695 0.17799065 -0.53194124 -0.14912927
0.10158357 -0.14634141 0.2610674 0.4167101 -0.32130256 0.36912426 0.48206833 -0.03826079
0.068303406 0.09212852 -0.51633674 0.34581792 -0.57032365 -0.027331783 0.16993804 0.24673954

shared_layers.0.bias f4 [64]
00000000: f340 86be 29af 1fbe 70b4 77bb 7506 edbe
00000010: 2bb5 db3e 5e1d 913e ea51 2f3e 0797 dfbe
00000020: cfb2 a33e 7613 13bf 03bb 82be 5cf6 b43e
00000030: 1f46 74be 6eb4 c1be 4882 243f 9aa4 f93e
00000040: 67bc ad3e ad81 3bbe 8994 0b3f a5c5 f03e
00000050: ca85 1c3f 79c7 9a3e 2217 cf3e 685e 0ebe
00000060: 8a11 d63e 926a b23e 7ea4 4abe 09a7 18bd
00000070: 833b a53e 09bd ecbc 2ee7 d73e d22e 34bc
00000080: 326b b9bd cba6 f63e dcc6 f8be 01b2 063f
00000090: 34e8 32be f130 943e 6f53 e63e 9829 0f3e
000000a0: 018c 76be baa2 0abe c960 153f 6717 183f
000000b0: a1c1 bdbe 9aa9 38be bdee c6be b29d ec3e
000000c0: 2b4a c53d c56f 30be fd49 203e 7a1b 93be
000000d0: 99a0 263f 0fee 6fbe 3839 f0bd a54e e1be
000000e0: 59a4 d13e 03e2 aabd e1f5 b13e 8c06 cf3e
000000f0: cf30 ce3c f416 1cbe 574b 44bd 441e f0be
-0.26221427 -0.15594162 -0.0037796758 -0.4629399 0.42911658 0.28342718 0.17121091 -0.43669912
0.31972358 -0.5745157 -0.25533304 0.35344207 -0.23854874 -0.3783297 0.64261293 0.48758394
0.33932802 -0.18311186 0.5452352 0.4702579 0.61141646 0.3023031 0.40447336 -0.139032
0.41810256 0.34846932 -0.19789311 -0.037268672 0.32271966 -0.028898733 0.42168564 -0.010997491
-0.09053649 0.48174128 -0.48589218 0.5261536 -0.17471391 0.2894359 0.4498553 0.1398071
-0.24076845 -0.13538638 0.5835081 0.5941071 -0.3706179 -0.18033448 -0.38854018 0.46214062
0.09633287 -0.17230137 0.15653224 -0.287319 0.650888 -0.23430656 -0.117296636 -0.44005314
0.409457 -0.083438896 0.34757903 0.40434682 0.025169758 -0.15243131 -0.047923412 -0.4689809

shared_layers.2.weight f4 [32, 64]
00000000: fe31 febd 080e f5bc 9186 933d b054 063c
00000010: a574 3c3d 082d 4c3d fb96 923b 7c4c 4cbd
00000020: 6b8c f43d dcb6 3bbd 62b5 b4bd f098 43bd
00000030: 8123 4d3e 9560 fc3d 5686 02bd 41f5 893d
00000040: 1cba b0bc 00dd 82bc 2608 5e3d f443 af3c
00000050: 98a4 0b3e 1e82 df3d bfdf 183e 213a 8fbd
00000060: 8207 253e a920 0b3d d453 7cbd b83d c93d
00000070: 3aff 0d3d 540d 3a3d 888a 043e 0051 19ba
00000080: 71c9 963c c443 123e 3a0b 9e3d 1398 4d3e
00000090: 3c13 53bd e4ed a43c e6a6 fa3d c769 1cbd
000000a0: 5a0d 9bbd f28a 9e3d cc94 2a3e 3c19 223c
000000b0: 44d8 713d 88c4 22bd fe33 ebbd c741 943d
000000c0: 178f 42bc f030 34bd 29ef 323e aca1 e93d
000000d0: 2f0c 883c c8ec 853c b048 3dbc 70c7 df3c
000000e0: b90e 2a3e 02e5 4b3e 58a6 ad3d 07bf 203e
000000f0: 8229 b73d ecf2 2f3d 8aab f3bd d85c 903c
00000100: d844 b03d fea9 d43d c04f 573c b449 4b3d
00000110: 1c0d 763d d898 483d 0045 553d a2c1 e8bd
00000120: 183b b9bd 844c 1dbd 803f 243c e8a0 54bd
00000130: 301d 4b3c 0271 adbd e6cf fc3d 0035 a8bb
00000140: ec2d c8bd 602c 25bc 7016 26bd e24f f6bd
00000150: 4e6f febd 9032 6ebc fe9a f5bd 4425 a2bd
00000160: 0a80 d2bd c832 c4bd a04d b9bc e04f 8c3c
00000170: 80b7 ac3d 36e8 f43d dc04 8bbd bc46 533d
00000180: a804 4cbd 809d 1bbd e46d 103d 2078 9a3b
00000190: d0f0 6bbc 4063 543b bcd9 08bd 8ca2 843d
000001a0: 6cb2 c8bd aa5a c43d c022 143d 78e7 a13c
000001b0: dc4d d2bd bc77 f23d 7651 b9bd 3cc8 903d
000001c0: 9863 6d3d 8870 cc3d 00f1 6ebb a0d8 553d
000001d0: c8af fd3c cec9 d4bd 68ff c6bc 94e1 28bd
000001e0: 1cbe 1cbd 72a9 dd3d 0c87 8ebd e4ba b83d
000001f0: e829 fb3d 5830 94bd 2871 b8bc 500f ca3d
00000200: 20d7 1fbd 06a7 b0bd 957b 653e f00b 11bc
00000210: 4bbe 9a3d 3033 ddbc 92f3 393e 68b8 62bd
00000220: 2d41 1b3d f491 f0bd 8854 dcbd eaf7 543e
00000230: f655 203c 4842 963d 99c2 9bbc e540 1c3e
00000240: b2d5 363e d809 573e 3291 d53d 2ab2 753a
00000250: 766d db3d c95c 263d f5c0 953d 2e90 983c
00000260: 3c34 cf3d 19ac e93d 2895 e93d 0e8f f53d
00000270: 88f8 8c3d 38d7 e4bc 9d79 babc 0817 3a3d
00000280: 5859 bd3d d8d2 393e 2698 b9bd 0955 f13d
00000290: c851 d03c a141 1b3e 25a5 b33d b23d 633d
000002a0: 68f0 44bd dd36 613c 9450 243d 9bae f53d
000002b0: c614 fcbd 96c0 a23d b88c 4e3d 9dee 343e
000002c0: 7512 0c3e d43f ae3d 6bc6 583d 488d e63c
000002d0: 69c4 243e f660 e13d a8ca b13c 68ab f43c
000002e0: 477d 1e3e b616 f83d 402d e53c 13c2 0d3e
000002f0: 97e7 ee3c 249f 7b3d 323a a23d 0049 43bc
00000300: 4883 b4bd d024 ecbc 5c33 35bd e0e7 c33b
00000310: d0e8 2ebd 0ede f8bd 727a 02be 5843 bf3d
00000320: 17e6 48bd 1819 aebc 9607 e4bd 9704 6ebc
00000330: e576 393d 5453 9bbd 6c2e 863c d32d 99bd
00000340: e426 ac3c 91d2 95bd d298 64bc 378d 5ebd
00000350: 972f 72bb 1f96 563d 305a ba3c 876d 16bc
00000360: 5794 88bc 35db c0bd 82cf d1bd dc78 103d
00000370: 5d77 d6bd 9c5a 48bd 754b b4bd c034 b93d
00000380: e68f 03be eced fa3b 0c42 76bd 2f4e bbbd
00000390: 18a2 503d 4b9d 63bd a66b 88bd 8ee3 ddbc
000003a0: 9c1f 78bd 90f1 8ebd 3cfc e43c 47e5 d33d
000003b0: 7863 4bbd cc19 b0bd 645d 11bd 5620 b33d
000003c0: 3d4f d43d 3443 c3bd bcf8 a03c bc90 0cbd
000003d0: 46a2 d6bc 2677 fa3d 6406 9bbd d486 c53d
000003e0: fc75 203d ec1f 8cbc a014 8a3b d9cd 2fbd
000003f0: a01f abbd de6c f1bd bc8c ffbd 08d9 9b3c
-0.12411879 -0.029913917 0.07203401 0.008198902 0.04600968 0.049847633 0.0044735647 -0.04987763
0.11940845 -0.045828685 -0.088236585 -0.047753274 0.20033075 0.12323109 -0.031866394 0.067362316
-0.021573119 -0.015974522 0.05420699 0.021394707 0.13637006 0.1091349 0.14929102 -0.06993509
0.16116145 0.033966694 -0.061603382 0.09826225 0.03466723 0.045422867 0.1294347 -0.0005848557
0.018406602 0.14283663 0.07716985 0.20077543 -0.051532015 0.020132966 0.122388646 -0.038186815
-0.07570906 0.077413455 0.16658324 0.009893712 0.059044138 -0.039738208 -0.11484526 0.072391085
-0.011874936 -0.043991983 0.17474045 0.114077896 0.016607372 0.016348258 -0.011552975 0.027316779
0.16607179 0.19911578 0.08478993 0.15697871 0.08943464 0.042956278 -0.11897953 0.017622396
0.08606881 0.10383986 0.0131415725 0.049630836 0.060071096 0.04897389 0.052067757 -0.113650575
-0.09044474 -0.03840305 0.010024905 -0.051911265 0.012397096 -0.0846882 0.12344341 -0.005133271
-0.09774384 -0.010081381 -0.04054874 -0.12026955 -0.124235734 -0.014538422 -0.11992453 -0.07917264
-0.10278328 -0.09579998 -0.022620022 0.017127931 0.08433437 0.11958353 -0.06788036 0.05158113
-0.049809128 -0.037992 0.03526105 0.004714027 -0.014400676 0.003240779 -0.033410773 0.06476316
-0.09799656 0.09587605 0.036165953 0.019763693 -0.10268757 0.11839244 -0.090487406 0.07069442
0.057956308 0.09982401 -0.0036459565 0.052208543 0.030967608 -0.10390054 -0.024291709 -0.041230753
-0.03826724 0.10823335 -0.06959352 0.090200216 0.12263852 -0.07235783 -0.022514895 0.09866202
-0.03902352 -0.08625607 0.22410424 -0.008852944 0.07555827 -0.027001947 0.18159321 -0.055351645
0.037903953 -0.11746588 -0.107583106 0.20797697 0.00978612 0.07336861 -0.01901369 0.1525913
0.17854956 0.20999849 0.104280844 0.0009372557 0.107142374 0.04061583 0.07312194 0.018623438
0.10117385 0.11409778 0.114054024 0.11990176 0.06883341 -0.027934656 -0.022763068 0.04543212
0.092455566 0.18146837 -0.09062223 0.11783797 0.025429621 0.15161754 0.08771733 0.05547876
-0.04808083 0.013745991 0.040115908 0.11996194 -0.1230865 0.07946889 0.05042717 0.17669149
0.13678916 0.08508268 0.0529236 0.02814354 0.1609055 0.11004822 0.02170308 0.02986689
0.15477477 0.12113707 0.027975678 0.13843565 0.029163165 0.061431065 0.07921256 -0.01191926
-0.088141024 -0.028826147 -0.044238433 0.0059785694 -0.042702496 -0.121517286 -0.12742022 0.09339017
-0.049047556 -0.0212522 -0.111342594 -0.0145274615 0.045279402 -0.07584253 0.016379558 -0.074794434
0.021014638 -0.07315553 -0.013952451 -0.05433389 -0.0036954635 0.05238926 0.022748083 -0.009181387
-0.016672296 -0.094168104 -0.10244657 0.03527151 -0.104719855 -0.048914537 -0.08803455 0.090432644
-0.12847862 0.007657757 -0.06012158 -0.09145772 0.050935835 -0.05556993 -0.06661157 -0.027086046
-0.06057702 -0.06979668 0.027952306 0.103464656 -0.049655408 -0.0859867 -0.035489455 0.08746402
0.10366676 -0.09534302 0.019649856 -0.034317717 -0.026200425 0.12229757 -0.07569578 0.09644857
0.03917502 -0.017105065 0.0042138845 -0.04292092 -0.08355641 -0.11788343 -0.12478015 0.019024387

shared_layers.2.bias f4 [32]
00000000: c8b5 1f3e b022 4ebc 2dde 173e 036a 8f3d
00000010: c88b 0ebd c47a 9f3d c043 ce3d 1632 1d3c
00000020: 4a02 bbbd 80c9 fabb c64a 473e 8a4e a1bd
00000030: d24c b53d b00f 74bd f840 efbd 0236 033e
00000040: 801e 413e e3de be3d 7731 be3d 2765 6dbc
00000050: 45c7 d33d 5499 5dbd 2767 133e 1ee0 85bd
00000060: 462c bb3c 9235 c6bd 4882 6c3d fc85 a93d
00000070: 4fb1 463e 80b2 7e3c 59d9 563d 1d24 9c3d
0.15596688 -0.012581512 0.14830847 0.07002642 -0.034801275 0.077870876 0.10071516 0.009594461
-0.09131296 -0.007653415 0.19462118 -0.07876308 0.08852543 -0.059585273 -0.11682314 0.12813571
0.18859291 0.09319856 0.092867784 -0.014489449 0.10340742 -0.054101303 0.14394818 -0.065368876
0.02284826 -0.096781865 0.057741433 0.082775086 0.19403575 0.015545487 0.052453373 0.076240756

shared_layers.4.weight f4 [8, 32]
00000000: 63be 0d3e 00af 88bb e635 143e a174 1b3d
00000010: 851b ccbc 42ea 66bd 1ff6 da3d d429 173e
00000020: 3003 29be 1ef2 42bd ec07 a33d 4312 f4bd
00000030: 742f ca3d 1a5f 17be 3307 f13b d1ee 763e
00000040: 1a0d 2e3e 84d9 09be d24c 443d 721b cebd
00000050: 891c a83d f5c7 5bbd 2a02 dc3d 2471 8ebb
00000060: 6575 f8bd 424a 223d a17d 96bd 384a 53bd
00000070: 317b 583e a4b1 283e 4696 25be b6cd 033e
00000080: 85a1 e9bd 6eac dc3d 7296 8dbd bd0c 283e
00000090: 7e52 02bd 2c87 de3b ff4a 46bd ffce ef3b
000000a0: 56a4 a8bd 53c5 13be 2fd4 74be 103b c0bd
000000b0: 0835 51be aa94 b8bd f648 ecbd 26c1 63be
000000c0: c8a5 82be 2d4b bd3d b9b0 aebd ac10 b33d
000000d0: b404 543d 188a a2bc 6295 24be 609b c2bd
000000e0: 7ff6 993d f803 3f3b a871 283e 6b48 513c
000000f0: e402 6fbe b2ad 5d3d 7295 303d 990e 733d
00000100: 3960 75be e916 183d 18b7 69be fe39 dcbd
00000110: 9e2e 053e b816 13be 92af 293e d2f5 debc
00000120: 1a43 d83c 4ef3 e03d 771d 3b3d aaec 8e3c
00000130: 4317 9fbd 21b3 5d3d 300f 163e 7411 b2bc
00000140: 68dd 03be 2a45 543d 7229 173e a6c0 a7bd
00000150: 772b 13bc 4aba f63d 33d4 70be 7cf6 993d
00000160: 2cba f53d d8ed 543d adf8 903b 003b b5bd
00000170: 465c 77be 4dd6 1bbe df33 93bd 7cc5 6ebe
00000180: 19ce ce3b 3009 b83d 30df 22be 01d2 7fbd
00000190: f970 2abe c22b b83a 0ea9 fe3d dd95 1c3e
000001a0: e476 513d 7396 723d 8764 47be daf0 a5bd
000001b0: 7af4 30be b51b 063e 477d 01bd 6e19 3cbd
000001c0: 636c d9bd 51eb 243e a131 20bd 9722 c1bc
000001d0: 664e 93bc d906 9cbd 984b 89be 315f 833d
000001e0: f151 8d3d 532a 813d ff85 dbbd 81d6 d3bd
000001f0: 11ed 48bd 37b8 ae3c a979 d2bd d1c3 5cbe
00000200: 9926 963d 4abc f0bd ad06 e83b c37d 0d3e
00000210: 90c9 0d3d fc43 2dbe 405d 2a3e 11c0 083d
00000220: eb76 7e3d 1e65 28be d82b e4bd 0d86 093c
00000230: 2ebb 4bbe 3cd5 6cbd f32d 1ebe 748f 0b3c
00000240: d591 41be cca0 69bd e0e8 e63d f212 a5bd
00000250: 279f 3dbe 1819 18be 5708 3ebd b92d dabd
00000260: 52ce 5c3b f259 1e3e f68d 16be 38a7 203e
00000270: 8883 14be f7bd f5bd b501 31be 12ae 86be
00000280: 636b 84be b9f9 8abd 37b2 153c 7196 f23d
00000290: 622f 51bd 1126 c3bd 42f8 943d 6985 053e
000002a0: 032f 8bbd 334c 1abe cd3f 8abd d785 4abd
000002b0: 5811 95bd 0ee6 173d 136a f0bd eed6 b4bd
000002c0: 7507 70be 0bc3 d03c 26d8 ef3c 7bd6 9a3d
000002d0: a103 9f3a 019c 8b3a 1d77 193b cfe6 c13d
000002e0: e3f0 11be 89a2 ee3c 919c 98bd c745 3abd
000002f0: c09c 433d 1a8d f83d 1a81 ba3d e169 393d
00000300: 0496 0c3c a1e6 7c3d a2a8 48bd 0d8f ad3d
00000310: f484 3e3d cb79 3abd ab2f ebbc 9054 c43d
00000320: 3987 30be 2d11 e63d c7be 81be a798 00be
00000330: be55 42be a058 d8bc 2c55 2fbd 7c8f dabd
00000340: 2588 cfbd f932 153e 9f9c 16be 776e dd3d
00000350: 7513 d3bd 7e21 2e3d acc0 d8bd a256 bfbd
00000360: efb0 1dbe 08fd 68bd 5295 b7bd 2fa2 3fbd
00000370: 0464 3abe 9b0b 0e3e bb63 2d3c 21e5 7fbc
00000380: 2bb6 82be cca8 e83d 1033 63bd d3f8 ce3d
00000390: 70ee 133e d067 23be b765 843d 6139 183e
000003a0: 3efb e8bd 0f81 dbbd a58b a2bd f380 17be
000003b0: 88b8 c3bd 50d2 05be c1cf cfbd bb89 4dbe
000003c0: bcd5 493c 25bc 2abe 6b1e a33d 8617 c73b
000003d0: f37c 80be 6825 423d dbe6 acbc d2dd 1fbe
000003e0: d22c 87bc d893 bd3d 6762 56bd c8b6 103d
000003f0: 9556 7dbe d16b 32be 81f8 dc3c 100f 85be
0.13842158 -0.0041712523 0.14473686 0.037953023 -0.024915466 -0.05637575 0.10691475 0.1476205
-0.16505122 -0.047594182 0.07960495 -0.11917546 0.09872332 -0.14782372 0.0073555945 0.24114539
0.16997185 -0.13461882 0.047924824 -0.100638285 0.08208568 -0.05365749 0.107426 -0.0043469835
-0.12131766 0.0396216 -0.073481806 -0.051584452 0.21140744 0.16474015 -0.16170606 0.12871441
-0.114077605 0.10775076 -0.06913461 0.1641111 -0.031816952 0.006791016 -0.048411366 0.007318377
-0.082344696 -0.14430742 -0.23909067 -0.09386265 -0.20430386 -0.090127304 -0.11537354 -0.22241649
-0.25517106 0.09242854 -0.08529801 0.08743414 0.051762298 -0.019841239 -0.1607261 -0.09502292
0.075177185 0.0029146653 0.16449606 0.012773613 -0.23340946 0.054120727 0.043111272 0.059340093
-0.23962487 0.037131224 -0.22823751 -0.10753249 0.13006064 -0.14364135 0.16570881 -0.027216826
0.026399184 0.10983907 0.045682397 0.017446835 -0.07768109 0.05412591 0.14654231 -0.021736838
-0.12877429 0.051823772 0.14761904 -0.08191042 -0.008982531 0.120472506 -0.23518448 0.07517716
0.119984 0.051984638 0.0044241757 -0.08849144 -0.24156293 -0.15218468 -0.07187628 -0.23317522
0.00631119 0.089861274 -0.15905452 -0.062456135 -0.16644658 0.0014051127 0.124345884 0.15291543
0.051138774 0.05922551 -0.19471942 -0.081025794 -0.1728076 0.13096507 -0.031613614 -0.04592269
-0.10616376 0.16105391 -0.03910983 -0.023576064 -0.01798172 -0.076184936 -0.26815486 0.06414641
0.06900395 0.06306901 -0.10718917 -0.10343648 -0.04905421 0.021328075 -0.10277111 -0.21559073
0.07331581 -0.11754663 0.007080874 0.13817506 0.034616053 -0.16920465 0.16637135 0.033386294
0.062125128 -0.16444823 -0.11141175 0.008393777 -0.19895622 -0.057820544 -0.15447216 0.008518089
-0.18903287 -0.057038113 0.11274886 -0.08060254 -0.18517743 -0.14853323 -0.046394672 -0.10653252
0.0033692312 0.15463999 -0.14702591 0.15688789 -0.145033 -0.119991235 -0.17285807 -0.2630468
-0.2586318 -0.06785912 0.009136728 0.11845101 -0.05107058 -0.09528745 0.07273914 0.13039173
-0.06796076 -0.1506813 -0.0675045 -0.049444046 -0.07278699 0.03708463 -0.11738982 -0.08830057
-0.23440345 0.025483629 0.029277872 0.0756044 0.0012131819 0.0010651351 0.0023416944 0.09467851
-0.14252047 0.029130237 -0.07451738 -0.0454767 0.04775691 0.12136288 0.091066554 0.04526699
0.008580688 0.061743382 -0.048988946 0.084745504 0.046513513 -0.045526307 -0.028709253 0.095864415
-0.17239083 0.11233745 -0.25340864 -0.12558232 -0.1897802 -0.026409447 -0.042805836 -0.10671899
-0.101333894 0.14570226 -0.14708184 0.10812085 -0.103064455 0.04251241 -0.10583624 -0.09342696
-0.15399526 -0.056881934 -0.089640275 -0.04678553 -0.18202215 0.13871615 0.01058286 -0.015618593
-0.25529608 0.113603204 -0.05546862 0.10106053 0.14446425 -0.1595757 0.06464713 0.14865638
-0.11376046 -0.10717975 -0.07936791 -0.14795284 -0.09556681 -0.13068509 -0.10147048 -0.20072071
0.012319025 -0.16673334 0.07964786 0.0060758023 -0.2509533 0.047398955 -0.021106174 -0.15611961
-0.016500864 0.092567146 -0.052339938 0.035330564 -0.2474006 -0.17423941 0.026973965 -0.25988054

shared_layers.4.bias f4 [8]
00000000: 072c 82bc f190 12bd 3d60 303d ecbc 4a3d
00000010: 79f7 73be 0795 243c 0302 27be c328 c6bc
-0.015890134 -0.03578276 0.04306053 0.049496576 -0.23824872 0.0100452965 -0.16309361 -0.024189359
