training/models/controller_controller_acc0.819_lat0.006_succ5_small7_large10_carb15_cap105_rate0.001598_best_model.pth (torch, 18457 bytes, 6 tensors)

shared_layers.0.weight f4 [64, 3]
0	0xbedca005	-0.43090835
1	0xbf01dac9	-0.50724465
2	0x3e5ba0a0	0.21447992
3	0xbef751b8	-0.48304534
4	0x3e4c21de	0.19934794
5	0xbefcb8ec	-0.49359834
6	0x3e8f9fb3	0.28051528
7	0x3e821ecc	0.2541412
8	0xbd632fab	-0.05546538
9	0xbe6eaf4e	-0.23309061
10	0xbf08aa8b	-0.5338523
11	0x3e3fb22d	0.18720312
12	0x3f1c8147	0.6113476
13	0xbed88d29	-0.42295197
14	0xbf02b34f	-0.51054853
15	0xbefcf765	-0.49407497
16	0x3ec43810	0.38324022
17	0x3e087f83	0.13329892
18	0xbe88085f	-0.26568887
19	0xbde238c7	-0.11045986
20	0x3efae5fe	0.49003595
21	0xbe90c5b1	-0.28275827
22	0xbee2470a	-0.44194824
23	0xbe343092	-0.17596653
24	0x3eeea90f	0.46613356
25	0x3f11125d	0.56668645
26	0x3e4a62e0	0.1976428
27	0x3ec3ebe8	0.3826592
28	0x3d30a493	0.0431257
29	0xbe15f494	-0.1464408
30	0x3e1771e5	0.14789541
31	0xbd39b177	-0.04533526
32	0x3c82d094	0.015968598
33	0x3d80f253	0.0629622
34	0xbe97e4f9	-0.2966688
35	0x3e831d34	0.25608218
36	0xbe0e495a	-0.13895169
37	0xbeda6819	-0.42657545
38	0x3eeae90e	0.45880932
39	0xbec5f0ed	-0.38660374
40	0x3e6c491d	0.23074766
41	0xbeb7639c	-0.35818183
42	0xbeee1d68	-0.4650681
43	0xbe860e8e	-0.2618298
44	0x3ef12c42	0.4710408
45	0x3e98fa07	0.29878256
46	0xbe6b5827	-0.22982846
47	0x3f0db958	0.5536094
48	0x3f27b45c	0.6550958
49	0x3e98e334	0.29860842
50	0x3f12bb1c	0.57316756
51	0x3efc8db0	0.4932685
52	0x3e4bb28e	0.19892332
53	0xbdea499e	-0.114398226
54	0x3ebba7f4	0.36651576
55	0x3f0b00e8	0.5429826
56	0xbeaaf1fd	-0.33387747
57	0x3e44f4bd	0.19233985
58	0x3dc37889	0.09544475
59	0xbad0edba	-0.0015939989
60	0xbed8da6e	-0.4235415
61	0x3f0263d8	0.509336
62	0x3e82d9d8	0.25556827
63	0x3efec2f9	0.49758127
64	0xbf11416c	-0.5674045
65	0xbef893ed	-0.48550358
66	0x3e8f39f9	0.27973917
67	0xbec3846f	-0.38186976
68	0xbe49f3bb	-0.19721882
69	0x3e4533c7	0.19258033
70	0xbc58650c	-0.013207685
71	0x3e136a97	0.1439613
72	0xbee20397	-0.44143364
73	0x3eb4f17d	0.3534049
74	0x3dbce999	0.09224243
75	0xbef410dd	-0.47669116
76	0xbe4c5d63	-0.19957499
77	0x3efcdfb9	0.49389437
78	0xbd88df76	-0.06683247
79	0x3e82f78e	0.25579494
80	0x3e9ffe1e	0.31248564
81	0xbf00e785	-0.5035327
82	0xbea4e3b4	-0.32204974
83	0xbea8edb3	-0.3299385
84	0xbe10cc20	-0.14140368
85	0x3e805788	0.2506678
86	0xbed2b08f	-0.4115033
87	0x3e8f2579	0.27958277
88	0x3c024849	0.007951804
89	0x3f146e9e	0.5798129
90	0x3eec8f8f	0.46203277
91	0x3ee6ee1e	0.45103544
92	0xbd893b7d	-0.067007996
93	0xbf0dfcfd	-0.55464154
94	0x3e270a34	0.16312486
95	0x3f046e2b	0.517306
96	0x3ee735c3	0.45158204
97	0xbe68194c	-0.226659
98	0x3dc530cb	0.09628447
99	0x3e53e131	0.20691372
100	0xbeab5826	-0.3346569
101	0x3f100df1	0.5627127
102	0x3ce2efbe	0.027702209
103	0x3efd1d41	0.4943638
104	0xbeeef8d1	-0.46674207
105	0xbe7459d8	-0.23862398
106	0xbe0e2663	-0.13881831
107	0x3eea7854	0.45794928
108	0xbc8e5ac8	-0.017377272
109	0xbedc8245	-0.43068138
110	0xbeb6a259	-0.35670736
111	0xbeace094	-0.3376509
112	0xbe95c937	-0.29255077
113	0xbeb20cfb	-0.34775528
114	0x3efb4b15	0.4908072
115	0xbe4d0faa	-0.20025507
116	0x3ee05e06	0.43821734
117	0x3f188bcb	0.5958831
118	0xbcdc5f67	-0.02690096
119	0x3d4b161c	0.049581632
120	0x3d478af6	0.048716508
121	0x3f15a511	0.58454996
122	0xbed8f93f	-0.4237766
123	0x3edd9548	0.43277955
124	0xbea54597	-0.32279655
125	0x3df5093e	0.119646534
126	0x3db3df25	0.08782796
127	0x3e740c47	0.23832808
128	0x3a460844	0.0007554332
129	0xbcc2be15	-0.023772279
130	0x3d939cef	0.07207667
131	0x3e4bfe7b	0.19921295
132	0xbee5a6c6	-0.448538
133	0x3eefd186	0.4683954
134	0xbe6fca24	-0.23416954
135	0xbd8db170	-0.06918609
136	0x3d290b4a	0.04127053
137	0x3c0b6a10	0.008509174
138	0xbf00548f	-0.50129026
139	0xbea077c5	-0.31341377
140	0x3eb97d91	0.36228612
141	0x3efeb0eb	0.49744353
142	0x3dc2b7de	0.09507726
143	0x3eaf3ee8	0.3422768
144	0xbcab2586	-0.020891916
145	0xbee7b31b	-0.45253834
146	0xbea988da	-0.33112222
147	0x3e5c678a	0.21523872
148	0xbea20837	-0.31646892
149	0x3d390893	0.045174193
150	0x3ded59c7	0.11589389
151	0x3ef10e65	0.47081295
152	0x3e1caba8	0.15299857
153	0xbe4f5696	-0.20247874
154	0xbead87f0	-0.33892775
155	0x3ec8cad9	0.3921726
156	0x3ecb6b90	0.397305
157	0xbcb1ea26	-0.021718096
158	0x3e87a8e2	0.26496035
159	0xbe8e6f81	-0.27819446
160	0x3e9a37e7	0.30120775
161	0xbebfc860	-0.37457561
162	0xbe2bb4d1	-0.16768195
163	0xbc796ca1	-0.015223653
164	0xbe0c7e00	-0.1371994
165	0x3e98ae25	0.29820362
166	0x3e94cfda	0.29064828
167	0xbe351c95	-0.17686684
168	0xbe9b2c22	-0.30307108
169	0xbf1279b2	-0.5721694
170	0xbef2ff0c	-0.4746021
171	0x3d34b506	0.04411795
172	0x3ebb818c	0.36622274
173	0xbe95873c	-0.29204738
174	0x3ecfddc9	0.40598896
175	0x3ec3ded9	0.38255957
176	0x3f17b0ce	0.5925416
177	0x3e95621c	0.29176414
178	0x3f03e64b	0.51523274
179	0x3eaea936	0.34113473
180	0xbeb429c6	-0.3518812
181	0xbdbe906d	-0.09304891
182	0xbe73208d	-0.23742886
183	0x3e5e4651	0.21706511
184	0xbe7ce6df	-0.24697445
185	0x3ed23c41	0.41061595
186	0x3d0b504e	0.03401213
187	0x3e0de19b	0.13855593
188	0x3da1fddd	0.07909749
189	0x3db4db80	0.08830929
190	0xbea4d8ce	-0.3219666
191	0x3be2d3bd	0.006922214

shared_layers.0.bias f4 [64]
0	0xbf05e172	-0.5229713
1	0xbb937d8d	-0.004501051
2	0x3ec82e1e	0.39097685
3	0x3e1b1484	0.15144545
4	0x3eef7da2	0.46775538
5	0xbd8022b2	-0.062566176
6	0xbec23343	-0.37929735
7	0xbe402e74	-0.1876772
8	0x3ed610e1	0.41809753
9	0x3f0505d3	0.5196201
10	0x3f1cbe08	0.61227465
11	0xbe92d01d	-0.28674403
12	0xbf013e99	-0.5048614
13	0x3f0bec13	0.54657096
14	0x3d6b42ba	0.057436682
15	0x3e08e6f3	0.1336935
16	0x3eb02b45	0.34408012
17	0x3ebd6034	0.3698746
18	0x3e2f0e06	0.17095193
19	0xbefc6ac8	-0.49300218
20	0xbe9bca62	-0.30427843
21	0xbea6cf6a	-0.3258012
22	0xbef6c404	-0.48196423
23	0xbe56ee82	-0.20989421
24	0x3eedd8b2	0.46454388
25	0xbeed0b90	-0.46297884
26	0x3ed50866	0.4160797
27	0x3e34e6ed	0.17666216
28	0xbf012deb	-0.5046069
29	0x3e20a49c	0.15687793
30	0xbeb957ad	-0.36199704
31	0x3e193a67	0.14963685
32	0x3ca8fec1	0.020629289
33	0xbe0bb519	-0.13643302
34	0x3f0cae4d	0.5495346
35	0xbeb996fe	-0.3624801
36	0xbe985436	-0.29751748
37	0xbf0bb6f4	-0.5457604
38	0x3defc666	0.117077634
39	0x3f0bc6a0	0.5459995
40	0xbd731964	-0.059350386
41	0x3eb3b06f	0.35095546
42	0x3e0b5645	0.13607128
43	0x3f0527a0	0.5201359
44	0x3f03640a	0.5132452
45	0xbef07b97	-0.46969292
46	0x3ed7eef2	0.42174488
47	0x3e2b6b27	0.16740094
48	0xbf0d3bb9	-0.55169255
49	0x3e8e971c	0.27849662
50	0x3f2c506e	0.67310226
51	0xbde220ff	-0.1104145
52	0x3dc8a386	0.097968146
53	0x3ec8b909	0.3920367
54	0xbee1ec5e	-0.44125646
55	0x3f064c49	0.5246015
56	0x3d3aa18a	0.045564212
57	0x3d600542	0.054692514
58	0xbe7b1748	-0.245206
59	0xbe029775	-0.12753089
60	0x3f146f26	0.579821
61	0x3f052c2e	0.5202054
62	0x3cc339b7	0.023831232
63	0x3ee1866f	0.44047877

shared_layers.2.weight f4 [32, 64]
0	0x3dd9ba5c	0.10631248
1	0x3d94aa40	0.07259035
2	0x3dbda8f0	0.09260738
3	0x3da0d762	0.07853581
4	0x3cbeac78	0.023275599
5	0x3b837560	0.004011795
6	0xbd2ca7d8	-0.042152256
7	0x3d16c4bc	0.036808714
8	0xbc448685	-0.011994963
9	0xbd79fc40	-0.06103158
10	0x3dc114de	0.09427808
11	0x3d148fb8	0.036269873
12	0x3c730010	0.014831558
13	0xbd5d9201	-0.05409432
14	0xbdd705e8	-0.104991734
15	0x3dedf62f	0.116192214
16	0xbe002261	-0.12513115
17	0xbe009959	-0.12558497
18	0x3dc4db79	0.096121736
19	0xbd1efef0	-0.038817346
20	0xbda9fe36	-0.0830044
21	0xbd8f9526	-0.0701087
22	0x3bd72660	0.006565854
23	0x3d52b044	0.05143763
24	0x3d496d49	0.049176488
25	0x3ddb10da	0.106965736
26	0x3da0a833	0.078445815
27	0x3d897e3e	0.06713532
28	0x3d8ac750	0.06776297
29	0xbce9b5c5	-0.028529057
30	0xbd21dde0	-0.039518237
31	0x3d656c48	0.05601147
32	0x3b2ce2dd	0.0026380338
33	0x3db297d6	0.08720367
34	0x3d3d6202	0.046236046
35	0xbd016cb0	-0.031597793
36	0xbdde0734	-0.10841218
37	0x3d62c11c	0.055359945
38	0x3d47d746	0.048789285
39	0x3bd83ab8	0.0065987967
40	0xbd8a916e	-0.0676602
41	0x3d6e22e9	0.05813876
42	0x3dd1a060	0.10235667
43	0x3ded7a14	0.1159555
44	0xbd2676a3	-0.040640485
45	0x3db60f0c	0.08889589
46	0x3c65533c	0.013996895
47	0xbdad6c96	-0.08467977
48	0xbd448254	-0.047975853
49	0x3c832370	0.016008109
50	0xbdc6cac5	-0.09706644
51	0x3d766530	0.060155094
52	0x3b7bf92b	0.0038448076
53	0xbd6d257c	-0.057897076
54	0xbd34c720	-0.044135213
55	0x3cd09b03	0.02546454
56	0x3ca45730	0.020061105
57	0x3dba7a82	0.09105398
58	0x3ddc0c32	0.107445136
59	0x3cbbbd7f	0.022917507
60	0xbdb8c3fc	-0.09021756
61	0xbdb3e919	-0.08784694
62	0xbe01c4b7	-0.12672697
63	0x3d811ee3	0.06304719
64	0x3da33936	0.079698965
65	0x3c197b60	0.009367794
66	0xbc8a148e	-0.016855504
67	0x3c763600	0.015027523
68	0x3d9a976c	0.07548413
69	0x3d8322a2	0.0640309
70	0xbda80092	-0.08203234
71	0x3dc8f414	0.09812179
72	0x3d3e74ca	0.046498097
73	0x3d948fb6	0.07253973
74	0xbc5c73b1	-0.013455317
75	0x3c675b50	0.014120892
76	0xbd48673c	-0.048926577
77	0x3d3565ad	0.04428642
78	0xbb9bc100	-0.004753232
79	0x3e5c2199	0.21497191
80	0x3e3a1560	0.18172216
81	0x3b1002c0	0.0021974295
82	0x3e0d8aac	0.1382243
83	0x398ae800	0.00026494265
84	0x3c0e1e80	0.008674264
85	0x3de5ff2e	0.11230312
86	0xbd61b458	-0.05510363
87	0xbdd78a8a	-0.10524471
88	0x3c454566	0.012040472
89	0x3acfc100	0.0015850365
90	0x3d64f7b3	0.055900287
91	0xbde54bae	-0.111960754
92	0xbd86e188	-0.065859854
93	0x3d39e118	0.04538068
94	0x3c0b0076	0.008483997
95	0x3d5a15d0	0.05324346
96	0x3e03fae1	0.12888671
97	0x3c850f98	0.016242787
98	0xbca295a1	-0.01984674
99	0xbc9d4bf0	-0.019201249
100	0xbc021e90	-0.007941857
101	0xbb81fea0	-0.0039671212
102	0x3e1806d6	0.14846358
103	0x3e1610fc	0.14654917
104	0x3e399f08	0.18127072
105	0x3d8a7a6a	0.0676163
106	0x3e59c911	0.21268107
107	0x3e2ace37	0.16680227
108	0x3e41c60a	0.18923202
109	0xbd956018	-0.07293719
110	0xbcda7282	-0.02666593
111	0x3d61c763	0.05512179
112	0xbdf7df38	-0.121031225
113	0x3df2f38b	0.118628584
114	0x3d71e9f5	0.05906101
115	0x3dba807a	0.09106536
116	0x3c4baa4d	0.01243074
117	0xbc332b47	-0.010935611
118	0x3c4cb590	0.01249446
119	0x3dd5e3ef	0.104438655
120	0x3ca73a38	0.020413503
121	0x3d0d2f95	0.034469206
122	0x3e4e9752	0.20174912
123	0x3e4b2a21	0.1984029
124	0x3deac3d6	0.11463134
125	0x3dd07677	0.101788454
126	0x3dc8a3f4	0.097968966
127	0x3e46e6c4	0.19423968
128	0xbd1699ec	-0.036767885
129	0x3d5ae13c	0.053437456
130	0x3dbf3736	0.093367025
131	0xbd5c7368	-0.053820997
132	0x3e474ebc	0.19463629
133	0xbd6b8020	-0.057495236
134	0x3d3f8a90	0.046763003
135	0xbd8583ea	-0.06519301
136	0xbd0c537f	-0.034259316
137	0x3e51bf5d	0.20483156
138	0x3d94b565	0.07261161
139	0x3b0bef40	0.002135232
140	0xbd8f1d66	-0.06988029
141	0x3de27098	0.11056632
142	0xbdd0b7c6	-0.10191302
143	0x3e34740a	0.1762239
144	0x3e46db18	0.19419515
145	0x3ddb1451	0.106972344
146	0x3d2cb927	0.042168763
147	0xbcbc0b40	-0.022954583
148	0xbde4eee0	-0.11178374
149	0xbc18e570	-0.009332046
150	0xbdca7102	-0.09884836
151	0xbd05fbc0	-0.03271079
152	0x3e46efe5	0.1942745
153	0x3d65e55c	0.056126937
154	0x3e12a284	0.14319807
155	0x3c9bb5d0	0.019007593
156	0xbd643c14	-0.055721357
157	0x3deb208d	0.11480818
158	0xbcb447ea	-0.022006948
159	0xbdee4b94	-0.11635509
160	0x3dfb0ae3	0.12257936
161	0x3dfcc506	0.12342267
162	0x3dd60917	0.104509525
163	0xbd82847a	-0.06372924
164	0x3db3c974	0.087786585
165	0xbdfd0a56	-0.12355487
166	0x3cc8cb06	0.024510872
167	0x3dc09c5f	0.094048254
168	0x3e603d3c	0.21898359
169	0x3dddc11b	0.108278476
170	0x3d8b24cb	0.06794127
171	0x3c1b9acf	0.009497358
172	0x3e1bb623	0.15206198
173	0xbdab3980	-0.08360577
174	0x3e024579	0.12721814
175	0xbd07238a	-0.032992877
176	0xbc7340e0	-0.01484701
177	0x3e53138a	0.20612922
178	0x3e2911fa	0.16510764
179	0x3da83cf4	0.08214751
180	0x3e31b9e9	0.17356075
181	0x3cf321bf	0.029679177
182	0x3d94c132	0.072634116
183	0x3e1c33e8	0.15254176
184	0x3db88e0c	0.09011468
185	0x3d852df5	0.06502906
186	0x3dbadf2e	0.091245994
187	0x3df16bc9	0.117881365
188	0x3c88aa08	0.01668264
189	0x3e395779	0.18099774
190	0x3e42fd12	0.19041851
191	0xbc59dfbb	-0.01329797
192	0xbdf2ff38	-0.11865085
193	0xbdb231a6	-0.08700876
194	0x3d376c81	0.04478121
195	0xbd835c80	-0.06414127
196	0xbd246846	-0.040138505
197	0x3db9c548	0.090708315
198	0xbd843672	-0.06455697
199	0x3df81f88	0.12115389
200	0x3de7cbdf	0.11318182
201	0x3d6d6385	0.057956237
202	0xbc4895be	-0.012242733
203	0xbdadf3ce	-0.08493768
204	0xbde7c664	-0.11317137
205	0xbcd79308	-0.026315227
206	0xbd7d1dd4	-0.061796024
207	0x3d1f400e	0.038879447
208	0x3c3fcad8	0.011706077
209	0x3d2cb097	0.042160597
210	0x3e45c84f	0.19314693
211	0x3debde32	0.1151699
212	0xbd3731a4	-0.044725075
213	0x3d6d92bc	0.058001265
214	0x3de170f6	0.11007874
215	0xbd92bdee	-0.071651325
216	0x3d112d1d	0.035443414
217	0xbc7474a0	-0.014920384
218	0x3cddb15e	0.027062114
219	0xbcd0ba60	-0.025479496
220	0x3d98a202	0.074527755
221	0x3e25bf50	0.16186261
222	0x3d8a0b95	0.0674049
223	0x3d3a8994	0.04554136
224	0x3d921a96	0.07133977
225	0x3d549b2c	0.051905796
226	0x3e080918	0.13284719
227	0xbdf32828	-0.118728936
228	0xbdab7bb8	-0.08373207
229	0xbd9b293a	-0.07576223
230	0xbcaca127	-0.021072937
231	0x3e32f93f	0.17477892
232	0xbd0743eb	-0.033023756
233	0x3dc13088	0.09433085
234	0xbbbf53db	-0.005838854
235	0x3e400c27	0.18754636
236	0x3c3dd85c	0.011587229
237	0x3d00b540	0.031422853
238	0xbcbac878	-0.02280067
239	0x3d680cab	0.056652706
240	0xbdfeb544	-0.124369174
241	0x3e59309c	0.2120995
242	0x3dc8a9e9	0.09798033
243	0xbb57a180	-0.0032902658
244	0x3dd98e6a	0.106228665
245	0x3ddf831d	0.1091368
246	0x3dd9a9cc	0.10628089
247	0x3ddb6d52	0.107142106
248	0x3dac4c6e	0.08413015
249	0x3be1e091	0.0068932255
250	0x3e1a5730	0.15072322
251	0x3d365bb6	0.044521056
252	0x3e4d4a90	0.20047975
253	0x3e464b7a	0.1936473
254	0xbccca121	-0.024979176
255	0x3e0f59c7	0.13999091

shared_layers.2.bias f4 [32]
0	0xbc2b950d	-0.010472548
1	0x3e48433a	0.19556895
2	0x3e46bf91	0.19409014
3	0x3cba6092	0.022751126
4	0xbdc9fc4a	-0.098625734
5	0x3e1e4200	0.15454865
6	0xbabf6d80	-0.0014604777
7	0x3c631006	0.013858801
8	0x3e5220bb	0.20520298
9	0x3db433ad	0.08798919
10	0xbdd2dfac	-0.10296568
11	0xbdf934a5	-0.12168244
12	0x3d838ffa	0.06423946
13	0x3d477a5b	0.04870067
14	0xbdbfaec6	-0.09359507
15	0xbdcf04be	-0.101083264
16	0x3dfc2ece	0.12313615
17	0xbd1386b8	-0.03601715
18	0xbd3ba36c	-0.045810148
19	0xbdf2d284	-0.11856559
20	0x3d92dd94	0.07171169
21	0xbdc78916	-0.09742944
22	0x3dd84bd9	0.10561342
23	0xbd18b136	-0.037278377
24	0x3ddac2b8	0.10681671
25	0x3c75589a	0.014974738
26	0x3daa2c85	0.08309273
27	0x3e23edca	0.16008678
28	0x3d536d9c	0.051618204
29	0x3d8f47a0	0.06996083
30	0xbe1ba75a	-0.15200558
31	0x3e4d6d4a	0.20061222

shared_layers.4.weight f4 [8, 32]
0	0xbd2a49d9	-0.041574333
1	0xbe382da7	-0.17986165
2	0x3d0bffcf	0.034179505
3	0xbe54a7ba	-0.20767108
4	0xbe00e51f	-0.12587403
5	0x3c972a32	0.018452737
6	0xbe21b650	-0.15792203
7	0x3c6afb40	0.014342129
8	0xbe1426a1	-0.14467861
9	0xbe28efcd	-0.16497727
10	0x3e2a5b1a	0.16636315
11	0xbdae873a	-0.08521886
12	0xbdd2798e	-0.10277091
13	0x3df7ef39	0.12106175
14	0xbce26196	-0.027634423
15	0x3e1f9d53	0.15587358
16	0xbd36e747	-0.044654157
17	0xbe30c1cc	-0.17261428
18	0xbd5bf1f7	-0.053697553
19	0x3dcf048f	0.10108291
20	0xbd8581fe	-0.06518935
21	0x3e1d4255	0.15357335
22	0xbdb4ae6b	-0.0882233
23	0xbe3819e3	-0.17978625
24	0x3d5d20d4	0.053986385
25	0x3c800048	0.015625134
26	0xbca6b057	-0.020347757
27	0xbe3764bc	-0.17909521
28	0xbdedbed3	-0.116086625
29	0xb924012c	-0.00015640695
30	0x3c56c024	0.013107333
31	0xbe8794c5	-0.2648069
32	0xbdd36ca6	-0.103234574
33	0x3e0a97a7	0.13534413
34	0x3e4b7caa	0.19871774
35	0x3e6c30f9	0.23065557
36	0x3b96ed8d	0.004605955
37	0x3e1c15ee	0.1524274
38	0xbd9f1a8e	-0.07768737
39	0xbd3d6ee9	-0.04624835
40	0x3e8368f8	0.25666022
41	0x3cbeb18c	0.02327802
42	0x3d860913	0.065446995
43	0xbdcdd780	-0.10050869
44	0x3d6aa53c	0.057286486
45	0xbe243ec1	-0.16039564
46	0xbe166dda	-0.14690343
47	0xbd3d95dd	-0.0462855
48	0x3d92fe4f	0.07177412
49	0xbe18858d	-0.14894696
50	0x3e881830	0.26580954
51	0xbddef98c	-0.10887441
52	0x3c8d68b2	0.017261837
53	0x3c8a798f	0.016903667
54	0xbbdb5783	-0.006693782
55	0x3e715831	0.23568799
56	0xbcf6bc97	-0.030119224
57	0x3e3b70c3	0.18304734
58	0x3bb666fb	0.0055664754
59	0x3e7027a1	0.23452617
60	0xba8c5c56	-0.0010708671
61	0xbcc33435	-0.023828605
62	0xbcad43d7	-0.021150513
63	0x3d356218	0.044283003
64	0x3b1a9d36	0.002359224
65	0xbe6d2bb2	-0.231612
66	0xbe44e46d	-0.19227763
67	0x3d13302b	0.03593461
68	0x3e33fa31	0.17575909
69	0xbb2eb54f	-0.0026658361
70	0xbe15abe5	-0.14616354
71	0x3d0917a8	0.033469826
72	0xbb8df234	-0.0043318514
73	0xbe1acf13	-0.15118055
74	0x3df31b36	0.118704244
75	0xbe1a2eec	-0.15056962
76	0xbb1cb2c0	-0.0023910254
77	0xbcf8690b	-0.030323526
78	0xbd80a9cf	-0.062823884
79	0xbe0939b3	-0.13400917
80	0xbe89ab5b	-0.26888546
81	0xbcd5c2e8	-0.026093915
82	0x3d937c22	0.07201411
83	0x3dcf3a25	0.10118512
84	0xbdb2ba3a	-0.08726926
85	0x3e1bda5f	0.1522002
86	0x3ce0e476	0.027452689
87	0xbe55c0a4	-0.20874268
88	0x3dc9ed6f	0.0985974
89	0xbe17c27a	-0.1482028
90	0xbda20f7b	-0.07913109
91	0xbe0a6ed2	-0.13518837
92	0xbd6c23b5	-0.05765124
93	0x3d999f55	0.07501093
94	0x3cf6674c	0.030078553
95	0xbe6c4ca4	-0.23076111
96	0x3df3fd69	0.119135685
97	0xbd62b600	-0.05534935
98	0xbe1092da	-0.1411852
99	0xbe28682c	-0.16445988
100	0xbc6460a6	-0.013939058
101	0xbdec1ab1	-0.115285285
102	0x3de9ab41	0.11409617
103	0xbe20f462	-0.15718225
104	0xbd9189ed	-0.071063854
105	0x3d56f004	0.05247499
106	0x3d6ca4c0	0.057774305
107	0x3e0d6ccc	0.13811034
108	0x3cae6438	0.021288022
109	0x3e075d2f	0.1321914
110	0x3de63469	0.11240465
111	0x3d582ec0	0.05277896
112	0xbcb0c439	-0.021577941
113	0x3d8face9	0.07015402
114	0xbe2781da	-0.16358128
115	0xbd0bedcf	-0.03416234
116	0xbe69aaba	-0.22819033
117	0xbe30206c	-0.17199868
118	0x3e188f59	0.14898433
119	0xbe5f5b9a	-0.21812287
120	0x3d8ed2ed	0.06973825
121	0x3d4be850	0.049782097
122	0xbe5553d1	-0.20832755
123	0xbe3dd73b	-0.18539135
124	0x3cfb6416	0.030687373
125	0x3de11f20	0.10992265
126	0xbdf05b75	-0.11736194
127	0xbe65063f	-0.22365664
128	0x3de59b2f	0.112112395
129	0x3d12569c	0.03572713
130	0xbe0f7834	-0.14010698
131	0xbe179db5	-0.14806254
132	0xbe2be325	-0.16785868
133	0xb8b07b49	-8.4152976e-05
134	0x3bcb05f0	0.006195776
135	0xbd710b25	-0.05884852
136	0xbcdfaeb3	-0.027304983
137	0xbe18e285	-0.1493016
138	0xbdb6f8a9	-0.08934147
139	0xbde7b393	-0.11313548
140	0xbdb2bb1c	-0.087270945
141	0xbd77af3c	-0.06046985
142	0x3e1f0eaf	0.15532945
143	0xbd313dbd	-0.04327177
144	0xbe831411	-0.25601247
145	0x3d72dae2	0.059290774
146	0xbe255a71	-0.16147782
147	0xbe0a2393	-0.13490133
148	0x3d02e024	0.03195204
149	0xbe277270	-0.16352248
150	0x3e1ad8bc	0.1512174
151	0x3d6e378d	0.058158446
152	0x3e189f3d	0.14904495
153	0xbce62e8b	-0.028098365
154	0xbe2655c0	-0.16243649
155	0xbe64ee99	-0.22356643
156	0xbddebd80	-0.10875988
157	0xbdde8a1a	-0.108661845
158	0xbe1f0397	-0.15528713
159	0xbdcac3db	-0.09900638
160	0x3d98b0bb	0.07455584
161	0xbd703f5c	-0.058654174
162	0x3d14ecb2	0.036358543
163	0x3d497e53	0.049192738
164	0x3daa97c7	0.083297305
165	0xbe5c8ac1	-0.21537305
166	0x3a8a6377	0.0010558207
167	0xbdb50335	-0.08838502
168	0xbe60db93	-0.21958761
169	0xbd031483	-0.032001983
170	0x3d2ce7a6	0.042213105
171	0xbe0abf86	-0.13549623
172	0x3e16664c	0.1468746
173	0xbd64f543	-0.055897962
174	0x3e3465d0	0.17616963
175	0x3e2380b0	0.15967059
176	0xbe8c9319	-0.27455977
177	0xbe05a1b8	-0.13049972
178	0xbd9d629f	-0.07684826
179	0xbdfc482c	-0.12318453
180	0xbe4d4093	-0.20044164
181	0xbcabb638	-0.020960912
182	0x3ce9f5e1	0.028559627
183	0x3cf08cfb	0.0293641
184	0x3dd0e68a	0.10200222
185	0xbe2adc71	-0.16685654
186	0xbe83d8ea	-0.2575143
187	0xbe6faf52	-0.23406723
188	0xbe2d9a50	-0.16953397
189	0xbdd5a9d9	-0.104327865
190	0xbd9fb0d3	-0.077973984
191	0xbe743a49	-0.23850359
192	0xbd0e6c6d	-0.03477137
193	0xbe5a6a12	-0.21329525
194	0x3de043ef	0.10950457
195	0xbe258a73	-0.16166095
196	0xbb6d967f	-0.0036253033
197	0xbd42d8f0	-0.04757017
198	0x3d98a787	0.07453828
199	0xbdc87498	-0.097878635
200	0x3db9cc88	0.09072214
201	0xbe57a59d	-0.2105927
202	0xbde794f3	-0.11307707
203	0xbc785b2d	-0.015158457
204	0x3e185a8a	0.14878288
205	0xbcac7ec8	-0.021056548
206	0xbc1f07c3	-0.00970644
207	0xbdc4e4ae	-0.0961393
208	0x3da536d7	0.080671005
209	0xbd07cd37	-0.033154693
210	0x3df14481	0.11780644
211	0x3e0ece19	0.13945808
212	0xbe396270	-0.18103957
213	0x3d0d51a3	0.034501683
214	0x3dc94e4f	0.09829389
215	0xbe11b2c6	-0.14228353
216	0x3d8cfbdd	0.068839766
217	0xbcd7087b	-0.026249161
218	0xbe458ff7	-0.192932
219	0xbdcd0f39	-0.10012669
220	0x3d07da8a	0.0331674
221	0xbe1bdfbd	-0.15222068
222	0x3cec5cd8	0.028852865
223	0xbe0beaad	-0.1366374
224	0xbe1712b4	-0.14753228
225	0xbe53bf3c	-0.20678419
226	0xbe6a4c33	-0.2288063
227	0xbe832dc8	-0.25620866
228	0xbbb34f9b	-0.005472136
229	0xbe3e3d6b	-0.18578117
230	0xbd870b0f	-0.06593906
231	0x3d062ba9	0.03275648
232	0x3d5e10d9	0.054215286
233	0xbe8158e2	-0.25263125
234	0xbcd092e7	-0.025460673
235	0xbd8cc42c	-0.06873354
236	0x3e170b97	0.14750515
237	0xbc179393	-0.009251493
238	0xbcdcd8a2	-0.026958767
239	0x3e2ab83f	0.16671847
240	0xbe53bd9b	-0.20677797
241	0x3e00e000	0.12585449
242	0xbe48392c	-0.1955306
243	0x3e2a76f9	0.16646947
244	0xbe970a7d	-0.2950019
245	0xbe32486f	-0.17410444
246	0xbe1662e9	-0.14686169
247	0xbd760f90	-0.060073435
248	0x3e0da6cd	0.1383316
249	0xbdb25b60	-0.08708835
250	0xbe8a5657	-0.27018997
251	0x3d578882	0.05262042
252	0x3d477de7	0.048704054
253	0x3c3f41ee	0.011673434
254	0x3dd9ba3b	0.10631224
255	0xbe91d7b7	-0.2848489

shared_layers.4.bias f4 [8]
0	0x3b89bc4b	0.0042033545
1	0x3e1459eb	0.14487426
2	0xbda6f293	-0.08151736
3	0xbd74920b	-0.05970959
4	0xbe3b212e	-0.18274376
5	0x3d219f4c	0.039458558
6	0xbd171305	-0.036883373
7	0xbe149684	-0.14510542
