training/models/controller_controller_acc0.819_lat0.006_succ20_small5_large8_carb7_cap610_rate0.000269_best_model.pth (torch, 18445 bytes, 6 tensors)

shared_layers.0.weight f4 [64, 3]
0	0x3f1c5e9f	0.6108188
1	0xbd7590ba	-0.059952475
2	0xbeea68d8	-0.45783114
3	0x3e841ca9	0.25803116
4	0x3eba8a82	0.36433798
5	0xbdd26698	-0.102734745
6	0xbf0207ac	-0.50792956
7	0xbe5c59d8	-0.21518648
8	0x3ed4b34d	0.41543046
9	0xbe1993a8	-0.14997733
10	0xbd1f8a56	-0.038950287
11	0xbee60076	-0.44922227
12	0x3e7b3af1	0.24534203
13	0x3e122141	0.14270498
14	0x3dc82be2	0.09773995
15	0x3f09411f	0.5361499
16	0x3e8e329f	0.27772996
17	0x3f092abe	0.53580844
18	0x3d657bfd	0.056026448
19	0xbe598d35	-0.21245272
20	0x3e9dc7f9	0.3081663
21	0x3ea1828a	0.31544906
22	0xbcbb2ef2	-0.022849534
23	0xbf013751	-0.5047503
24	0x3f2d6052	0.677251
25	0x3d98687a	0.07441802
26	0x3df96863	0.12178113
27	0x3e38aff4	0.18035871
28	0x3df4f763	0.11961248
29	0xbde2dc34	-0.11077157
30	0x3ec3b8d6	0.38226956
31	0x3eca7b68	0.39547276
32	0x3c49fbfc	0.012328144
33	0xbef9b0dd	-0.48767748
34	0xbeac5257	-0.3365657
35	0xbef91f54	-0.48656714
36	0x3cbaa29f	0.022782622
37	0x3ef4c663	0.47807607
38	0x3e51822e	0.20459816
39	0x3e6bc3df	0.23023938
40	0xbeddc2da	-0.43312722
41	0x3da3028d	0.07959471
42	0x3d5428c8	0.051796705
43	0xbe221146	-0.15826902
44	0x3e166504	0.14686972
45	0x3f1e4be4	0.6183455
46	0xbc1c49a3	-0.009539041
47	0xbe7245c1	-0.23659422
48	0xbf0f7ef4	-0.5605309
49	0x3df43bee	0.11925493
50	0x3d956246	0.07294135
51	0xbed8bec5	-0.42333046
52	0xbee1f11f	-0.44129273
53	0xbedb648b	-0.42850146
54	0x3e228d4f	0.15874217
55	0x3f1d2bc0	0.6139488
56	0x3ec834b0	0.39102697
57	0x3ef27a11	0.47358754
58	0xbeb53c24	-0.35397446
59	0x3ed450c2	0.41467863
60	0x3f0eaf25	0.55736
61	0xbeccbea5	-0.399892
62	0x3e4c9214	0.199776
63	0xbef55799	-0.47918394
64	0xbee27e29	-0.44236878
65	0x3ee0e449	0.43924168
66	0x3ed31502	0.41226965
67	0x3e80d4fd	0.25162497
68	0x3ecfc659	0.40581015
69	0x3eb672d2	0.35634476
70	0x3e212733	0.1573761
71	0x3f0f21b2	0.5591079
72	0xbf085484	-0.5325396
73	0x3f082152	0.5317584
74	0xbe445862	-0.1917434
75	0x3e97a81e	0.2962045
76	0x3f2b8143	0.6699411
77	0xbe219680	-0.15780067
78	0x3e02cfc9	0.12774576
79	0xbe9dfc86	-0.30856723
80	0x3d8d891c	0.06910917
81	0x3ef93d13	0.48679408
82	0xbe0089b3	-0.12552528
83	0xbe516121	-0.20447208
84	0xbb4481af	-0.0029984524
85	0xbf07087b	-0.52747315
86	0xbbe5b28c	-0.00700981
87	0x3ef6e2b0	0.48219824
88	0x3f0a764d	0.5408676
89	0x3ee220dd	0.44165698
90	0x3d1fa43e	0.038974993
91	0xbee2c93e	-0.4429416
92	0xbeed09bb	-0.46296486
93	0xbc133962	-0.008985849
94	0x3eb71686	0.35759372
95	0x3e415274	0.1887911
96	0xbeaebaf6	-0.34127015
97	0xbebe1427	-0.3712475
98	0x3ea2cf79	0.31798914
99	0x3c5fd2d6	0.013661107
100	0x3dd0f5c6	0.102031276
101	0x3ee73038	0.45153975
102	0xbe5a4256	-0.21314368
103	0xbc649634	-0.013951827
104	0x3dbd5aba	0.0924582
105	0x3d1706f1	0.036871854
106	0x3efd4113	0.4946371
107	0x3e915afd	0.2838973
108	0xbe14ba72	-0.14524248
109	0xbed131a4	-0.40858185
110	0xbccd9c4d	-0.025098944
111	0xbd6bd142	-0.05757261
112	0x3e888c57	0.2666957
113	0xbd89c417	-0.06726854
114	0xbd8e5685	-0.06950096
115	0x3f2d3630	0.6766081
116	0xbefb1f33	-0.4904724
117	0x3e99fb1d	0.30074397
118	0xbecff744	-0.40618336
119	0x3f1c30f5	0.610122
120	0xbdfa38d5	-0.12217871
121	0x3d5ea7a0	0.05435908
122	0x3efb53b0	0.49087286
123	0xbe9a324e	-0.30116504
124	0xbf10dc53	-0.5658619
125	0x3d349c28	0.044094235
126	0xbe995661	-0.29948714
127	0x3e02c50c	0.1277048
128	0x3dd9627b	0.10614487
129	0x3e12b171	0.14325501
130	0xbec05066	-0.3756134
131	0x3e2afa3d	0.16697021
132	0xbeaa1657	-0.3322017
133	0x3d467a93	0.04845674
134	0xbe9506c6	-0.2910673
135	0x3ef3b294	0.47597182
136	0xbec206bd	-0.37895766
137	0x3d2d7d4c	0.04235582
138	0xbe7ccad9	-0.24686755
139	0x3e3f52ef	0.1868398
140	0x3eb68a5c	0.35652435
141	0xbefe1dac	-0.49632013
142	0x3ec44498	0.38333583
143	0x3ced8843	0.028995639
144	0xbef65169	-0.48108986
145	0xbf0e9fa8	-0.55712366
146	0x3f091593	0.53548545
147	0x3e760631	0.240258
148	0xbd99b6f3	-0.07505598
149	0xbebdbf25	-0.37059894
150	0x3ee438d2	0.445746
151	0x3e127dda	0.14305821
152	0xbefbfdf9	-0.49217203
153	0xbe3b1723	-0.18270545
154	0xbefc7c66	-0.49313658
155	0xbe9b2df5	-0.303085
156	0xbf0120f7	-0.50440925
157	0xbf0d6700	-0.5523529
158	0xbe9db2b4	-0.30800402
159	0xbeca151a	-0.39469224
160	0x3c9ac992	0.018894944
161	0x3ef49807	0.47772238
162	0xbe964a20	-0.29353428
163	0x3ec6c5b6	0.38822716
164	0x3d87c772	0.06629838
165	0x3d809150	0.06277716
166	0x3ef51dca	0.4787429
167	0x3efa9a29	0.4894574
168	0xbdac0cc1	-0.0840087
169	0x3ef40f5e	0.47667974
170	0xbf09b20a	-0.5378729
171	0x3e070cea	0.1318852
172	0x3f13262d	0.57480127
173	0xbcf99847	-0.03046812
174	0xbe005f0c	-0.12536258
175	0x3f22778c	0.63463664
176	0x3ed9a036	0.42505044
177	0x3f09d75d	0.53844243
178	0x3e2b33e6	0.16719016
179	0xbeb3552e	-0.35025924
180	0xbef11425	-0.47085682
181	0xbd32fb74	-0.043696836
182	0xbed19000	-0.40930176
183	0xbeee86ed	-0.46587315
184	0x3ea5f5d8	0.32414126
185	0xbe9ad8cc	-0.30243528
186	0x3f287533	0.6580383
187	0x3e85d921	0.2614222
188	0x3edb203b	0.42798027
189	0xbdda240f	-0.10651409
190	0x3ebd6da9	0.36997727
191	0xbf0d80c1	-0.5527459

shared_layers.0.bias f4 [64]
0	0x3dca23a4	0.09870079
1	0x3f338e51	0.7013903
2	0x3d4a9330	0.049456775
3	0x3d52e192	0.051484652
4	0x3ee9b3c1	0.45644954
5	0x3de2e27c	0.11078355
6	0xbd54136c	-0.051776335
7	0x3e98202b	0.29712042
8	0x3f108b09	0.5646215
9	0xbed33ccf	-0.4125733
10	0xbe4df042	-0.20111182
11	0x3ed041b9	0.40675142
12	0xbf0b1e12	-0.5434276
13	0xbf0f189f	-0.55896944
14	0xbe815cc2	-0.2526608
15	0x3e5ca61f	0.21547745
16	0xbe8d29cc	-0.2757095
17	0xbd21675f	-0.039405223
18	0x3a84303d	0.0010085177
19	0x3e0193da	0.12654057
20	0x3e984903	0.29743204
21	0xbc183a91	-0.009291307
22	0x3f219901	0.6312409
23	0xbafd5f23	-0.0019330721
24	0x3e40e6d2	0.18838051
25	0x3d392d5e	0.04520928
26	0x3f2ab22f	0.66678137
27	0x3f29133d	0.6604498
28	0xbdabb9a6	-0.08385019
29	0x3bdf3cd0	0.0068126693
30	0x3d076ca8	0.033062607
31	0x3f063ef1	0.5243979
32	0xbda00d2d	-0.07815013
33	0xbf0dd8ff	-0.55409235
34	0xbb28ae56	-0.0025738678
35	0x3f2bc141	0.6709176
36	0xbee6adee	-0.45054573
37	0xbec96f69	-0.39342812
38	0x3ed1522e	0.4088301
39	0x3ed29759	0.41131094
40	0xbd4cfbcc	-0.05004482
41	0xbe1059ef	-0.14096807
42	0x3e3b364f	0.18282436
43	0xbedc317a	-0.43006498
44	0x3d96f6da	0.07371302
45	0x3e9252c8	0.28578782
46	0xbe7f83e4	-0.24952656
47	0x3c14b95d	0.009077397
48	0x3eecd30c	0.46254766
49	0x3e3be730	0.1834991
50	0x3e48d2a0	0.19611597
51	0xbeccfb18	-0.4003532
52	0xbe8d825b	-0.27638516
53	0xbeeda8cf	-0.46417853
54	0xbe1d91db	-0.1538767
55	0x3ea67da3	0.32517728
56	0x3ef52e84	0.4788705
57	0x3f1b0b58	0.60564184
58	0x3f2b7d5d	0.66988164
59	0xbdc0e826	-0.09419279
60	0xbeac861f	-0.33696076
61	0x3d8fa190	0.070132375
62	0x3ed793be	0.42104906
63	0xbee8c907	-0.45465872

shared_layers.2.weight f4 [32, 64]
0	0x3d7648ee	0.060128145
1	0x3e82e3b4	0.2556435
2	0xbdac34d0	-0.08408511
3	0x3dbc094e	0.09181462
4	0x3e73cf1c	0.23809475
5	0x3e75599f	0.23959969
6	0x3daa91dc	0.08328602
7	0x3e8b0f51	0.27160123
8	0x3e4224f8	0.18959415
9	0x3cede3a8	0.029039219
10	0x3e79d923	0.24399237
11	0x3dee3b80	0.116324425
12	0xbd83aa6e	-0.06428991
13	0xbda7310e	-0.08163653
14	0xbc38bdc0	-0.011275709
15	0x3d4a74bd	0.049427737
16	0x3dca2ba6	0.098716065
17	0xbd9e252e	-0.07721935
18	0x3e425988	0.18979466
19	0x3dd7c3bc	0.1053538
20	0x3e716d9e	0.23576972
21	0xbd3986f4	-0.045294717
22	0x3e821088	0.25403237
23	0x3e2891bf	0.16461848
24	0x3cb33041	0.021873595
25	0x3e5e985f	0.21737812
26	0x3e461799	0.1934494
27	0x3e4e4b70	0.20145965
28	0xbdf75dee	-0.120784625
29	0x3d2e4c9f	0.04255354
30	0x3da1c918	0.07899684
31	0x3e4e3213	0.2013629
32	0x3cfae278	0.030625567
33	0xbcb61380	-0.022226095
34	0x3d83bb3a	0.06432195
35	0x3d698a4e	0.057016663
36	0xbdb3bf70	-0.08776748
37	0x3d94f71a	0.072736934
38	0x3da9a5c2	0.08283569
39	0x3e7ad8b4	0.24496728
40	0x3db2b172	0.08725251
41	0xbda3b314	-0.07993141
42	0x3ce39d46	0.027784955
43	0x3d2dcad0	0.042429745
44	0x3d2f3f54	0.042785004
45	0x3d3253b3	0.043536853
46	0xbd5d7150	-0.05406314
47	0xbcee2c00	-0.029073715
48	0xbcd5d9e8	-0.026104882
49	0x3d8baf0e	0.068204984
50	0x3d229ab7	0.03969833
51	0xbb8535a0	-0.0040652305
52	0x3df2ac28	0.118492424
53	0x3d02398c	0.031793162
54	0xbdad8a12	-0.084736004
55	0x3e087560	0.13326025
56	0x3d8bb90c	0.06822404
57	0x3e156769	0.14590229
58	0x3dc01c7a	0.093804315
59	0x3d7f346a	0.062305845
60	0xbdfb700c	-0.122772306
61	0xbde66ca8	-0.11251193
62	0x3e5d1035	0.21588214
63	0xbd5ca7d8	-0.053871006
64	0x3e6b9911	0.23007609
65	0x3e03fd22	0.12889531
66	0x3ba60200	0.0050661564
67	0x3c932d68	0.017965987
68	0x3e1dadd2	0.15398338
69	0x3d93195f	0.071825735
70	0x3dfff92a	0.12498696
71	0x3e053f2e	0.13012382
72	0x3e2d2e62	0.16912225
73	0x3d6bacdc	0.0575379
74	0x3e851b64	0.2599746
75	0x3de19a16	0.11015718
76	0x3d9fc62c	0.0780147
77	0x3ca74e90	0.020423204
78	0x3d740a00	0.05957985
79	0x3e36896c	0.1782586
80	0xbd461b4c	-0.048365876
81	0xbc841210	-0.016121894
82	0x3e091864	0.1338821
83	0x3e522d64	0.20525128
84	0x3e3fd368	0.18732989
85	0x3d60a6c4	0.05484654
86	0x3e758b88	0.23979008
87	0x3dc840cf	0.09777986
88	0xbc12c54a	-0.00895817
89	0x3e291ed0	0.1651566
90	0x3e727708	0.2367822
91	0x3e6833d5	0.22676022
92	0x3ddeaba2	0.1087258
93	0x3d5e7959	0.054314945
94	0x3b822aa0	0.0039723665
95	0x3e82bf14	0.25536406
96	0xbd875a9c	-0.06609079
97	0xbd6de000	-0.05807495
98	0x3d674964	0.056466475
99	0x3c3f9a33	0.011694479
100	0xbdfe2622	-0.12409617
101	0x3d0c58b0	0.034264266
102	0x3dcbef57	0.0995776
103	0x3d943389	0.07236392
104	0xbdffadf0	-0.12484348
105	0xbdf7741a	-0.120826915
106	0xbda8ab53	-0.082358025
107	0x3d5e38b4	0.054253295
108	0x3d9c923e	0.07645081
109	0x3cbd2e5b	0.023093393
110	0xbd9b2ab6	-0.07576506
111	0x3dc67e6a	0.0969208
112	0xbcb84450	-0.022493511
113	0x3d0d577f	0.03450727
114	0x3e018433	0.12648086
115	0x3d60963c	0.054830775
116	0xbdc301b4	-0.09521809
117	0xbdf22218	-0.11822909
118	0x3d94a738	0.07258457
119	0x3e65cf86	0.22442445
120	0x3e48af17	0.19598041
121	0x3e6a0370	0.22852874
122	0x3e66afd8	0.22528017
123	0x3dd403b5	0.103522696
124	0xbdae92c8	-0.0852409
125	0xbdc5a7d8	-0.09651154
126	0x3e2fa5f4	0.1715315
127	0x3dbad038	0.09121746
128	0x3e331bc1	0.17491056
129	0x3e0961eb	0.13416259
130	0x3dd89b76	0.10576527
131	0x3da5f2f4	0.0810298
132	0x3c673aa1	0.014113099
133	0x3e5f7513	0.21822004
134	0x3d321e44	0.043485895
135	0x3e7872f6	0.24262604
136	0x3e5a19a5	0.21298845
137	0x3dcfad94	0.10140529
138	0x3e1aa9c7	0.15103827
139	0xbd768584	-0.060185924
140	0xbd190dbc	-0.037366614
141	0xbde4b104	-0.111665756
142	0x3b934c20	0.004495159
143	0x3e763e88	0.24047291
144	0xbc990030	-0.018676847
145	0x3c0c3a00	0.00855875
146	0x3e75a081	0.23987009
147	0x3e204c3c	0.15654081
148	0x3cdfb092	0.027305875
149	0x3b393a00	0.002826333
150	0x3d9af214	0.07565704
151	0x3d80a85f	0.06282114
152	0xbbb09bfc	-0.0053896885
153	0x3e4eb387	0.20185672
154	0x3df5fd70	0.1201123
155	0x3c95931b	0.018258622
156	0xbdd29b78	-0.102835596
157	0x3ddd60a7	0.108094506
158	0x3de02d0a	0.109460905
159	0x3d14f1b7	0.03636333
160	0x3dd73cea	0.10509665
161	0xbaf32f80	-0.0018553585
162	0xbd40822c	-0.04699914
163	0x3e546f4f	0.20745586
164	0xbd2b5d04	-0.041836753
165	0x3df1e9b8	0.118121564
166	0x3e4d5352	0.20051315
167	0x3e6bc7a9	0.23025383
168	0x3df8c09a	0.12146111
169	0xbd2a2128	-0.041535527
170	0x3da1ab61	0.07894016
171	0xbdf8a032	-0.1213993
172	0x3d881d80	0.06646252
173	0x3e6223fa	0.22084036
174	0x3ccf4768	0.025302604
175	0xbdf77dc6	-0.12084536
176	0xbcfe43b8	-0.03103815
177	0x3e3d2995	0.18472894
178	0x3e4697cd	0.19393845
179	0xbd47b220	-0.048753858
180	0x3dc475b8	0.095927656
181	0x3dfdbeca	0.12389906
182	0xbdc052ce	-0.09390794
183	0x3e712cdd	0.2355227
184	0x3e3f8eb3	0.18706779
185	0x3e6780b3	0.22607689
186	0x3e08a05b	0.13342421
187	0x3e3c6a4c	0.18399924
188	0x3dd3ff0a	0.10351379
189	0xbda220ee	-0.07916437
190	0x3ce57aac	0.028012596
191	0x3da5a686	0.080884025
192	0xbc78b840	-0.015180647
193	0x3d9564fa	0.072946504
194	0xbd918508	-0.07105452
195	0x3d7f1390	0.062274516
196	0x3df8e5f4	0.12153235
197	0xbdfa9ecc	-0.12237319
198	0xbbf65700	-0.0075176954
199	0x3cb8a108	0.022537723
200	0xbdcf23ec	-0.101142734
201	0x3d967b02	0.07347681
202	0xbda7e632	-0.08198203
203	0xbd786c48	-0.06065014
204	0xbdae191c	-0.08500883
205	0xbdf9971e	-0.121870264
206	0x3da8a41a	0.08234425
207	0x3d52d5f4	0.051473573
208	0xbde87e72	-0.113522425
209	0x3dd10e6a	0.102078274
210	0x3cac88c0	0.021061301
211	0x3b8a9580	0.0042292476
212	0x3c082a20	0.008310825
213	0xbcf66d80	-0.03008151
214	0xbdf2d4e4	-0.11857012
215	0x3d8305c0	0.06397581
216	0x3dd0d8a2	0.101975694
217	0xbda34a60	-0.0797317
218	0xbd87675e	-0.066115126
219	0x3d70a998	0.058755487
220	0x3dd9a818	0.106277645
221	0x3c6aec60	0.014338583
222	0x3c2ee290	0.010674134
223	0xbae41d80	-0.0017403811
224	0x3d4f9868	0.050682455
225	0xbd4746c8	-0.048651487
226	0xbdc5f73c	-0.09666297
227	0xbdc6c986	-0.09706406
228	0xbcc93f08	-0.024566188
229	0x3cdd1c00	0.02699089
230	0x3bfbefc0	0.0076884925
231	0xbc088560	-0.00833258
232	0xbb20b480	-0.002452165
233	0x3daf4fd2	0.085601464
234	0xbc5e5110	-0.0135691315
235	0x3c1def70	0.009639606
236	0xbd6818a4	-0.056664124
237	0xbde60568	-0.112315
238	0x3db64ea6	0.0890172
239	0xbd4c650c	-0.049901053
240	0x3d7d6d84	0.06187202
241	0xbc81a788	-0.015826955
242	0xbd335810	-0.043785155
243	0x3d4e87f8	0.05042264
244	0x3dda7462	0.106667295
245	0xbc00d510	-0.007863298
246	0x3ca3c3e8	0.019990876
247	0xbc585ca0	-0.013205677
248	0x3d6f37e8	0.058402926
249	0xbc7905d0	-0.01519914
250	0x3dffc1ac	0.12488112
251	0x3c9eb658	0.019374058
252	0x3c799da0	0.015235335
253	0xbded590e	-0.115892515
254	0x3dba3960	0.09092975
255	0xbd810d86	-0.063014075

shared_layers.2.bias f4 [32]
0	0x3e68c499	0.22731246
1	0x3ddf0450	0.108894944
2	0x3e165ac1	0.14683057
3	0xbdb71e76	-0.08941357
4	0x3dc41334	0.09573975
5	0xbdb0968c	-0.086224645
6	0x3de40930	0.11134565
7	0xbded641e	-0.115913615
8	0x3da9ee06	0.082973525
9	0x3e0dd197	0.13849483
10	0xbdfcc9bb	-0.123431645
11	0xbcc3678e	-0.02385309
12	0x3ddfda38	0.10930294
13	0x3d8d4756	0.06898372
14	0xbd84fd20	-0.06493592
15	0xbb70d070	-0.0036745332
16	0x3e3c98a8	0.18417609
17	0xbd2517a0	-0.040305734
18	0xbda50fca	-0.08059652
19	0xbd798b35	-0.060923774
20	0x3d3144e5	0.043278594
21	0x3dfec46b	0.124398075
22	0xbd5ad46b	-0.053425234
23	0x3d8a16e2	0.06742646
24	0x3e28aac5	0.16471393
25	0xbdb4c950	-0.0882746
26	0x3ad96180	0.0016584843
27	0x3d901564	0.0703533
28	0x3d03f490	0.032215655
29	0xbcd303d0	-0.025758654
30	0xbd6b04ec	-0.05737774
31	0xbde2f4bd	-0.110818364

shared_layers.4.weight f4 [8, 32]
0	0xbd9a9cbb	-0.07549425
1	0xbe534836	-0.20633015
2	0xbe07db7e	-0.13267323
3	0x3d9f0c17	0.07765978
4	0xbe12afbc	-0.1432485
5	0x3e0f3020	0.13983202
6	0x3c6b5926	0.014364516
7	0xbd0f2755	-0.03494962
8	0x3dd79e31	0.105282195
9	0xbdfa5b2c	-0.12224421
10	0x3ddcbfcd	0.107787706
11	0xbe2bf44a	-0.16792408
12	0xbd6d6fed	-0.05796807
13	0x3e014913	0.12625532
14	0x3bd8dd13	0.006618151
15	0x3dbeb720	0.09312272
16	0xbdd05d0d	-0.10173998
17	0xbd2f1e73	-0.042753648
18	0xbd9c5a00	-0.07634354
19	0xbc3d0941	-0.011537851
20	0x3dc78d81	0.097437866
21	0xbe93c559	-0.28861502
22	0x3d298491	0.04138619
23	0xbdc1a8c5	-0.09456018
24	0xbe7b502f	-0.24542306
25	0xbc45e7d9	-0.012079203
26	0x3e11cff3	0.14239483
27	0x3d6f6386	0.058444522
28	0xbd6ceaef	-0.057841238
29	0xbdc257e1	-0.09489418
30	0x3d7a0bfb	0.06104658
31	0x3e135ad8	0.14390123
32	0x3dd9adb1	0.10628832
33	0x3d2dce1e	0.042432897
34	0x3e0eeed4	0.13958293
35	0xbe0e04b8	-0.13868988
36	0x3dc27bcc	0.09496269
37	0xbd98c09a	-0.07458611
38	0x3dac45fb	0.08411785
39	0xbe26b490	-0.16279817
40	0x3d0baa49	0.034097943
41	0x3e4a2214	0.19739562
42	0xbdad79e0	-0.084705114
43	0xbda1ce71	-0.07900704
44	0x3d79b6c5	0.06096532
45	0xbe0ea036	-0.13928303
46	0xbe1bcfb0	-0.15215945
47	0xbdfdddf9	-0.123958535
48	0x3e93a4e1	0.2883673
49	0xbdb47436	-0.08811228
50	0x3dd0f8ba	0.10203691
51	0xbdc04898	-0.09388846
52	0xbdd609d6	-0.10451095
53	0x3e334447	0.17506514
54	0x3d1f6f9c	0.0389248
55	0x3cf75d7a	0.03019594
56	0x3e1157e1	0.1419368
57	0xbdfde76b	-0.12397655
58	0x3b93d72f	0.004511736
59	0xbdbc3e62	-0.09191586
60	0x3dbf2f0f	0.093351476
61	0xbda28d17	-0.07937067
62	0x3d7ba24b	0.06143407
63	0xbdf6d0f4	-0.120515734
64	0xbe308f37	-0.17242132
65	0xbe82775b	-0.25481686
66	0xbe2db48f	-0.16963409
67	0x3e243188	0.1603452
68	0x3b3d7090	0.0028906204
69	0x3cf8e6b0	0.030383438
70	0xbe3ec3b7	-0.18629347
71	0xbdd57b36	-0.10423891
72	0xbe02ae7a	-0.1276187
73	0xbe2114d2	-0.15730599
74	0xbe340948	-0.17581666
75	0xbd5f1cc4	-0.054470792
76	0xbe00edc4	-0.125907
77	0xbc118a83	-0.008883121
78	0x3dbf1961	0.093310125
79	0x3d1ac6dc	0.037787303
80	0xbe5d40a2	-0.21606687
81	0xbe26bf82	-0.16283992
82	0x3d488240	0.04895234
83	0xbd32d9fa	-0.04366491
84	0x3d8374fc	0.064187974
85	0x3d84ab6b	0.06478008
86	0xbd2ae8f4	-0.041726068
87	0xbe00a398	-0.12562406
88	0xbe74aff5	-0.23895247
89	0xbdd25ee0	-0.10272002
90	0xbe1b6afe	-0.15177533
91	0x3ca773a9	0.020440893
92	0xbdb2cfd4	-0.08731046
93	0xbe170a6c	-0.1475007
94	0xbe0e7b70	-0.13914275
95	0x3cfdb91b	0.030972054
96	0xbd01fce9	-0.031735335
97	0xbe626cde	-0.22111842
98	0xbd8b91e3	-0.06814935
99	0xbd8e05bd	-0.06934688
100	0x3e3324e2	0.17494538
101	0x3cf0cfcf	0.029395966
102	0x3d01dd00	0.031704903
103	0x3d954552	0.072886124
104	0x3e0fdfa9	0.14050163
105	0xbdaad484	-0.083413154
106	0x3de7a378	0.11310476
107	0xbd5125e6	-0.051061533
108	0xbca3c619	-0.019991921
109	0xbde2c0fc	-0.11071965
110	0x3d8a0d4f	0.0674082
111	0xbe2c88c0	-0.16849041
112	0xbdf594e7	-0.119912915
113	0xbcf2b10c	-0.029625438
114	0xbcf1af2e	-0.029502477
115	0x3d2ede0e	0.042692237
116	0xbde6c0de	-0.11267255
117	0xbe941f3c	-0.2893008
118	0x3e056c7d	0.13029666
119	0x3d600da7	0.05470052
120	0xbe84b560	-0.25919628
121	0x3dd8efd6	0.1059262
122	0x3dfb18ca	0.122605875
123	0xbb9c1725	-0.004763501
124	0xbd5c3759	-0.05376372
125	0xbdeb2578	-0.11481756
126	0xbe2f1914	-0.1709941
127	0xbddb29a0	-0.10701299
128	0xbe5d4029	-0.21606506
129	0xbd9bc82b	-0.076065384
130	0xbccc371d	-0.024928624
131	0x3d2710c7	0.040787484
132	0x3e2892b3	0.16462211
133	0xbd53efd2	-0.051742382
134	0x3ab74f73	0.001398547
135	0x3e2927b7	0.16519056
136	0xbe22d8f1	-0.15903069
137	0xbd03706f	-0.032089647
138	0x3d937d14	0.07201591
139	0xbcccb094	-0.024986543
140	0xbe820f56	-0.25402325
141	0xbdc4e186	-0.09613328
142	0xbd887162	-0.06662251
143	0x3e20a7c2	0.15688995
144	0xbe3da22a	-0.18518892
145	0x3db1a651	0.086743005
146	0x3d243ab6	0.040095054
147	0x3c28881b	0.010286356
148	0xbd24860d	-0.040166903
149	0xbdb24b7d	-0.087058045
150	0xbd939d17	-0.07207697
151	0xbcb8a101	-0.02253771
152	0xbe6d5fd9	-0.23181094
153	0x3d7d56c6	0.06185033
154	0xbe0abe9c	-0.13549274
155	0xbe283a2a	-0.16428438
156	0x3e27172d	0.16317435
157	0xbdb875b8	-0.09006828
158	0x3e23935e	0.15974185
159	0x3dd032df	0.10165953
160	0xbe0cfd0b	-0.13768403
161	0xbe850832	-0.25982815
162	0xbdf21442	-0.1182027
163	0xbe22d9e6	-0.15903434
164	0xbbdbd044	-0.006708177
165	0x3deb1168	0.11477929
166	0xbe832043	-0.2561055
167	0xbd99072f	-0.07472073
168	0x3c4dab84	0.0125531
169	0x3d2f4455	0.042789776
170	0xbdf85fc9	-0.121276446
171	0xbd91c2d2	-0.07117237
172	0xbe54ad58	-0.2076925
173	0x3e08db86	0.13364992
174	0xbd87f308	-0.066381514
175	0xbd210f7d	-0.03932141
176	0x3d067c1c	0.032833204
177	0xbd11b5bf	-0.035573717
178	0x3e0801a6	0.13281879
179	0x3cfad9ca	0.030621428
180	0x3e01bf59	0.1267065
181	0x3c892b6c	0.016744338
182	0x3d43707d	0.0477147
183	0x3df50dac	0.11965498
184	0xbd693cd9	-0.056942794
185	0x3dd7e26a	0.10541232
186	0x3d84f1de	0.06491445
187	0xbc74f35d	-0.0149506
188	0xbddcfb94	-0.10790172
189	0x3d59afc5	0.053146143
190	0x3e111128	0.14166701
191	0xbd7ccb46	-0.061717294
192	0xbd1feaad	-0.039042164
193	0xbe8a90aa	-0.27063495
194	0x3cf4551a	0.029825736
195	0xbe018960	-0.1265006
196	0x3d81bc2a	0.063347176
197	0xbbe85ca7	-0.007091123
198	0xbe22d713	-0.15902357
199	0xbc53d4ba	-0.012929136
200	0xbe1330fd	-0.14374156
201	0xbe1d5fbc	-0.15368551
202	0xbd43f0f3	-0.04783721
203	0xbe04364a	-0.12911335
204	0xbe23fe47	-0.16014968
205	0x3c04ca89	0.008104929
206	0xbd05707c	-0.032577977
207	0xbe2bb646	-0.1676875
208	0xbd1e7cdb	-0.03869329
209	0xbe005662	-0.12532952
210	0x3c88b25c	0.01668661
211	0xbdffc6c3	-0.12489083
212	0xbe12c06d	-0.14331217
213	0xbe955ef0	-0.29173994
214	0x3e026b86	0.1273633
215	0xbd77667e	-0.06040048
216	0x3d50bb75	0.050960023
217	0x3e087397	0.13325344
218	0xbce723c1	-0.028215291
219	0xbe078800	-0.13235474
220	0xbe239eae	-0.159785
221	0x3e21d150	0.15802503
222	0xbba7194d	-0.0050994516
223	0x3e0fe442	0.14051917
224	0xbe458c23	-0.19291739
225	0xbdfebb23	-0.12438037
226	0xbe8e974f	-0.27849814
227	0x3c2ba644	0.0104766525
228	0xbe25cd85	-0.1619168
229	0xbe0e4efc	-0.13897318
230	0xbe8ceb2d	-0.27523175
231	0x3e285e97	0.16442333
232	0x3d8f3759	0.069929786
233	0xbe40fb2c	-0.18845814
234	0x3e110179	0.14160718
235	0xbc2d9dd6	-0.010596713
236	0xbe5a1f99	-0.21301116
237	0xbdf9a9df	-0.121906035
238	0x3d0b7293	0.034044813
239	0x3d50e621	0.051000718
240	0xbd4ee43e	-0.050510637
241	0x3d256ace	0.04038506
242	0xbda748eb	-0.08168205
243	0x3da287ad	0.07936034
244	0xbdf193d8	-0.11795777
245	0xbe199dd2	-0.1500161
246	0x3d477708	0.0486975
247	0x3d51e3d4	0.051242664
248	0xbe0735b8	-0.13204086
249	0xbe34f07e	-0.17669865
250	0xbdaf0435	-0.08545724
251	0x3d9b01b8	0.07568687
252	0xbd5e6b05	-0.05430128
253	0xbdb1a3a1	-0.08673788
254	0x3e080119	0.13281669
255	0xbd86d4ca	-0.06583555

shared_layers.4.bias f4 [8]
0	0xbe0ae807	-0.13565074
1	0x3e3d5b76	0.18491921
2	0xbc846ca8	-0.016165093
3	0xbc9fec7c	-0.019521944
4	0xbdc103e7	-0.094245724
5	0xbd25761f	-0.040395852
6	0xbd658e3a	-0.05604384
7	0x3d475533	0.048665237
