training/test_model.pth (torch, 13689 bytes, 6 tensors)

shared_layers.0.weight f4 [64, 3]
00000000: f0c6 703e d114 c63e fb70 42be 604a 913e
00000010: 4e96 013e fa7a e73e 69f3 9dbd b023 e5bd
00000020: 50c1 be3e f1b1 74be c3ba 0bbf 5ceb eabe
00000030: bf70 00be 1711 b93e 8a48 fdbe c217 c73c
00000040: 12eb a4be 1d0b 48bd 4256 9ebd 4ae0 d83c
00000050: 48c5 9d3e 8687 c8be 1dc8 873e efc5 f3bd
00000060: 9d46 e5be 0c3e 63be 93bc cd3e 96bc c1be
00000070: 493a 413e 296b 2e3e edd8 b6bd b189 0cbf
00000080: aa66 05bf 57fd 66be 5a85 67be 7d00 c73e
00000090: e7ca 0e3e 8e41 b63e 410c 0abf af0d 0fbf
000000a0: 29c3 c5be 24e7 4cbe 95be 033e b435 bc3e
000000b0: 0324 133f 61ca e1be 7d5a 55bc 870e 593e
000000c0: 4999 613e a8ed 75bc 9a7f 14bf bdf4 213e
000000d0: ea15 b13d 4120 963e a25c 713e 9387 393e
000000e0: d8a7 abbe 1efe d93e 0991 eabe 7e22 43be
000000f0: 8873 0abc 4de3 c4be 403f ddbe 4e98 42be
00000100: 0d69 e2be c52b efbe 1f5f bfbd d07b 87bd
00000110: 83b5 093f cf61 ae3d 1f80 a43e eeff 55be
00000120: 5821 603e 33f0 89be 9f4a 08bf 4878 dd3e
00000130: c14c 843d ec71 15bf 7aa5 3f3e d5b1 f1bd
00000140: 01c0 b03e a76f 123f 11f7 ce3e dac2 4b3e
00000150: b639 5a3e 62e1 6ebe ed13 0b3f ced2 66bd
00000160: 903c 063f aea5 aabe e93b fe3e c223 aa3d
00000170: 70f7 2cbe 630e 0fbf a924 00bf ec6a 35bd
00000180: b086 0abf d189 e4be 15bf ae3d 1f7a febe
00000190: 7d60 4abe e3f8 4a3d 11e0 103f 5401 c4be
000001a0: c5a7 07be c3fb 1dbe 12a6 013f 3bc2 593e
000001b0: fb25 dd3d 587d 813e 6440 40be 7a01 d43e
000001c0: a44c 93be 27d8 9fbe e7da e53c e7e3 74be
000001d0: f116 66be d93b ea3e 2aa7 003f debf be3e
000001e0: 795f e2be 89fe ad3e bb9f 9c3e f226 b43d
000001f0: fb51 9f3e f0c9 2c3e 8bf4 493e 16c1 563e
00000200: 9e65 94be 5bc4 e83e 8b88 8abd 9d99 fe3e
00000210: 08b2 943e b3db ed3c 797a dfbe 67d8 8fbe
00000220: 0487 07bf 9b43 033f 78d6 aebd 6ee3 ccbe
00000230: 6762 f4be 036a a93e b113 153e 33ab 8e3d
00000240: 6e73 d73e 56e3 b03d 0815 0ebf eaae 7a3c
00000250: 2998 d73d fee5 c2be fd4f bcbe 713e f7bd
00000260: c344 e63d b28a de3e 9970 10bf 3887 413e
00000270: e5dd cbbe 9e98 fc3e b4cb 27bc 7914 dbbe
00000280: b87d 8bbe dc93 73be 45d9 eb3c 355a 2dbe
00000290: 8147 cf3e 604e 14be 6be6 07be 7d72 803d
000002a0: 3531 6e3d de6f d0bd 71d8 8b3d becb ac3e
000002b0: 1a87 b7bd c1aa 463e 0ddb 83be 4200 fe3c
000002c0: b36c dabe 53fc 38be c480 d7be cc4c fd3e
000002d0: 4888 0e3e 9f2b 793d 6fd7 8fbe 71db b2be
000002e0: c28a 96bd 7c9c 05bf 4171 0abf 89fe 94bd
000002f0: 8685 713e f925 18bd 86da 203e 0e2b 033f
0.23513389 0.38687757 -0.18988411 0.28377056 0.12654993 0.4521101 -0.077124424 -0.111884475
0.3725686 -0.23896004 -0.5458185 -0.4588269 -0.12543009 0.3614585 -0.49469405 0.02430332
-0.32210594 -0.048838723 -0.07731296 0.026474137 0.30814576 -0.39165896 0.26519862 -0.11902987
-0.44780436 -0.22191638 0.40182933 -0.37839192 0.1886989 0.17033066 -0.08928094 -0.548976
-0.5210978 -0.22557579 -0.22609463 0.3886756 0.13944589 0.3559689 -0.5392495 -0.55880255
-0.38625458 -0.20010048 0.1286567 0.36759722 0.57476825 -0.44099715 -0.013022062 0.21196948
0.2203113 -0.015010275 -0.58007205 0.15816016 0.08646758 0.29321483 0.23570493 0.18118124
-0.33526492 0.4257669 -0.45813778 -0.19056126 -0.008450396 -0.38454667 -0.43212318 -0.19003412
-0.44220772 -0.4671308 -0.09344315 -0.06615412 0.5379259 0.08514749 0.32129 -0.2089841
0.2188772 -0.2694107 -0.5323886 0.4325583 0.06459952 -0.58376956 0.18715468 -0.11801497
0.34521487 0.5720162 0.40422872 0.19898549 0.21311077 -0.23328164 0.5432728 -0.056353383
0.5243616 -0.3332953 0.49655083 0.083076015 -0.16891265 -0.5588133 -0.5005594 -0.04429142
-0.54111767 -0.44636396 0.0853254 -0.49702546 -0.1976337 0.049553763 0.565919 -0.38282263
-0.13247593 -0.1542807 0.5064403 0.212655 0.1079826 0.25290942 -0.18774563 0.41407377
-0.2876941 -0.312196 0.028058482 -0.23915063 -0.22469689 0.45748785 0.5025507 0.37255758
-0.44213465 0.33983257 0.30590615 0.08796491 0.31117234 0.16873908 0.19722192 0.20972094
-0.28983778 0.45462307 -0.06764325 0.49726573 0.29042077 0.029035425 -0.43648127 -0.2809479
-0.5294039 0.5127503 -0.085370004 -0.40017265 -0.47731325 0.33088693 0.14558293 0.069662474
0.42080253 0.08637111 -0.5550084 0.015300492 0.10527069 -0.38066095 -0.36779776 -0.12072457
0.11243584 0.4346519 -0.5642181 0.18899238 -0.3981773 0.49335188 -0.010241438 -0.42789057
-0.27244353 -0.23786873 0.028790126 -0.16928943 0.4048424 -0.14483023 -0.13271491 0.06271837
0.058152396 -0.10177587 0.06828392 0.33749193 -0.089613155 0.19401075 -0.2575306 0.031005982
-0.42661056 -0.18065004 -0.42090428 0.49472654 0.13919175 0.060832616 -0.2809405 -0.34933046
-0.07350685 -0.521919 -0.5407906 -0.07275111 0.23586091 -0.03714559 0.1570836 0.5123757

shared_layers.0.bias f4 [64]
00000000: 8cd4 b6be d8e5 b9be e00e c7be b6b5 eb3e
00000010: d814 f8be 7bd1 12bf ab0e 2d3e 8009 a7be
00000020: e472 cc3e 1efb 5c3e d366 1cbe 3718 033f
00000030: 7ddc fe3d ca14 20be 7799 13bf ab7a b33e
00000040: 6e19 b13e 560b 983d 1768 d13e 6155 e6be
00000050: 4571 1bbe 177e 0c3e c5c0 f43e b0c2 8a3e
00000060: 947d 783e 7c59 063e 9e4a 09bf 0d2b 973e
00000070: 7822 c23e 4a18 5abe f667 e03a 8086 103e
00000080: 3e43 88be 9042 ec3e 2838 2e3e c909 d0be
00000090: 1017 7b3d a984 e9be 6547 773e 3e41 2ebe
000000a0: 83c3 cb3e 58d3 f13d 89da 22be 7262 823e
000000b0: 4bbb 413e 2a90 b83e 79d9 1b3e 57b0 043f
000000c0: 2f0d 94bd 9b31 ce3d f0d0 02bf e04b 09bf
000000d0: f0f6 bf3e ef3b b73e 9fe6 08be 7233 573e
000000e0: d22c 85be 7c63 0c3f fcad 043f 215d 42bd
000000f0: 2be8 9cbd 7639 db3e 6448 6cbe 964b 583e
-0.35709035 -0.3630817 -0.38878536 0.46037072 -0.48453403 -0.5735089 0.16900127 -0.32624435
0.39931405 0.21580169 -0.152736 0.51208824 0.124443986 -0.1563293 -0.57656044 0.35054526
0.34589714 0.07424037 0.40899727 -0.44987014 -0.15179928 0.13719974 0.4780332 0.2710166
0.24266654 0.13120073 -0.5362948 0.29525033 0.37916923 -0.21298328 0.0017120827 0.14113808
-0.26613802 0.46144533 0.1701361 -0.40632465 0.06130129 -0.45609024 0.24148329 -0.17017075
0.397976 0.11807889 -0.15903677 0.25465733 0.18919103 0.36047488 0.15219678 0.51831573
-0.07229077 0.10068055 -0.51100063 -0.536314 0.37493086 0.35787913 -0.13369225 0.21015719
-0.26010758 0.548393 0.5182798 -0.047452096 -0.0766147 0.42817277 -0.2307449 0.21122584

shared_layers.2.weight f4 [32, 64]
00000000: 7e46 89bd 0e58 25bd b68a c33d ce5a 91bd
00000010: 7008 34bd 803a 68bc 8462 b4bd a069 873d
00000020: ac39 93bd dd4a bd3d 5037 ae3c e2b3 3d3b
00000030: 0e92 903d 200c 563c 6e3b d73d 0a77 153d
00000040: 2e76 ca3c 435d eebd f8f5 bb3d 9a57 88bd
00000050: 001d b03c 700a 85bd d671 94bd ff70 44bc
00000060: 7aa1 d93d 06fd 1b3d a0fa 9d3b 4a44 efbb
00000070: 3828 2f3d 1e4b 29bc e167 5abc 000d 9dbc
00000080: ae6e 98bd 843c 8a3d 376c 20bd 9c8f df3d
00000090: 2171 bc3d 5cdd dabd 109d 8f3d e82f 43bc
000000a0: ad4f 32bd 2ce0 04be e10c 7e3d 712d 433d
000000b0: ba2c 85bd e227 753c 43e6 ac3d f6dc f4bd
000000c0: a2c7 443c 830b 35bd d47c 1dbd a089 efbc
000000d0: 0e38 d83c 74eb ad3d 6e21 ad3d c05c 803d
000000e0: 008a d83a 8795 3d3d d8ba 94bc 8066 d83a
000000f0: 1c4c 0fbd b435 2bbd 30fb b5bd 66fb 3f3d
00000100: 76dc 9d3d 4ba3 40bd cc3c 603d 7fa5 e03c
00000110: 70b4 a1bd 4067 9dbc ebe5 33bd 0073 f6bd
00000120: 6083 50bd 767b b83d 8859 cd3c 213f 873b
00000130: 2575 e93c 52e8 d0bd 00fa 0d3b cc36 d33d
00000140: e1bb 1ebd 864d b5bb 282d 663d bc31 143d
00000150: f46b e4bd fcbd ac3d bae0 8a3d 3475 83bd
00000160: 1b19 f1bd 600c 7f3d 18b6 843d 52b4 b63d
00000170: 16e9 e8bd 7042 a2bc 31fc f23c 50ca e43d
00000180: 9e6f dabd bbf0 873d 4797 2f3d adef 07bd
00000190: 3080 6bbd 6678 b23d 54ce a9bd 4b82 a23d
000001a0: 0bdc c9bc c7f2 253d 6b4e 343c 43be df3d
000001b0: 85f5 32bd 7dd2 893d f22d 8e3b 6d44 3ebd
000001c0: d10b b03d fe33 5dbc 2c73 36bd 6210 b0bd
000001d0: 851a d0bc d5f2 4e3d e469 29bd d979 163d
000001e0: 2640 8fbd 6ac5 b63d 2897 ac3c 0a43 ca3d
000001f0: 8428 29bd 5603 393c 9063 383c 6130 dd3d
00000200: b0fd fc3d a229 f93d aebb e2bd 863e 933d
00000210: 8096 ebba f68c a73d c087 19bc 1819 ec3c
00000220: e278 d03d ec50 173d 0461 493d e017 febd
00000230: fc13 22bd e643 c7bd cefb 983d 90c4 ec3d
00000240: 001d 083d 1ce2 57bd 70bb a1bc 3082 f23d
00000250: 4c62 15bd 5087 b1bc 9c99 49bd 9266 b13d
00000260: 9ce1 15bd 5afb d6bd ac40 363d dadb d7bd
00000270: 6007 913d c066 623b de39 e7bd bc9d 773d
00000280: 6ca3 92bd 7603 afbd 6078 54bd e0ce ad3d
00000290: f228 84bd 804a 7dbd 0e96 a13d 043c fbbd
000002a0: 88f4 443d 2893 27bd bef0 873d 86a5 b13d
000002b0: def7 f6bd 5c38 403d a6e3 91bd 32d4 873d
000002c0: 645e aa3d 4830 bbbd 4034 793d f463 e1bd
000002d0: 488e fe3c 5cb3 52bd 5076 983d c0a0 9a3d
000002e0: 288b 40bd 4ca5 bd3d 68fe b0bd 1e58 86bd
000002f0: 70ba 43bd 12c6 8fbd c0fc 1bbb c8bb a8bd
00000300: 300f 483c 1a95 b2bd 08c6 013d 90d4 ec3d
00000310: e0d8 303d 1eb9 c4bd cc36 22bd 160b ca3d
00000320: ac8e d8bd fc55 debd f0f5 d1bc be3f 90bd
00000330: 988a c43d b6fa bfbd fccd 643d a0f2 323d
00000340: a0b3 6fbc 26f5 cebd e444 d23d f4d1 cd3d
00000350: 1099 74bd 72de e93d 804d 95bb 70ef 433d
00000360: 1898 463d aa84 cfbd f84d 9bbd 3497 f9bd
00000370: 6274 bc3d f0e1 dcbd 203f c8bb d069 bdbd
00000380: 5458 3d3d 2e28 84bd fc3e a73d 0679 f9bd
00000390: fc20 753d b086 513c fc84 fd3d 58cb b3bd
000003a0: 0c85 e03d e620 aa3d c2df 8cbd c41d 8e3d
000003b0: 0e46 8cbd bea6 f4bd 0cff 753d c05f 953c
000003c0: f2b5 b83d 50eb 94bc c033 af3d c4f3 10bd
000003d0: d01a adbd b868 91bc b622 bebd 6078 d2bb
000003e0: 48a1 f93c c46d 37bd 40e7 98bb e86a 593d
000003f0: f891 a13c 38cb 2abd 50d4 e83d 708e 1c3c
-0.067028984 -0.04036718 0.095479414 -0.07097398 -0.04395336 -0.014174104 -0.08807853 0.06611943
-0.071887344 0.09242795 0.02126661 0.002894633 0.07059108 0.013064414 0.10509382 0.036490478
0.024714556 -0.11638882 0.09177774 -0.06657334 0.021498203 -0.064961314 -0.07248275 -0.011989831
0.10626502 0.0380831 0.0048211366 -0.007301842 0.042762965 -0.010332851 -0.013330431 -0.019171238
-0.074429855 0.06749824 -0.0391657 0.10916063 0.09201265 -0.10686752 0.07012379 -0.011913277
-0.043533016 -0.1297614 0.062024 0.04765076 -0.065026715 0.014963122 0.084423564 -0.119562075
0.012010487 -0.04420043 -0.038449124 -0.02924043 0.026393916 0.08492175 0.08453642 0.06267691
0.0016520619 0.04628518 -0.0181555 0.001651004 -0.034984693 -0.041799262 -0.08885801 0.04687061
0.07708065 -0.04703073 0.05474548 0.027422665 -0.07895744 -0.019214272 -0.04392044 -0.12033653
-0.05090654 0.09007923 0.025067106 0.0041273986 0.028498242 -0.102005616 0.0021663904 0.10313186
-0.038753394 -0.005532923 0.056195408 0.036180243 -0.11153403 0.08434674 0.067811444 -0.06418839
-0.117723666 0.06226766 0.06480044 0.08921112 -0.113725826 -0.01980707 0.02966127 0.111714005
-0.106658205 0.066377126 0.04286888 -0.033187557 -0.057495296 0.087143704 -0.08291307 0.07935008
-0.024641057 0.040514734 0.011005024 0.109249614 -0.043691177 0.067296006 0.004338973 -0.046451975
0.08596004 -0.013501165 -0.04454343 -0.08596875 -0.02540327 0.05052455 -0.04136075 0.036737297
-0.06994657 0.089243725 0.02106817 0.09876068 -0.041298404 0.011292299 0.011254206 0.10800243
0.123530746 0.12166144 -0.11070953 0.0718966 -0.001797393 0.08181183 -0.009370744 0.02882056
0.101793066 0.036942407 0.049164787 -0.124068975 -0.03956984 -0.097297475 0.07469903 0.11560929
0.03323078 -0.05270587 -0.019742697 0.118412375 -0.036470696 -0.021670967 -0.04921876 0.08662142
-0.03659211 -0.1049716 0.04449527 -0.1053998 0.07081485 0.0034546107 -0.11290334 0.06045316
-0.071600765 -0.08545582 -0.05187261 0.08486724 -0.06453122 -0.061838627 0.07889949 -0.122673064
0.048084766 -0.040911824 0.06637715 0.08674149 -0.12058996 0.04692875 -0.071234986 0.0663227
0.08318785 -0.09140068 0.060840845 -0.11005393 0.031073704 -0.05144058 0.07444441 0.07550192
-0.04700771 0.092600435 -0.08642274 -0.06559776 -0.047785223 -0.07020201 -0.0023801774 -0.082389414
0.012210652 -0.08719845 0.031682998 0.115639806 0.043175578 -0.09605621 -0.03960304 0.09865396
-0.105740875 -0.10856244 -0.025629967 -0.07043408 0.09596747 -0.09373991 0.055860505 0.043688416
-0.014630228 -0.10105352 0.10267046 0.10049811 -0.059716284 0.11419381 -0.004556358 0.047835767
0.04848489 -0.101327255 -0.07583231 -0.12187043 0.09201886 -0.10785282 -0.0061110407 -0.09248698
0.046226814 -0.06452976 0.0816631 -0.121812865 0.05984591 0.01278846 0.123788804 -0.08779019
0.10962877 0.08307056 -0.06878616 0.06939271 -0.06849299 -0.11945866 0.060057685 0.018234134
0.09019078 -0.018178612 0.085547924 -0.035388723 -0.0845238 -0.01775013 -0.09283964 -0.006423041
0.030472413 -0.044782415 -0.004666239 0.05308047 0.019722924 -0.04169771 0.113686204 0.009555444

shared_layers.2.bias f4 [32]
00000000: ed4e 46bd dfd6 873c 0831 d73c 5a87 9abd
00000010: 9014 28bd c0a6 383c eee7 7ebd b6e8 233a
00000020: 13f8 2cbc 6053 eabd 7208 aa3d 6bbb ea3d
00000030: 926c e23d fdf0 ba3d b1c4 8b3d 74da 21bd
00000040: b54c 8f3d c8f1 ff3a 26af c9bd 3fa3 b43d
00000050: e093 003d 704d b43d ce86 cabd 036c a83d
00000060: 789c b63d 5730 24bd 43d5 393b 4830 4abd
00000070: 4663 f5bd 9ee9 50bd 3e6d debd 99c5 723c
-0.048415113 0.01658195 0.026268497 -0.075453475 -0.041035235 0.011270225 -0.062232904 0.0006252633
-0.010557192 -0.11441684 0.08302392 0.114615284 0.110558644 0.09127996 0.06824625 -0.039514974
0.069970526 0.0019527012 -0.0984786 0.08820199 0.031391025 0.088038325 -0.09888993 0.082237266
0.08916563 -0.040085163 0.0028355874 -0.04936245 -0.119818255 -0.051004045 -0.1086068 0.014817619

shared_layers.4.weight f4 [8, 32]
00000000: 9ba5 11be 35fd 8b3d 7134 debd 602a febc
00000010: b9fd 20be 9f00 91bd 3aa2 f3bd 6c69 853d
00000020: 4b28 14bc 1761 96bd 63a9 323d 2842 7bbb
00000030: 4e42 e63d b0f5 cd3d 55f6 00be d971 95bd
00000040: d438 883d fe62 183e 5e24 2dbd ef32 b6bc
00000050: 9bec cfbd 7926 003e cb8e 4a3c 333b bfbd
00000060: d63a 5a3d 0668 123e 8994 25be 10c0 b2bb
00000070: 5473 20be cfca ed3d 8622 c7bd 92bf 1cbe
00000080: b4ad 193e 74e2 153e 9def 9d3c 589c 123d
00000090: 65bd 703c 215b 4a3d 9a80 e03d 509b 0dbe
000000a0: 67e8 eb3d 3474 a13c ee9d 913d 7f99 4cbd
000000b0: 4ea6 cfbd 12d8 d23d 8aa3 03be 9aa1 dcbd
000000c0: 5652 9fbd e6c0 a93d 914d babd 9f74 35be
000000d0: e85d e5bd 9911 1a3e a9c1 aa3d 7cb5 c83d
000000e0: cdb7 e63d 5a87 213e e4c3 9cbd b315 13bc
000000f0: 36f3 d03b 0de8 e0bd ffd4 0abe ef82 e43d
00000100: 4027 993d a4ea 103d 0a50 03be 3e2c 0fbe
00000110: 443f d03d f2b1 183d f149 30be 401c 1a3c
00000120: d664 3fbd 5a16 013e 3e38 543a 4e13 fd3d
00000130: 4773 6b3c 44c7 fb3d 6082 003d 2e4a 4e3d
00000140: ac14 18be a1f8 ef3d c9eb 9a3d 0a49 62bd
00000150: 27ad 093e f0fc eebd 9ea0 22be 76ae debc
00000160: 0d24 adbd d90d 30be 8ae7 93bd 4936 01be
00000170: 2df7 d9bd ca74 c7bd 10e7 bebd 3821 b6bc
00000180: 2e3e debd ebf6 063e 4045 b5bc deb9 593d
00000190: 12dc f53d 0450 973b 59e9 9a3d 7dab 6ebd
000001a0: 4b5a 24be 3d9b 33be 444f 66bd 62f9 0abe
000001b0: 94d0 1ebd df69 143e 0d8a 053e 9244 a8bd
000001c0: a8c1 68bc 2dfc 143e 0f40 24bd 30ee 12be
000001d0: c976 fa3c 5ab2 07bd 433c 283d 7717 0fbe
000001e0: e2ce b13d e00f 203d 2756 a53d cf35 f8bd
000001f0: dbc2 9bbc 5466 13be 569e 55bb b647 1e3e
00000200: 8fed 9bbd 09e3 b53d e44e e93d eec1 f7bc
00000210: 5145 703d fdf1 efbd 73cf bc3d 1e86 ca3d
00000220: 227a 4c3d 24d1 29be 3316 aebd 9144 3ebe
00000230: 89cb 18be db4a f63d 2d43 9abd fab7 c23d
00000240: d75a 643d 5570 11be 3500 30be d801 083e
00000250: d883 4abd 9894 7abd 9391 33be d8a5 48bd
00000260: 9b03 ebbd 444a b73d 60b4 76bd c3d6 203e
00000270: 32dc 943d 7552 3abe a1b7 e53d 02c8 7fbd
00000280: 8298 d6bd cea8 f7bd 55e8 183e 494c 903d
00000290: f090 6f3d b02c d53c b7e8 a13d f224 1ebc
000002a0: 42aa 163e 4c58 a5bc 4715 d73d 14ce 8bbd
000002b0: d42c 2fbe b965 ad3d 28ff 193e cbc4 e2bd
000002c0: 39af f53c 38ee f9bc ef7c 30be 2432 223e
000002d0: f59b 07bd db1b 5a3d 9e39 d9bc 3076 f1bd
000002e0: e1bc c33d 7b25 21be dd64 a63d c234 2c3e
000002f0: d069 fa3c 029e 4fbd 6c3b 1fbe 69f4 7b3c
00000300: 8c45 aabd 44a6 9ebd 46ca 07bd 3587 a33d
00000310: 4903 15bd be22 cfbd 62f9 8a3d b88f 62bd
00000320: 9155 3a3d e4be 22be ee03 fa3d 5cad 44bd
00000330: d7b5 e8bd ae68 a1bd 2b8f 24be 34d2 f33d
00000340: 27f7 923d 3244 e43c cd19 00bd 0fdd d7bc
00000350: 6ae4 af3d 82c4 23bc 91a1 d4bd a381 7c3d
00000360: 9af7 65bd b048 a3bd 1eac 73bd 0e90 c1bc
00000370: 9eee 993d 50eb c03b a947 2abe dce5 0b3e
00000380: 8d04 1a3e 9589 94bd fff2 4bbb edee a03d
00000390: 896e c53d d20e 36b9 42b7 babd 92a6 c53d
000003a0: cbe2 313e b289 15be 7a27 dbbd 0a8d 1e3e
000003b0: 7ca2 1abe b666 0d3e 43fb 10bd 4cc4 db3d
000003c0: 85c4 b7bd 8021 d23d 47fb b9bd bbc7 e0bd
000003d0: ca43 283e 71a9 dfbb de2d 223e fdcd f2bd
000003e0: cd2a c03d 92f7 c5bd e772 013e 0dce 2b3e
000003f0: f6e2 243d 470a ac3c 0b82 033e 6d7a c43d
-0.1422333 0.06835405 -0.10849846 -0.031026065 -0.15721788 -0.070801966 -0.11896177 0.06514248
-0.00904281 -0.07342737 0.04361857 -0.0038338993 0.11243115 0.10056627 -0.12593968 -0.07297105
0.06651464 0.14881513 -0.04227101 -0.022241084 -0.10152551 0.12514676 0.012363146 -0.09337463
0.053278767 0.14297494 -0.16169943 -0.0054550245 -0.15668994 0.11610948 -0.09723382 -0.15307453
0.15007669 0.14637166 0.019279296 0.035793632 0.014693593 0.049403314 0.10962029 -0.13828778
0.115189366 0.01970873 0.07110201 -0.049951073 -0.10139142 0.102951184 -0.12855354 -0.107730106
-0.07779376 0.082887456 -0.09096826 -0.17720269 -0.11199552 0.15045775 0.08337719 0.098002404
0.11265526 0.15774289 -0.07654551 -0.008977341 0.0063766493 -0.1098176 -0.13557814 0.11157786
0.074781895 0.03538002 -0.12823501 -0.13981721 0.10168317 0.037279077 -0.17215706 0.009406149
-0.046727024 0.12606183 0.0008095539 0.12357198 0.014370746 0.12293866 0.031374335 0.050363712
-0.14851636 0.11717344 0.07564504 -0.055245437 0.13444959 -0.11669338 -0.15881583 -0.027182799
-0.08454142 -0.17192782 -0.07221897 -0.12618364 -0.10642848 -0.097390726 -0.093214154 -0.022232637
-0.108517036 0.13180129 -0.022127748 0.053155772 0.12004866 0.004617693 0.07564039 -0.058269013
-0.16050069 -0.17539687 -0.056227937 -0.13571694 -0.038773134 0.14493512 0.13040943 -0.08216204
-0.0142063275 0.14549322 -0.040100154 -0.14348674 0.03057422 -0.033129074 0.041073095 -0.13973795
0.08682038 0.03907764 0.08073073 -0.12119638 -0.019013813 -0.14394504 -0.0032595596 0.15457043
-0.0761367 0.08881194 0.11392 -0.03024384 0.058659855 -0.117160775 0.09219255 0.09888862
0.049921162 -0.16583687 -0.08500328 -0.18580844 -0.14921393 0.12025996 -0.07532344 0.09507747
0.055750694 -0.14203008 -0.17187579 0.13281953 -0.049442142 -0.061176866 -0.17536001 -0.048986286
-0.11475297 0.08949712 -0.060230613 0.15706925 0.072685614 -0.18195517 0.11216665 -0.0624466
-0.10478307 -0.12092744 0.14932378 0.070458 0.058487833 0.026022285 0.07905715 -0.009652363
0.14713386 -0.020183705 0.10502105 -0.06826416 -0.17106944 0.08466668 0.1503874 -0.110726915
0.02999078 -0.0305091 -0.17235158 0.1583944 -0.033107717 0.05324922 -0.026516732 -0.117901206
0.0955751 -0.15736954 0.08124707 0.16817 0.030568033 -0.050687797 -0.15550011 0.015378096
-0.08314046 -0.077465564 -0.033151887 0.07984773 -0.036380086 -0.101140484 0.06785847 -0.055312842
0.04549176 -0.15893131 0.12207781 -0.04801689 -0.11362808 -0.07881294 -0.16070239 0.119053274
0.07176047 0.02786455 -0.031274606 -0.026350526 0.085884884 -0.009995582 -0.10382379 0.06164707
-0.056144334 -0.079728484 -0.059490316 -0.023628261 0.07516216 0.0058874264 -0.16628899 0.13661903
0.15040798 -0.07252804 -0.0031120179 0.078580715 0.096402235 -0.00017362394 -0.09116985 0.096509114
0.17371671 -0.14603308 -0.10700889 0.1548349 -0.15101045 0.13808712 -0.03539587 0.107308
-0.0897303 0.10260296 -0.090811305 -0.109755956 0.1643211 -0.006825619 0.1583781 -0.118556954
0.093831636 -0.09666361 0.12641488 0.16777821 0.04025551 0.021000994 0.12842576 0.09593663

shared_layers.4.bias f4 [8]
00000000: b96c 943d 586b 103e bcc9 6a3c b274 fe3d
00000010: cd9c 8e3d de67 4dbc d33f 183d 6534 bbbd
0.072473 0.14103448 0.014330324 0.124246016 0.06963501 -0.012536971 0.037170243 -0.09140853
